Assets/Dueler-999990.onnx (onnx, 402609 bytes, 19 tensors)

network_body.observation_encoder.processors.0.normalizer.running_mean f4 [14]
00000000: 7de7 6d3f ce0e 753f 09fd 6e3f 226a 753f
00000010: b43f 6f3f d990 753f 66ab 713f 7e63 763f
00000020: fed8 713f 0f90 763f 9d0a 743f 6f3c 773f
00000030: 7763 743f 488f 773f
0.9293135 0.95725715 0.9335485 0.9586507 0.9345658 0.95924145 0.9440216 0.96245563
0.9447173 0.96313566 0.95328695 0.9657659 0.9546427 0.96703005

network_body.observation_encoder.processors.1.normalizer.running_mean f4 [14]
00000000: 5288 693f 661c 723f 5da1 6a3f 1386 723f
00000010: 990f 6b3f a7c2 723f 10ab 6d3f e6a5 733f
00000020: ae3c 6e3f 4b0a 743f 82df 703f 46d7 743f
00000030: 166d 713f 3250 753f
0.91223633 0.9457458 0.9165247 0.9473583 0.91820675 0.94828266 0.92839146 0.95175016
0.9306134 0.95328206 0.94091046 0.9564098 0.94307077 0.95825493

network_body.observation_encoder.processors.2.normalizer.running_mean f4 [435]
00000000: da66 2b41 25b4 bf3d 6dfe 9fbf 8865 2b41
00000010: 13b8 bf3d 9d1a e7bf 801c 2b41 5167 8f3d
00000020: d02e 933f 2a1b 2b41 efe7 8f3d 6832 f43f
00000030: c846 2a41 ee49 893d b1da a63f d145 2a41
00000040: 65b7 893d bf75 e13f 6696 2a41 cbd3 bd3d
00000050: e9b7 ae3f ae95 2a41 b1da bd3d d284 d83f
00000060: 51b1 2841 395f 683d a4b4 0cbe 5059 2941
00000070: d9fe 683d 3d72 5dbe e95e 033d e2c0 ec3d
00000080: 0cb3 f5bc 2c90 ef3d 579a a5b7 fa84 043d
00000090: e1cf 8f37 91ee 6c3b 6fc9 0abd 50fd b8ba
000000a0: de14 f93f fef8 153e 0df0 053f 5d8c 06be
000000b0: a4bc 423f 53b4 ab3f c60e fdbf a4bc 423f
000000c0: 53b4 ab3f 0484 8abf c64c df3e 7f38 993f
000000d0: f245 1c40 c64c df3e 7f38 993f 010d 1e3f
000000e0: b657 b83e 0a1a 793f a86d 0d40 b657 b83e
000000f0: 0a1a 793f b46e 593f f6bd 3c3f 7477 a23f
00000100: 745d e63f f6bd 3c3f 7477 a23f 3035 a13f
00000110: 6fe8 bc3e af50 163f de12 a7be f1c8 b23e
00000120: 8836 2f3f aacb 00bd faa7 cb3c bf50 033e
00000130: a86a d3bc b02d 003e 5d59 1b3a 8ac1 043d
00000140: eca0 efb8 3613 523b f5dc 0cbd 71a5 01bb
00000150: 7011 f93f c32c 193e 602b 063f 898e 2c41
00000160: f2fd c03d f912 a1bf 278d 2c41 8002 c13d
00000170: 87aa e8bf c843 2c41 995d 903d ee2c 943f
00000180: 6042 2c41 dcdf 903d 5ad9 f53f 926c 2b41
00000190: b935 8a3d 0bfb a73f b56b 2b41 4fa4 8a3d
000001a0: 0afc e23f b6bc 2b41 781a bf3d dfe5 af3f
000001b0: e9bb 2b41 9121 bf3d 19fb d93f 8ed4 2941
000001c0: b0e3 693d b38b 0cbe df7c 2a41 7384 6a3d
000001d0: 1bb9 5dbe 167d 033d 302e ed3d 48a7 f5bc
000001e0: cd22 f03d 59ec b1b7 73b5 043d 7e18 3c37
000001f0: 6b4d 7c3b 4eb3 0abd 3f91 beba 9fc2 fa3f
00000200: 37e4 163e 0550 063f 3ada 07be 160d 443f
00000210: 96dc ac3f 5ec3 febf 160d 443f 96dc ac3f
00000220: 1673 8bbf 01ce e03e d540 9a3f b653 1d40
00000230: 00ce e03e d540 9a3f b31d 1f3f fb95 b93e
00000240: edc7 7a3f 6961 0e40 fb95 b93e eec7 7a3f
00000250: d5e5 5a3f c303 3e3f e18f a33f 3beb e73f
00000260: c303 3e3f e18f a33f 6a4b a23f 0b20 be3e
00000270: c144 173f d826 a7be 5df8 b33e 784f 303f
00000280: ea3a 01bd f220 cc3c ddbb 033e 9da2 d3bc
00000290: 388a 003e a551 173a acec 043d 8276 c9b8
000002a0: 6ccf 703b ebaf 0ebd ca5c 00bb 5fbf fa3f
000002b0: 7a2b 1a3e fe8c 063f 4fb6 2d41 ae47 c23d
000002c0: 8327 a2bf f6b4 2d41 f24c c23d 213a eabf
000002d0: 006b 2d41 b653 913d 612b 953f 8f69 2d41
000002e0: 7fd7 913d ed7f f73f 3492 2c41 5321 8b3d
000002f0: 891b a93f 9e91 2c41 0a91 8b3d 6b82 e43f
00000300: d0e2 2c41 0a61 c03d ef13 b13f 50e2 2c41
00000310: b768 c03d 9b71 db3f 2df7 2a41 cc67 6b3d
00000320: 525e 0cbe 2da0 2b41 060a 6c3d 20ee 5dbe
00000330: 6c99 033d af94 ed3d d09e f5bc e1a9 f03d
00000340: ba74 b8b7 3def 043d 5836 9836 9971 703b
00000350: ce6f 0abd a530 e4ba 2970 fc3f db0f 183e
00000360: 66af 063f 2a3c 09be a65c 453f 8a04 ae3f
00000370: d73b 00c0 a65c 453f 8a04 ae3f e261 8cbf
00000380: 544f e23e 1549 9b3f 2761 1e40 534f e23e
00000390: 1549 9b3f 452e 203f ebd3 ba3e 7275 7c3f
000003a0: 8355 0f40 ebd3 ba3e 7275 7c3f fc5c 5c3f
000003b0: 5f49 3f3f e5a7 a43f 5b78 e93f 5f49 3f3f
000003c0: e5a7 a43f 1a61 a33f 3357 bf3e 1238 183f
000003d0: ab2e a7be a927 b53e dd67 313f b92d 02bd
000003e0: 6b80 cc3c 941f 043e 69dd d3bc 74e3 003e
000003f0: 1317 0d3a a60d 053d b505 99b8 101f 863b
10.71261 0.09360532 -1.249952 10.712288 0.09361281 -1.8054997 10.694458 0.07002128
1.1498661 10.694132 0.0702666 1.9077883 10.642281 0.06703554 1.3035489 10.642045
0.06724433 1.7614058 10.661718 0.09268912 1.3649875 10.661543 0.09270228 1.6915534
10.54329 0.056731436 -0.13740784 10.584305 0.056883667 -0.2162561 0.032072935 0.11560227
-0.029992603 0.116974205 -1.9741403e-05 0.03235338 1.714373e-05 0.003615294 -0.03388351 -0.0014113579
1.9459493 0.14645764 0.52319413 -0.13139482 0.7606909 1.3414406 -1.9770133 0.7606909
1.3414406 -1.0821538 0.4361326 1.1970366 2.4417691 0.4361326 1.1970366 0.6173859
0.36004418 0.9730536 2.209818 0.36004418 0.9730536 0.84934545 0.7372736 1.2692704
1.799727 0.7372736 1.2692704 1.2594357 0.36896083 0.58716863 -0.32631582 0.3491893
0.68442583 -0.03144423 0.02486037 0.12823771 -0.025807694 0.12517428 0.0005926097 0.032411136
-0.00011426382 0.0032054908 -0.03439041 -0.0019782449 1.9458447 0.14958481 0.52409935 10.784799
0.09423436 -1.2583915 10.784461 0.09424305 -1.8177041 10.766548 0.07049102 1.1576211
10.766205 0.07073948 1.9206955 10.714006 0.06748528 1.3123487 10.713796 0.067696206
1.7733166 10.733572 0.093312204 1.3742026 10.7333765 0.09332574 1.7029754 10.614393
0.057101905 -0.13725166 10.655486 0.05725522 -0.21652643 0.032101713 0.11581075 -0.029986992
0.11725388 -2.1210102e-05 0.032399606 1.1211376e-05 0.0038498293 -0.033862405 -0.0014539136 1.9590644
0.14735495 0.5246585 -0.1326684 0.7658247 1.3504817 -1.9903371 0.7658247 1.3504817
-1.0894496 0.43907169 1.2051035 2.4582343 0.43907166 1.2051035 0.6215469 0.3624724
0.9796131 2.2246954 0.3624724 0.9796132 0.85506946 0.7422449 1.2778283 1.8118662
0.7422449 1.2778283 1.2679265 0.37133822 0.59089285 -0.32646823 0.35150424 0.6887126
-0.031550325 0.024918053 0.12864633 -0.025834376 0.12552726 0.0005772359 0.03245227 -9.606501e-05
0.0036744727 -0.034835737 -0.0019586557 1.9589652 0.15055647 0.52558887 10.857009 0.09486328
-1.2668308 10.85668 0.094873324 -1.829899 10.838623 0.07096045 1.1653863 10.838271
0.07121181 1.9335915 10.785694 0.067934655 1.3211528 10.785551 0.068147734 1.78523
10.805374 0.09393509 1.3834208 10.805252 0.09394973 1.7144045 10.685346 0.057472035
-0.13707855 10.726605 0.057626747 -0.21672869 0.032128736 0.11600625 -0.029982954 0.11751152
-2.1988864e-05 0.032454718 4.5362794e-06 0.0036688803 -0.03379803 -0.0017409517 1.9721729 0.14849798
0.52611387 -0.13401857 0.77094495 1.3595135 -2.0036523 0.77094495 1.3595135 -1.0967371
0.44201148 1.2131678 2.4746797 0.44201145 1.2131678 0.625706 0.36489806 0.9861671
2.2395942 0.36489806 0.9861671 0.8607938 0.7472133 1.2863737 1.8239855 0.7472133
1.2863737 1.2764008 0.37371215 0.59460557 -0.32652792 0.3538182 0.6929911 -0.031781886
0.024963578 0.12902671 -0.025862413 0.12586766 0.00053821615 0.03248372 -7.2966715e-05 0.0040930584

network_body.observation_encoder.processors.3.normalizer.running_mean f4 [14]
00000000: f105 6a3f c17c 723f 8521 6b3f 26e3 723f
00000010: 2280 6b3f 7517 733f a14f 6e3f 9611 743f
00000020: 6fa2 6e3f 904e 743f 6d5c 713f d735 753f
00000030: 80c4 713f 278d 753f
0.91415316 0.9472161 0.9184802 0.9487785 0.9199239 0.9495767 0.93090254 0.95339334
0.93216604 0.95432377 0.94281656 0.9578528 0.9444046 0.95918506

network_body._body_endoder.seq_layers.0.weight f4 [128, 477]
00000000: 7825 a5bd 5647 4cbc f39d cebd f07e b6bc
00000010: 43cb 30bd 5997 5cbc ac4e 52bd eed0 a2bd
00000020: 3d31 8f3d c6cf b6bd 0d44 a73c 9fec d1bb
00000030: fea6 a03d 2e6a 83bc d735 eebc e5ac d1bc
00000040: c89e fcbc f262 cabb 802c 2dbd cb1e 86bd
00000050: a536 913d 6d73 ef3c be30 1ebb e57d 393a
00000060: 5840 e83b ed84 23bd 7a6d a83d 0741 aa3d
00000070: 4d0f 3f3c 6747 a5bd 79c2 d6bc 33b9 dcbb
00000080: a59d 9bbb 7dd3 d9bc 7319 c73d f2b1 82bd
00000090: 609c f5bb e018 773d fe16 133d 66d6 80bc
000000a0: 9fcb 903d 7849 e8bd 26fe 073d e85b 74bd
000000b0: 2c70 b6bb 370d 153d 6c2c b8bc 1257 f9bc
000000c0: ae38 b13d c1a9 80bb b653 51bc f2f3 243d
000000d0: 1f5f 9a3c 915e 713d 17ea 293d 865a 053d
000000e0: 2776 6fbd 496b 8e3c 5e7e df3c b4e3 853d
000000f0: 1186 853d 841d c9bd d673 0e3d 29cd 603c
00000100: 477f 073d a9ef 30bc 2e2c ab3c 8378 053d
00000110: bbf6 9a3c 9b90 9abc 0f2e bfbd 120a 60bc
00000120: d88d fd3c 547f c83d e70a afbd 0a27 583d
00000130: 8b5d 4c3d a5b7 9cbd 2bac 6fbd 73b5 5c3d
00000140: bcee 9fbc 4085 203d 2f5d 44bd 3a7e 093d
00000150: a9c5 49bd b1c9 7dbd eaa2 053c 69df 48bd
00000160: c952 9f3c 5518 823c 7cac 4e3b f56a c53c
00000170: 57ff 43bd 52a1 6f3d d197 ad3d 7fe5 993d
00000180: 4bbf 773c 59b5 2f3b 1a3c b33d c8ca b1bc
00000190: 1d0f 673d 383a db3c 879a e3bd 0260 57bd
000001a0: 680d 18bd 6122 9b3d c2a4 7abc 6dba 813c
000001b0: bcfa 8c3c d76d e53c be36 80bc f765 6bbd
000001c0: 494c 1f3d 98c4 6a3d 6205 c93c 4271 973a
000001d0: 5e03 5fbd 3510 6cbd 0536 453c d707 7cbd
000001e0: 5009 12bd 1c78 9cbd c6f6 103d f77d a53d
000001f0: 9d41 0bbd 5b16 483d d049 f53c 7b59 c83c
00000200: 0882 d13c 1c2f 893d 2844 acbc 1194 12bc
00000210: 9df4 be3d 429e 2a3c 04a5 b6bc 87d6 5a3d
00000220: c466 053d 3943 7b3d a431 8e3d 1536 4bbd
00000230: bd70 e5bc d605 42bd a261 933d 546e b03b
00000240: e4fc 8cbd 87ab 2ebd 126e 7cbc 8fdd 813d
00000250: 3adc dfbc a019 17bc da18 ae3d ea30 cebc
00000260: 41d2 5bbc 4d25 f53d 5e08 c33c 53e7 783c
00000270: 9ac7 96bc 15f1 3cbc 4249 893d 054e 4abc
00000280: d002 d83d 0834 9c3c 2214 f83c 4985 493d
00000290: b342 29bd cb0d 97bd b5ce 3e3d b421 8a3d
000002a0: ada6 d33c 372b 0dbc 0c28 84bc e11b 14bd
000002b0: 21b1 32bd e68f 35bc ba4b 4c3d d276 f83c
000002c0: 2a9d 913c 2a1e 1e3b e075 a83c 2529 883c
000002d0: e552 173b 751e 933d 39f9 d83c 09c4 a7bd
000002e0: 04b8 983d 9c16 843d 9247 b03c 4927 3f3c
000002f0: d543 b03a 40ac 253d 2820 abbc f053 683d
00000300: d393 b43c 8a35 d0bc 1d1e a7bc 8126 073d
00000310: bef0 243e f510 2d3c 271b a73d 126e 913c
00000320: 5945 033e 82c4 233c d89c d43c 64b5 2bbd
00000330: 8fae 4ebb 3052 793d 29c5 64bd 8a79 ccbc
00000340: d723 883d 3cd6 09be 1d1e f4bd 1d83 aa3d
00000350: 6d89 ecbc a2c6 b9bc 72ba 3bbb 59ea c03b
00000360: f55f 26bd 6a5b 28bd 40b6 78bc 6306 ecbc
00000370: e027 ba3d 4354 cfbd a6ea 50bb 49d1 a73d
00000380: 1a85 ab3d f635 d33c 0494 873d d8c7 0dbd
00000390: cc92 27bd 2ebd 1b3d bbbe 8cbd 4246 f6bd
000003a0: d61d a2bc ee1a a63d a38c 3d3d 196e 7abd
000003b0: d7e4 1b3d b1b4 bd3c 4b07 42bc d522 d73b
000003c0: 6c7a 573b a928 b03c 6fca 8d39 e2e0 1cbd
000003d0: ced0 3f3c 9a4e 553d e7d7 403d 9da4 3fbb
000003e0: 4770 d9bd 7db8 213c a68a 2f3c b57a 13bd
000003f0: aa15 9e3d 1771 723d 8cf1 673d 5007 2cbc
-0.08063787 -0.01246818 -0.1008872 -0.022277325 -0.043162595 -0.0134638185 -0.05134456 -0.079500064
0.06991813 -0.089263484 0.020418191 -0.0064063813 0.07844351 -0.016041841 -0.029078407 -0.025595138
-0.030837432 -0.006176346 -0.042278767 -0.06548842 0.07090501 0.029229844 -0.002413794 0.00070759497
0.0070877485 -0.03992169 0.08224006 0.08313184 0.011661363 -0.080702595 -0.026215779 -0.0067359447
-0.0047490173 -0.026590103 0.09721651 -0.063815966 -0.007495448 0.060326457 0.0359106 -0.015727233
0.07070088 -0.11342138 0.03320136 -0.05965796 -0.005567571 0.036389556 -0.02248212 -0.030437026
0.08653389 -0.0039264862 -0.012776306 0.040271707 0.018844185 0.058928076 0.04148301 0.032557033
-0.05846229 0.017385142 0.027281936 0.065375715 0.06519712 -0.09820083 0.03477844 0.013720789
0.033080366 -0.010799327 0.02089509 0.032585632 0.018916478 -0.018867781 -0.09334957 -0.013674276
0.030951425 0.09789911 -0.08547001 0.052771606 0.049893897 -0.07652215 -0.0585138 0.05388398
-0.019523017 0.039189577 -0.04794043 0.033567645 -0.04926077 -0.061959926 0.0081565175 -0.049041186
0.019448655 0.015880743 0.0031535914 0.024098853 -0.047850933 0.058503456 0.08476222 0.07514476
0.015121291 0.0026810972 0.08751698 -0.021703139 0.056410898 0.02676116 -0.11113458 -0.052581795
-0.03712216 0.07574917 -0.01529807 0.015835965 0.017209403 0.028006477 -0.015651103 -0.057470288
0.03889111 0.057316393 0.0245387 0.0011554139 -0.05444657 -0.057632644 0.012036805 -0.061530914
-0.035653412 -0.076400965 0.03539159 0.080806665 -0.03399812 0.048849445 0.029942423 0.02445673
0.025574699 0.066984385 -0.021028593 -0.008946435 0.09324 0.010413708 -0.022295482 0.053427245
0.032568708 0.061343405 0.06943062 -0.049612124 -0.02800786 -0.047368847 0.07196356 0.005384246
-0.068841726 -0.04264405 -0.015407102 0.06341087 -0.027326692 -0.009222418 0.08500834 -0.025169808
-0.013416828 0.11970005 0.0238077 0.015191871 -0.018405724 -0.011532088 0.06703426 -0.012347703
0.105474114 0.01906778 0.030283038 0.049199376 -0.041323375 -0.07375678 0.04658385 0.067447096
0.025836313 -0.00861626 -0.016132377 -0.0361594 -0.043625955 -0.011081671 0.049876906 0.030330095
0.017775137 0.0024126866 0.02056402 0.016621182 0.002309018 0.071835436 0.026486026 -0.081916876
0.07456973 0.06449625 0.021518502 0.011667081 0.001344795 0.040447474 -0.020889357 0.056720674
0.022043144 -0.025416154 -0.020400101 0.032995705 0.16107461 0.010563125 0.08159476 0.01775268
0.12819423 0.009995582 0.025953695 -0.041921034 -0.003153715 0.060869396 -0.05585209 -0.024960298
0.06647461 -0.1346063 -0.11919806 0.08325789 -0.028874123 -0.022677723 -0.0028645066 0.0058873114
-0.040618856 -0.041102804 -0.015180171 -0.02881164 0.09089637 -0.101234935 -0.0031878143 0.08194215
0.083749965 0.025782567 0.066200286 -0.034614414 -0.04091148 0.038022213 -0.068723164 -0.12025119
-0.019789618 0.08110605 0.0462767 -0.061140154 0.038060036 0.02315745 -0.011842559 0.0065654316
0.0032879366 0.021503763 0.0002704444 -0.038300402 0.011707498 0.052076913 0.0470809 -0.0029242404
-0.10617118 0.009870646 0.010714209 -0.036005694 0.07718976 0.059189882 0.05662684 -0.01049979

network_body._body_endoder.seq_layers.0.bias f4 [128]
00000000: c332 dc3c 7322 323c 0324 113b aa9e 92b8
00000010: 934c e83c 0f75 a13c b09d 5c3c ee95 793c
00000020: 6dc2 2d3b 278f 953b df77 5d3b edb1 f83b
00000030: 47e0 703c 36ed 3f3c ebe1 613c ed60 a23c
00000040: 4e83 a23a d935 7dbb 7ac4 8e3c bd7a 813b
00000050: 00f0 cd3b 781f 8e3c 03fa 3d3c abc7 e23c
00000060: 745a 053c b969 813c 356f 043c db14 353c
00000070: 6929 d63c 4639 4dbc 9b8c cb3a 47db 0e3c
00000080: 710a ae3c b48b 313b e1b7 773b 7dda 013c
00000090: a051 82bb cac4 813c dd98 dc3a 1a53 183b
000000a0: a8b9 a33c c3f2 f93b a5df 0ebc b81c a83c
000000b0: 6ef6 5ebb d927 5b3c aec6 38ba 0006 4a3c
000000c0: 803a 713c 60c9 ab3c 367c 503c 9f9b 0d3d
000000d0: a28e 1d3c fdda b03b bbbd 163c b65f 3f3c
000000e0: 1954 483c 616e 883c 3d72 923c 8ff8 10bc
000000f0: 150e 003c ad2d ef3c d18a 623c ddf1 9c3c
00000100: eef9 42bb 44ac eabb 247c 2e3c 14cb 4d3c
00000110: 31d0 083b ab45 0d3c c7bd 0c3c e736 3c3c
00000120: 24c7 8b3c 2eb9 053c 0803 c13c ff58 bf3c
00000130: 425f 0f3d 2238 c33b ed6d 1d3b 6889 483c
00000140: 58ca 893c 6383 ee38 8826 0b3c a68a 2b3c
00000150: 5e08 ed3b d413 be39 ed1c 043c 5851 463c
00000160: f885 133c 367a 963c 7af5 963b aa33 183c
00000170: 05c6 8f3c 3bb5 093c b701 ad3c 5262 f5b9
00000180: b55e d43b 1c3c 563c bea1 163c d910 5dbc
00000190: 7502 5f3b bc5b 2c3c bfd5 c43c 57c8 d93a
000001a0: 42f5 d23c 5ad7 30bc ae82 443c 7bf4 f93c
000001b0: 67c0 593c 7f37 3a3b e496 123c f75a a4b9
000001c0: f341 a33c 9e3e b43b 786e ae3c 78ed 053b
000001d0: 0403 583c 89cd 1c3c 67e3 703c 508f e13c
000001e0: d7d3 0b3c 9ce4 583a e5c9 233c 4467 8e3c
000001f0: 2d98 c8b9 a4e5 e33c 0105 753c 75cf 343b
0.026879674 0.010872471 0.0022146709 -6.991376e-05 0.028356826 0.019709138 0.01346533 0.0152335
0.0026513592 0.004564184 0.0033793373 0.00758957 0.014701909 0.01171427 0.013786773 0.019821608
0.0012398751 -0.0038636832 0.017427672 0.003951399 0.0062847137 0.01734899 0.011595252 0.0276831
0.0081392415 0.015797483 0.008083154 0.011052336 0.026142793 -0.012525862 0.0015529575 0.008719272
0.021245213 0.0027091326 0.003779881 0.007925627 -0.0039770156 0.015840907 0.0016830225 0.0023242892
0.019985989 0.0076278164 -0.008720313 0.020521507 -0.0034021395 0.0133762 -0.00070486485 0.012330532
0.01472342 0.020970047 0.012724927 0.03457224 0.009616526 0.005397199 0.009200509 0.011680534
0.012227082 0.016654195 0.017876739 -0.0088483235 0.007815857 0.029196585 0.013827042 0.019158298
-0.002975102 -0.007161649 0.010649715 0.012560625 0.0020876045 0.008622567 0.008590168 0.011487699
0.017062731 0.008161826 0.023561016 0.023357866 0.035002954 0.0059576193 0.002402182 0.012239791
0.016820118 0.00011373197 0.008493073 0.010470068 0.0072336635 0.00036254397 0.008063537 0.012104355
0.009004109 0.018368822 0.0046069 0.009289661 0.017550478 0.008405025 0.021118982 -0.00046803296
0.0064810165 0.013075855 0.009193836 -0.013492786 0.0034028564 0.010519918 0.024027703 0.0016615492
0.025751714 -0.010793531 0.011994047 0.030512085 0.013290501 0.0028414426 0.008947108 -0.00031348292
0.019928908 0.0055006286 0.02129291 0.0020435732 0.013184313 0.009570488 0.014702654 0.027534157
0.008534393 0.00082738115 0.009996866 0.017383225 -0.00038260352 0.027819462 0.014954806 0.0027589474

network_body._body_endoder.seq_layers.2.weight f4 [128, 128]
00000000: 87f8 ffbc 0e87 38bd 445f e7bd 0090 e5bc
00000010: 5b7c 913c 3ef1 11bc d781 f33d 2b07 d93d
00000020: 5b57 0bbd 158d 38bc 8c14 d6bd d1d4 f03b
00000030: 52c9 7f3b d1c9 f13d fc8b 1bbd ff6e b93d
00000040: 1c5a 8b3b 1a94 8b3d 1fdd e0bd dbd2 22be
00000050: 3186 a43d dbc9 acbb 853f 1c3e cb38 fabd
00000060: 7f68 1cbd bb64 b73c 7964 0dbd c335 47bd
00000070: 06e2 013d c852 643b 091a ac3d 137e a13d
00000080: 1fff d03b ae55 85bd 17e6 c13c de3b 3e3e
00000090: 2ed8 c4bc 0e22 203b cd3c 673d 7fb7 883d
000000a0: 6868 ddbd 2283 313c fff0 90bd 8ae9 693d
000000b0: 0df3 053e e182 d53d dde2 56bd 29ba efbd
000000c0: 79f6 583d 5485 9c3d 15cf 2ebc 1000 983d
000000d0: 078e 20bd 8bcf 353d 2e19 f63b 4fac b9bd
000000e0: d2ce a1bd a941 acbc 8b58 9e3d 36fd 533d
000000f0: e765 c13c 9867 223d 2db9 8e3d 21df 303d
00000100: e067 0f3e fe5c 18be 33d2 f6bc 795f 56be
00000110: 92ef c43d 14fd 983d 9f63 073e 9473 f33d
00000120: 0dfd dc3d a5bd 8e3e bb5f be3d d0f9 843d
00000130: 9f8f d9bd e1a4 193e 6a91 51bd 9730 84bc
00000140: 1643 063d 9850 d23c 33e7 213d 9967 e43c
00000150: 3075 173d 4240 02be 145b b5bb 0e91 3c3d
00000160: ebb7 f0bd ad5a 1bbc 3808 9cbd 9140 c4bc
00000170: 9846 b7bc e36e 62bb 2c44 87bd 5fef 2dbd
00000180: 8a3c 60bd 4acb 5cbd 7d5f a3bc 1bcf c43d
00000190: 5f63 2cbd 9a0f 353e 6bed 15be 9bd0 36bd
000001a0: 5f46 0bbd 2eb3 873c c8d8 6c3e a865 653d
000001b0: 759f 7a3d 25f9 39be 602f cbbd 66e0 c7bb
000001c0: d5a5 bdbc d4c2 2f3d 652d 0dbe 91a4 693c
000001d0: 1a1b e2ba a991 07be f80b 773d c494 843d
000001e0: 10fd 54bc a302 de3c f7e3 133e d829 60bd
000001f0: 9d7e 153e fcf2 d93d 56a9 173d 0808 013d
00000200: 1599 493d ca1b 04bd 7be6 88bd 83c5 e5bc
00000210: cdc3 85bc 6091 b03c 2430 9f3b a227 553d
00000220: 69d5 9ebd 7bd9 4b3d f499 a2bc b9fb 5b3d
00000230: eed8 233c 4d2e 803e 0c01 c23c 6c35 0abe
00000240: 6af0 d2bb e0f3 bd3d aceb 683d 87cf d03d
00000250: b0f9 2a3d 05a1 02be 2620 213e 165e edbd
00000260: a750 e0bb 5584 a7bd 0623 063e 42be 373e
00000270: 24dc ebbd d153 a83c e478 d93d cde2 503e
00000280: ac5d 61bd 06ec 6c3d 8412 b13d 7955 ddbd
00000290: fd9a 293d bf51 29bd f1eb 213d 9efa 72bd
000002a0: 7b30 db3d 13d1 773d 2062 f6bd 2ab3 febd
000002b0: e5fd edbd e1f4 083e d68b 13bc 7336 2a3d
000002c0: 2668 1f3c a411 efbd 0774 f2bd 7894 c83c
000002d0: 45f6 5b3d 8bf1 cdbd ed5c 49bc 289e f93d
000002e0: 226d e1bd 9b2b 903d 889e d5bd d4c6 4bbe
000002f0: edf8 753d f3a6 32bd 65c3 95bd 2aa9 183c
00000300: 6e21 4ebb 0f7c 253e 5e04 e53d cf36 cc3d
00000310: 4268 afbc 2052 c1bd ff1f 10bc 18cb 9bbd
00000320: 951f 633e c5af c2bd 57bd 813c 954f 74bd
00000330: 85e3 92bc 13c8 81bc 5c5b 86bd df11 3bbd
00000340: 1a51 a43d de51 10bb 0e4e c63c 02b5 d33d
00000350: 96f4 06be b00e 753d ec80 d33d 1764 cfbc
00000360: 2a7b aabb 2d40 243e 0725 f23d e1b2 00be
00000370: af3b 8a3d 511e 203d 740e a33d 2d56 1dbd
00000380: c64f 1c3d d4d6 debd 2866 cebd e508 363d
00000390: 7898 56bd 1d63 c43c 1dd6 22be 2e19 6b3d
000003a0: 5fb2 dc3d 68ed 90bd a442 02bd d4b7 d6bd
000003b0: f0df 043d b47e 403e 0104 e1bd 0c78 70bc
000003c0: 74f5 97bb 633f 133d 9024 e23a f3b7 953d
000003d0: 5d70 5abe 2994 56bd 36f8 4d3d 17f1 ae3c
000003e0: f9e4 fcbd e1c2 823d ffde c73d 805a bfbd
000003f0: 02be 11be e582 913c f4e5 5cbc 30f6 1cbd
-0.031246437 -0.045050673 -0.11297467 -0.028022766 0.017759493 -0.008907614 0.11889999 0.1059707
-0.034018856 -0.011264105 -0.10453138 0.0073495884 0.0039029908 0.118060715 -0.037975296 0.09054374
0.0042526852 0.068153575 -0.109796755 -0.15900747 0.080334075 -0.0052730865 0.15258606 -0.12217864
-0.038185593 0.0223869 -0.034519646 -0.048635256 0.031709693 0.003483938 0.08403403 0.07885375
0.006378069 -0.06510483 0.023669286 0.18577525 -0.024028864 0.002443436 0.05645447 0.06675624
-0.108109295 0.010834487 -0.07077216 0.057107486 0.13080998 0.10425354 -0.052462447 -0.11705429
0.05296943 0.07642618 -0.010669489 0.07421887 -0.039197948 0.04438738 0.007510326 -0.090660684
-0.07900776 -0.021027403 0.07731732 0.051755153 0.023608161 0.039649576 0.06968913 0.043181542
0.14004469 -0.14879224 -0.030129528 -0.20934857 0.09616007 0.07470146 0.13221596 0.11887279
0.10790453 0.27879062 0.09295603 0.064929605 -0.10623097 0.15004303 -0.05116407 -0.01613645
0.032778822 0.025673196 0.03952713 0.02788143 0.036976993 -0.12719825 -0.005534539 0.046036772
-0.117538296 -0.009482068 -0.07618755 -0.023956569 -0.022372529 -0.0034550957 -0.066048 -0.04246461
-0.054745235 -0.05390481 -0.019942993 0.09609815 -0.042086955 0.17681733 -0.14641349 -0.044632535
-0.034002658 0.016564932 0.2312957 0.05600515 0.061187226 -0.18161447 -0.099211454 -0.0060997484
-0.023150364 0.042910412 -0.13786848 0.014260427 -0.0017250509 -0.13239159 0.06031415 0.06473687
-0.012999788 0.027100867 0.1444243 -0.054727405 0.1459908 0.10642049 0.037026726 0.0315018
0.049218256 -0.032253064 -0.06684586 -0.028048282 -0.016328717 0.021553695 0.0048580337 0.05203975
-0.077555485 0.049767952 -0.019848801 0.05370686 0.010000451 0.25035325 0.02368214 -0.13496941
-0.006437351 0.09275031 0.05686538 0.10195833 0.041742027 -0.12756737 0.1573492 -0.11590211
-0.006845552 -0.08179537 0.13099298 0.17943671 -0.11516598 0.02054778 0.10618761 0.20399018
-0.055020973 0.057842277 0.0864611 -0.10807318 0.041407574 -0.041337725 0.039531652 -0.05932104
0.10702606 0.060502123 -0.120304346 -0.124365166 -0.11620692 0.13374664 -0.009005507 0.041555833
0.009729421 -0.116732866 -0.11838537 0.024484858 0.053701658 -0.10055836 -0.012290222 0.12188369
-0.110071436 0.07039567 -0.10430628 -0.19900066 0.060051847 -0.043616246 -0.07312659 0.009317676
-0.003145303 0.16160606 0.111824736 0.099713914 -0.021412019 -0.09439492 -0.008796691 -0.076070964
0.22180016 -0.09506182 0.015837355 -0.059646208 -0.017930755 -0.015842473 -0.06560394 -0.04567134
0.080232814 -0.0022021453 0.024207141 0.10337259 -0.1317924 0.05982846 0.10327324 -0.025316281
-0.0052026706 0.16040106 0.11823469 -0.12568237 0.06749665 0.039091412 0.07961741 -0.03841226
0.038162015 -0.10880819 -0.100780785 0.044442076 -0.0523915 0.023973042 -0.1590199 0.05739706
0.10776209 -0.07076532 -0.031801835 -0.10484281 0.032440126 0.18798333 -0.10987092 -0.014677059
-0.0046374146 0.035949122 0.0017253328 0.07310476 -0.21331926 -0.05238739 0.05028554 0.021355195
-0.123483606 0.063848265 0.0975933 -0.093434334 -0.14232638 0.01776261 -0.0134825595 -0.03832072

network_body._body_endoder.seq_layers.2.bias f4 [128]
00000000: bc3a b13c 7d4c 523c 3d48 c93c 1dcc 503c
00000010: 1c51 acba 9096 ca3c 8bad 2d3b b83a 353c
00000020: 0057 12bb ae4b cf3b 0082 a73b c399 1f3c
00000030: 22db 35bc b2a4 983c 48cf 333b e897 a83b
00000040: c2cb f1bb 2634 423c 8493 e4b9 c99a f73b
00000050: f5b4 a2bb 6d7f 83bb dae8 2cbb 528d 873c
00000060: 1de4 9dbb a22e c1ba c784 733a fcf4 853c
00000070: 5a18 383c ea18 28bc 9be7 753c d5af 4c3c
00000080: fcd9 3fbc ac8f bb3c 2e77 a83b 3c19 b03b
00000090: e746 e1bb cf02 823c 94bc ba3b 4f6d 1bbb
000000a0: 4b56 223c c04f eabb bafe 1b3b c60d 083c
000000b0: 6233 e23b a606 d63a bf68 583c 97fb 193c
000000c0: e524 773c 4d74 f53b 1324 943c 19de 363c
000000d0: 4129 4b3c d91b 74bb b858 2abc 5f7b 903b
000000e0: b51c 4abb dc14 c8bb 6c65 543c 897e 893c
000000f0: e3bc 673b b2de ae3c 26aa ab3b 95d3 d93c
00000100: a2a8 f83c ec5f 15bc 18cf ad3c d29d 843c
00000110: 63ec c13c b7bd ef3b f024 a3bc 11d0 0e3c
00000120: b45d 173c 2721 d93b 88d5 9a3b c81f 823c
00000130: dda3 d03b 6391 a8bb 51da c2bb 399f cebb
00000140: a74c 963c 1795 163b d172 3e3c 4a89 523a
00000150: ce67 abba 1a4a 5c3c d24e 1f3c 9a21 0e3c
00000160: 6254 efbb 481a 9e3c d52a 573c 6788 283c
00000170: 7ae9 10bb 48bf dd3b 31a9 8e3b 93e1 4abc
00000180: 1809 303c 9949 e63c 7634 a53b 927f 7f3b
00000190: 7b36 453c 5c2c 99bc 84f4 0f3c 9f0f 5d3b
000001a0: add1 c73b da48 50bb 95b2 6b3c 3ba1 0b3d
000001b0: 336e 783c e490 8b3c 8a91 e53b 626f 683b
000001c0: 3dde 433c a402 e7bb 43a1 843c 53c4 0b3c
000001d0: 751a 453a 1446 373c e94d 293c 8585 003c
000001e0: 6915 cbbb f4a7 203c 1823 5c3c d21a 4c38
000001f0: 0e7e 523c 6f9b 893c 0756 343c 6942 d13c
0.021634452 0.012835619 0.024570579 0.012743977 -0.0013146731 0.024729997 0.0026501145 0.011061363
-0.0022329688 0.0063261604 0.0051119328 0.0097412495 -0.011099609 0.01863322 0.0027436782 0.0051450618
-0.007379026 0.0118532535 -0.00043597457 0.0075562936 -0.0049654194 -0.004012993 -0.0026383908 0.016546879
-0.004818453 -0.0014738629 0.00092895 0.01635217 0.011236275 -0.010259846 0.015008832 0.0124930935
-0.011709686 0.022895657 0.0051411605 0.005374102 -0.0068749073 0.01587048 0.00569875 -0.0023716276
0.009908269 -0.00715062 0.0023802952 0.008304065 0.006903098 0.0016328886 0.013208567 0.009398363
0.01508448 0.007490671 0.018083608 0.011161351 0.012399972 -0.0037248044 -0.010397129 0.004409238
-0.0030839865 -0.0061060023 0.012963634 0.01678397 0.0035360388 0.021346424 0.005238789 0.026590148
0.030353848 -0.009117108 0.021216914 0.016188536 0.023672288 0.007316317 -0.019915074 0.008716599
0.009238649 0.0066262665 0.004725162 0.015884295 0.0063671903 -0.0051442846 -0.0059464355 -0.006305602
0.018347098 0.0022977048 0.011624054 0.0008031322 -0.0013077201 0.013445402 0.009723382 0.008675003
-0.0073037604 0.019299641 0.013132771 0.010286427 -0.002211182 0.0067671873 0.0043536653 -0.012382883
0.010744356 0.028111266 0.005041654 0.003898595 0.012036915 -0.01869791 0.008786324 0.0033731235
0.0060979933 -0.0031781704 0.014385839 0.03408931 0.015162992 0.017036863 0.007005875 0.003546678
0.011954841 -0.0070498753 0.016190177 0.008530694 0.0007518896 0.0111861415 0.010333517 0.007844334
-0.0061976206 0.009805668 0.013436101 4.866237e-05 0.012847437 0.01679775 0.011006839 0.025544362

network_body._body_endoder.seq_layers.4.weight f4 [128, 128]
00000000: 04bc 903d 3c50 40be fc9d 5cbd f03f 2c3d
00000010: 1bbc f23d eb59 b73d 8095 e33c b37e 863d
00000020: ef30 f8bc f371 7a3d dbb9 2abc 7f3f e0bd
00000030: d51f 7f3d af40 23bd 8fb0 363e 36ca b93c
00000040: 174d c33d f3da babc f91a b13d 0891 583d
00000050: b5a4 5abc a2a2 1fbc 257c df3c e958 b4bd
00000060: 7587 f63d a079 19be 0e1c 7abd e37b 773d
00000070: 91ee 84bc 3f16 ce3d 526b a9bd 1ef6 713d
00000080: c32a 39be 9d05 fd3d e17d c0bc 472d 65bd
00000090: 940f fabc 7dff c83d 604a b33c e0c7 7dbd
000000a0: abaa c23c b25d 5f3d 8120 cfbd b7bf 9e3d
000000b0: f923 b73d 08e4 3a3c db2e 903c 6a6a cf3d
000000c0: ff86 313e e7aa 99bc 1ee2 eb3d 41fb 143e
000000d0: 6413 74bd 77ea cabd 1929 463c 39db bdbd
000000e0: dcd1 593d 082b 49bd 2c4f 9abd 28eb bcbd
000000f0: 306b 10be 8a32 cfbd db02 b7bd 6139 af3c
00000100: 1649 5fbd 2a40 563e 6177 29be 66fc 23bc
00000110: dee7 a03d 933c b6bb 4c0f f43b 56f9 a33d
00000120: 8d7c 0fbd 12d7 9a3d aa7d 16bd 3b8f dcbc
00000130: e479 8bbd 4426 083e 95a0 d03d d898 953d
00000140: ae32 143e a75d 5abd 7697 223e d7a4 89bd
00000150: 3c24 30be ed9b e3bc a626 60bd a33f 31bd
00000160: e29f 2fbe c958 b93d 841e e8bd 33a0 96bd
00000170: 5817 903c 174b 14be 86ab 1cbd c940 953c
00000180: 38ee 03bd df89 c5bd cd25 2fbe b478 3cbc
00000190: 66b8 8ebd 5dae bd3c f92d 9e3d 9662 d73d
000001a0: a9a0 a1bd 8f16 38bd 19ee c33c 3c40 b93d
000001b0: ba65 59bc def0 e9bd f028 ffbc 59f0 f7bd
000001c0: 4fcf 6dbd 6ec9 4abd c09d 033d cd70 e43d
000001d0: 9c28 e83d 4527 683c cddf c13d f98b ef3d
000001e0: 2ac0 953d 960c 8b3d 1c1b 59bc a1d7 9c3d
000001f0: f0e4 a23d f3bd 653d ceac 9fbd 2974 8dbc
00000200: 0835 473c 3752 143c caab 243e 7ae4 3dbe
00000210: 38bd 573b 0609 843d 077f b83d c1d2 e93b
00000220: f480 84bd c9ac d73d c2cf ebbc 8d7f e83d
00000230: 964c fdbc 3a3d abbd 8231 40b9 c45f 11bd
00000240: 35fd 31bd 7cd2 d43d 4657 973e f5ef 0e3e
00000250: 5e94 ae3d e3dc 85bd ce91 013e dbc4 513d
00000260: e2fc f43d d98d 95bd e291 f3bd 732f e3bd
00000270: 1de9 66bd 5f68 0c3d 5f38 cebd 1116 823d
00000280: f6d1 293c 469c e3bc 428c 83bc bdb5 6cbd
00000290: 070d ecbc c923 d2bd 4558 dfbd 3e33 a23a
000002a0: 9634 e73d 232f fa3d 1aa3 0ebd 4c9c ca3d
000002b0: 867d f23d fd94 023d 0875 e3ba 9bfa a63d
000002c0: 505f 593d 6336 42bc 0d5c e5bd 26b7 07bd
000002d0: ea63 c2bc e076 76be 04aa 3f3b c9fb c3bc
000002e0: 091d 853d e0d2 97bc 5edc a4bd ae70 cbbd
000002f0: 7148 05be 5e54 d13d 34ef cb3d 4508 8d3d
00000300: bd1a 7e3c ad46 54bd 10e9 e93d af22 e23d
00000310: 37d2 febc 0d36 cf3b a362 fc3d f2bb d7bc
00000320: 6b29 14be a937 4e3e adc1 8fbd 4838 30bd
00000330: 4ca6 56be f60e 90bc 348f 863d 7bb1 c2bd
00000340: 36e8 163d 4b8f 0e3d 4fe2 513d bae3 03be
00000350: b5a9 a0bd e95b 813c d471 86bc b672 da3d
00000360: 0d52 28be e7db 383e c8dc 773d 2dac 41bd
00000370: d699 0a3e 60d1 53bc e89e a8b9 922e 0ebe
00000380: c003 ebbd 2a17 f7bc 7b72 89bd d87e 253d
00000390: 2837 113e 7505 83bd 8f4c bbbd 6e8b dc3d
000003a0: 5b33 a73d 1787 56bd a625 dfbd e5af e8bc
000003b0: 8c91 143c 106e ad3c 1d63 993d 9475 e0bd
000003c0: 345f c6bd 21fe 053d 6295 fe3c 57a8 a5bc
000003d0: 3e1a 13bd 1517 96bd 83e4 2e3d 7846 54bc
000003e0: ad90 b8bd 8963 0ebe b0e6 35bd 563a bfbd
000003f0: f089 43bd 85d6 77bd 4da4 f8bd bc51 49bc
0.07067111 -0.18780607 -0.053861603 0.042053163 0.118522845 0.08952697 0.027781248 0.06567135
-0.03029677 0.061143827 -0.010420288 -0.10949611 0.062286217 -0.03985661 0.1784079 0.02267943
0.09536188 -0.022809481 0.08647723 0.052872688 -0.013344933 -0.0097433645 0.027280876 -0.08806021
0.12037555 -0.14987803 -0.06106191 0.060420882 -0.016227039 0.10062837 -0.08272423 0.059072606
-0.18082719 0.12354586 -0.023497524 -0.055951383 -0.030525006 0.098143555 0.02188605 -0.061958194
0.023763021 0.054532714 -0.101136215 0.077514105 0.08942408 0.011406906 0.017600467 0.10127719
0.17336653 -0.01875825 0.11517738 0.14548971 -0.059588805 -0.09908002 0.012094759 -0.09270329
0.053178653 -0.049113303 -0.07534632 -0.0922454 -0.14103389 -0.101170614 -0.089360915 0.021389665
-0.05451306 0.20922914 -0.16549446 -0.010008907 0.07856725 -0.00556142 0.0074481126 0.080065414
-0.03503089 0.07560553 -0.036740936 -0.026923766 -0.06810358 0.13295847 0.101868786 0.07304543
0.14472458 -0.05331197 0.1587809 -0.06720894 -0.17201322 -0.027784312 -0.054724358 -0.04327358
-0.17150834 0.090501375 -0.113339454 -0.07354774 0.017589256 -0.1448177 -0.038249515 0.018219369
-0.032209605 -0.096454374 -0.17104264 -0.011503387 -0.06968765 0.023154432 0.07723612 0.10516851
-0.078919716 -0.04494339 0.023917245 0.09045455 -0.013268882 -0.11422895 -0.03114745 -0.121063896
-0.058059033 -0.049508505 0.032132864 0.111543275 0.113358706 0.014169519 0.09466515 0.116966195
0.07312043 0.0678951 -0.013251092 0.076583154 0.079538226 0.056089353 -0.07796632 -0.017267304
0.01215864 0.009052805 0.16081157 -0.18544188 0.003291918 0.064470336 0.090086035 0.0071357195
-0.06469908 0.10531003 -0.02878559 0.113524534 -0.030920308 -0.083612874 -0.0001832899 -0.03549172
-0.043454368 0.10391709 0.29558772 0.13958724 0.085243925 -0.065362714 0.12653276 0.051213127
0.11962296 -0.07302446 -0.11893059 -0.110930346 -0.056374658 0.034279224 -0.10069346 0.06351865
0.010365 -0.027784478 -0.016058091 -0.057790507 -0.028814806 -0.10260732 -0.10905508 0.001237489
0.11289327 0.12216022 -0.034823515 0.098930925 0.11840348 0.031880368 -0.0017353604 0.08153268
0.053069413 -0.011853787 -0.11199198 -0.03313365 -0.023729283 -0.24068785 0.0029245624 -0.023923771
0.06499679 -0.01853317 -0.08049844 -0.09933601 -0.13015915 0.1022117 0.09957734 0.06886343
0.015509305 -0.051825214 0.11421406 0.110417716 -0.031106098 0.006323582 0.12323501 -0.026334736
-0.14468925 0.2013842 -0.070193626 -0.043022424 -0.20961875 -0.017585259 0.065702826 -0.09506508
0.036842547 0.034804624 0.051241215 -0.1287984 -0.07844869 0.015790896 -0.0164117 0.106664106
-0.1643755 0.18052636 0.060513288 -0.04728334 0.13535246 -0.012928337 -0.0003216185 -0.13884953
-0.11475325 -0.030162413 -0.067112885 0.04040417 0.14181197 -0.06397525 -0.09145462 0.107687816
0.08164092 -0.052374925 -0.10895853 -0.028404186 0.009067904 0.021170646 0.074896075 -0.10959926
-0.09686127 0.03271306 0.03107709 -0.020221872 -0.0359137 -0.07328621 0.042698395 -0.012956254
-0.0901197 -0.13905157 -0.044409454 -0.093372986 -0.04773897 -0.060507316 -0.12140713 -0.012287553

network_body._body_endoder.seq_layers.4.bias f4 [128]
00000000: 5a43 cabb f328 ad3c fb10 d1bb 856e 873c
00000010: 7acd 233c 3182 1a3b ca39 d6bb 9ab6 013c
00000020: 668d df3c 34c3 ac3c 1944 42bc c1c1 3fbc
00000030: 17c4 783c d372 e8bb 402d 5b3a 9b41 dd3a
00000040: b574 ef3c 35eb aabc 7384 fcbb 3577 a43c
00000050: 9212 af3c 7039 293c 9dd6 303c 540e 3e3c
00000060: 1766 863c 76fc a2bb 4074 523c 9138 c6bb
00000070: ae46 1b3c 5bc2 a2bb 3e74 123c 32aa c33b
00000080: f86c 923b 4cdd cf3b fc2d 453c 92a2 d83b
00000090: 39dd c53b 4975 fdbb 6e3a ecba 520c 183c
000000a0: 8965 0d3b 1792 ec3b ef20 a83a c57a d43c
000000b0: 6f15 d83c 8635 b03c fa44 f83b add1 e5bb
000000c0: 0775 063d 4297 8aba bfa2 a43c 995a e4bb
000000d0: 5560 fb3a 4bad 4fbb 0c3d 43bc 522b a8bc
000000e0: 29cc df3b 7a92 923c e31a 0f3c 7036 903c
000000f0: 2c86 0a3c bd25 f13a ec8d a23a 40b8 af3c
00000100: ccc6 a53c c4da 043a 3349 8fbb d9d8 db3b
00000110: 2264 e2ba 40c1 b83b 0541 0f3d 9b3b d53b
00000120: 7d61 7a3a bde8 23bc 08f6 d13b f39f 3e3b
00000130: 294b 883c ecba 1a3c 6362 e83c 98f7 b2ba
00000140: 0802 b33c e089 23bb 4051 323c c257 9a3c
00000150: bd7b 873a 133d 94bc 139d c03b 945d 8a3b
00000160: 3773 1a3b 7814 08bc 3942 7bba 62c9 0bbc
00000170: a847 a539 37c8 a23c 39c5 023b b567 40bc
00000180: 7493 623b d370 8ebb 35b0 383c 194f d23c
00000190: 8b25 073c c605 5bbc b66c 6c3c 64a8 a93b
000001a0: ada2 003c fa68 09bc abc3 173c 8c0d a93b
000001b0: 9755 023b b3ab 413c f529 b03b 8679 893a
000001c0: 2624 5b3c 1857 46bc 4997 00b9 871d 873b
000001d0: a10a 1cb9 ea44 90bb 84a8 0bbc 958e b3bc
000001e0: e81b dd3b d6e8 823b 3462 2abc 9f93 9b3b
000001f0: 2e86 7cbc 566f 553c f9a7 e73b 4e3a d93b
-0.0061725797 0.02113769 -0.006380198 0.016532192 0.00999772 0.0023576135 -0.0065376507 0.007917071
0.027289104 0.021089174 -0.011857056 -0.011703909 0.01518347 -0.0070937662 0.000836093 0.0016880514
0.029230455 -0.020864109 -0.007706219 0.020076374 0.02137116 0.010328636 0.010793355 0.011600096
0.016406102 -0.0049739433 0.012845099 -0.0060492237 0.009477301 -0.0049670166 0.008938847 0.0059712166
0.0044685565 0.0063435193 0.012034889 0.0066111768 0.0060383347 -0.0077349287 -0.0018022784 0.009280281
0.0021575412 0.0072195637 0.0012827198 0.025937447 0.026377408 0.021509897 0.007576582 -0.0070135207
0.03282645 -0.0010573643 0.020097135 -0.006968808 0.001917849 -0.0031688984 -0.01191641 -0.02052847
0.0068297577 0.017892111 0.008734438 0.017604083 0.008454841 0.0018398088 0.0012401915 0.021450162
0.020236395 0.0005067999 -0.0043727397 0.0067092 -0.0017272274 0.0056382716 0.034974117 0.0065073497
0.000955127 -0.01000422 0.006407503 0.0029087036 0.016637402 0.00944398 0.028367227 -0.0013654111
0.021851555 -0.0024954006 0.010883629 0.018840674 0.001033656 -0.018095529 0.0058780997 0.004222581
0.0023567209 -0.008305661 -0.0009584758 -0.0085319 0.0003152464 0.01987086 0.001995398 -0.011743476
0.0034572752 -0.004346946 0.01127248 0.025672482 0.008248697 -0.013368076 0.014430216 0.0051775444
0.007851285 -0.008386845 0.0092629595 0.0051590856 0.0019887441 0.011820721 0.0053760954 0.0010488487
0.013375318 -0.012105726 -0.0001226339 0.004123393 -0.00014881279 -0.0044027464 -0.008524064 -0.021918574
0.0067477114 0.0039950414 -0.01039939 0.0047478224 -0.01541285 0.013027033 0.0070695844 0.006629265

action_model._continuous_distribution.log_sigma f4 [1, 18]
00000000: a203 2c3d 384b 8a3c 42a9 803d 955a 723d
00000010: 80ae 9a3d 3d78 123c f743 a3bb 7b0a 8ebd
00000020: b864 313e 1e22 3b3d c52e 9e3d cfae 093d
00000030: 615f 7f3d 8422 8c3d 1f36 373d 8936 253d
00000040: c85f a03d 5572 3c3d
0.041995652 0.01688157 0.06282283 0.059168417 0.075528145 0.0089398 -0.0049824673 -0.06935593
0.17323577 0.045686834 0.07723764 0.033613976 0.06234682 0.06842521 0.04472935 0.040335212
0.07830769 0.046007473

action_model._continuous_distribution.mu.weight f4 [18, 128]
00000000: b3bb 6c3b 91f0 aebb a5f2 1cbc 66cb e33c
00000010: 2caa da3b b9dd d5bc fb7f ae3c 138e debc
00000020: d729 d3bb 9815 103d 0bb6 dabb 71bf 73bb
00000030: a89c 3c3a e75c 3abb 45b3 d0bc e70d 9abc
00000040: 8516 c73c 1f41 09bd 881a 853c a117 8abc
00000050: be1d 133d b856 ee3c 80dd 3dbd 2347 d2bc
00000060: 38c9 32bd ef30 093d 78fc fb3c 7664 ebbc
00000070: 9d87 a03c 4e0a 0fbc 6614 563b 8dc5 09bd
00000080: 2323 a0bb 0d45 31b8 9ed7 63bc ea34 1e3c
00000090: caf7 b13b 84e3 b13c e9f6 d2bc 9c2f 383c
000000a0: 8aa8 bfbc 1da6 32bb bba5 ee3c a6de f73c
000000b0: 0079 73bd 7acc a8bc 9567 263d 0081 3a3c
000000c0: a0f9 80bc 87ed 743c fd11 1c3d 1c19 0c3d
000000d0: 59e2 0fbd 9b70 03bd 67e9 37bd ab98 483c
000000e0: a770 6ebb 406d 8cbc 9cc4 50bd ff6d e43b
000000f0: fba4 0ebc bda2 913c 93ed 06bd d29b 52bc
00000100: 55ce e33a a34f bb3c 0396 4b3d 5f75 5ebc
00000110: 46b7 d6bb b4e0 92bc 2d10 3e3d fd91 afbc
00000120: 62a7 3d3b c104 27bd a41a c63b cac0 e1bc
00000130: 5648 f3bb 9635 713c 562d 7b3b 6794 bcbb
00000140: 81cf b23c 9a1a 183d 7f69 183d 23a5 7d3c
00000150: f2dc 84bc 3e28 49bc dd36 8dbc 3935 193d
00000160: 8e8d df3c 75a4 74bc b10c a8bb ea3d 0fbd
00000170: 060c 36bd 9c2d 1bbd 3d8a b3bc 78be 4d3d
00000180: 5ca0 8abd d489 10bd 079e ccbc d39e 61bc
00000190: bd31 b2bc 3ee2 333c 2cda c73a 6452 6f3d
000001a0: d244 0d3d f107 163d 9341 9abc d449 3cbc
000001b0: 2303 e3bb 1d98 a8bc 2a5b 81bc 1283 8a3b
000001c0: 6607 83bb 84f6 313d 93ad 47bc 19eb 063d
000001d0: 4378 dfbc f3d4 10bd 2cde eb3b aa2e 85bb
000001e0: d277 a2bc a17c 6ebb 77ec 81ba af0e d33b
000001f0: 42cc 43bc aab5 ebbc 75e3 1c3c e8c4 3abc
00000200: 990c 1fbc 7636 5d3b 7eac f03c c4b8 16bd
00000210: 9b0d 403c e3ee 943b ce35 39bd a0a3 b4bc
00000220: 5252 4bbc 3bb4 093d c1d7 5a3c 14e8 433c
00000230: 7326 d8bc b7d7 33bb 6639 5f3c 3ebe 463c
00000240: e247 eb3b 060e 5cbd 44ff 16bd a7f9 7abb
00000250: 9ca3 a33c 092f b23a 9217 a4bb c687 c2bc
00000260: e07a 2f3c 3784 d43b 2ff2 683c a277 6e3d
00000270: 3281 d83c 1b74 c6bc 2589 88bc 34ea c4bb
00000280: 218d 8ebc 782c 933a 7cd6 ad3c 377e 1d3c
00000290: 78b2 d2bc 6253 253c 7bc5 ffbc c748 d33c
000002a0: 45b3 183c 40d4 613c d5ec 11bc fa6b fa3b
000002b0: a069 b7bb e58a c93c 9300 6fbb 38be 34b9
000002c0: 2ad7 4f3c 5e18 e33b beb8 e1bc 4d2c 09bd
000002d0: 9c95 acbc b835 bebc 87e2 fc3c 309d f53a
000002e0: 423d 513d 9cce 2cbd 6d8f 0c3d a989 ff3c
000002f0: 4987 323c 8fbc 133c 7e4c ed3c 8a48 8bbc
00000300: a7dd ad3c 4cbe 233c c941 5e3c 07a4 81bc
00000310: 9cb0 11bc 9132 22bd 008a 0f3a 1868 2cbb
00000320: 5463 793d 1ae0 163c 85c3 dcbc ad37 053c
00000330: 2d25 00bd 6861 30bb 2792 24bc 27a9 a53d
00000340: 7102 9ebc 17d2 1b3b 1aaf b73c 3875 6d3c
00000350: 2605 babc f8cf 13bc 81cb cd3c 125b e2ba
00000360: 005b 2e3d 662c 45bd b299 1c3c 0a58 00bd
00000370: 38b4 f53c ae9b 21bd ceed 3c3c 14c9 b03b
00000380: 02c3 223d 2374 acbc 9789 213d a1f3 4fbd
00000390: 8802 143d d24f bcbc 409b 123d 0e5b 78bc
000003a0: b7c4 dbbb fef1 29bd d2b8 463d 2d43 43bd
000003b0: 9252 703d d914 3b3c 2d6c 643c 0a06 ec3b
000003c0: 397c 64bc e13c 55bd 0c28 27bc 470b bbbc
000003d0: 966b 53bd 8315 bc3c 999d 0d3c f15b 6cbc
000003e0: 30a5 bcba fa25 053d bf73 84bd 3e33 e5bb
000003f0: 325f 963c f8bd 0dbd 0c9f 2cbc f120 cbbc
0.003612262 -0.0053387363 -0.009579335 0.027806949 0.006673118 -0.026106702 0.02130126 -0.027167356
-0.0064441967 0.035176843 -0.0066745332 -0.0037192965 0.00071949745 -0.0028436722 -0.025476107 -0.018805457
0.02430273 -0.03350937 0.016248003 -0.01685697 0.035917036 0.029094085 -0.046353817 -0.025668686
-0.04364893 0.033493932 0.030760035 -0.028734427 0.019595915 -0.008730484 0.0032665967 -0.033635665
-0.004887001 -4.2264397e-05 -0.013906388 0.00965617 0.00543115 0.021714933 -0.025752502 0.01124182
-0.023395795 -0.0027259656 0.02913176 0.030257534 -0.059441566 -0.020605315 0.040626127 0.011383295
-0.01574403 0.014949209 0.038103092 0.034203634 -0.03512797 -0.03208981 -0.044900324 0.01224343
-0.0036383064 -0.017141938 -0.05096875 0.0069711204 -0.008706327 0.017777795 -0.032941412 -0.012854533
0.0017380217 0.022865122 0.04970361 -0.013577788 -0.0065526096 -0.017929412 0.046402145 -0.021431917
0.002893888 -0.040776018 0.0060456563 -0.02755775 -0.0074243946 0.014722249 0.0038326583 -0.0057549956
0.021827461 0.037134744 0.037209984 0.015481266 -0.016218636 -0.012277661 -0.017238075 0.037404273
0.027289178 -0.014931788 -0.005128466 -0.034971155 -0.04444506 -0.037885293 -0.021916503 0.050230473
-0.067688674 -0.035287693 -0.024977697 -0.013770777 -0.021752233 0.010979233 0.0015247515 0.058428183
0.03448946 0.036628667 -0.018830096 -0.011492211 -0.006927864 -0.020580346 -0.01579054 0.0042270506
-0.0039986847 0.043447986 -0.012187379 0.03293905 -0.027279025 -0.035359334 0.007198116 -0.0040644007
-0.019832525 -0.0036390203 -0.0009912391 0.0064409594 -0.011950554 -0.028773148 0.009575714 -0.011399485
-0.009707593 0.0033754385 0.029379126 -0.0367973 0.011721994 0.004545079 -0.045217328 -0.022050679
-0.012409763 0.033619147 0.013357104 0.011957187 -0.026385522 -0.0027441808 0.013624525 0.012130318
0.0071802 -0.05372431 -0.036864534 -0.0038295777 0.019975476 0.001359434 -0.0050076926 -0.023746382
0.010710448 0.006485488 0.014217897 0.05821956 0.026428793 -0.024225285 -0.016666958 -0.0060093645
-0.01740128 0.0011228463 0.021220438 0.0096126115 -0.025719866 0.010090681 -0.031222096 0.025791539
0.009320085 0.0137835145 -0.008906563 0.0076422663 -0.0055973083 0.024602363 -0.0036468848 -0.00017237
0.012685576 0.006930395 -0.027553912 -0.033489514 -0.021067433 -0.023218974 0.030869735 0.0018738862
0.05108381 -0.042189226 0.03431647 0.031193571 0.010896512 0.009017124 0.028967138 -0.017002363
0.021223856 0.009994101 0.013565489 -0.015825285 -0.008892205 -0.039599005 0.00054755807 -0.0026307162
0.060885742 0.009208703 -0.0269487 0.00813095 -0.031285454 -0.0026913527 -0.010044611 0.08088904
-0.019288274 0.0023776346 0.022422362 0.014493279 -0.022707533 -0.009021752 0.025121452 -0.0017269573
0.042567253 -0.048138045 0.009558128 -0.03133396 0.029993162 -0.03945511 0.011531306 0.005395064
0.039736755 -0.021051472 0.039437857 -0.050769452 0.036135226 -0.02298728 0.03579259 -0.015158428
-0.0067068 -0.041490547 0.048516102 -0.047671486 0.058672495 0.011418545 0.013941807 0.0072028683
-0.013945633 -0.05206001 -0.010202419 -0.022832526 -0.051616274 0.022959476 0.008643531 -0.014426217
-0.0014392491 0.03250692 -0.06467389 -0.006994634 0.01835594 -0.034604996 -0.010535967 -0.024795981

action_model._continuous_distribution.mu.bias f4 [18]
00000000: 670d d03a 78b0 853a 7781 97bc e036 413c
00000010: 1fa3 093b ef1d 02bc dadb 48bc 376e f13b
00000020: 0c44 f63b 78b2 d93b faae ccbb 60a1 57bb
00000030: d2e9 49bc a136 acba 7fd6 ceba 7f7c 353c
00000040: d53b d13c 7cc0 3d3c
0.0015873135 0.0010199687 -0.01849435 0.011792868 0.0021001769 -0.007941707 -0.012259448 0.007367875
0.007515436 0.0066435896 -0.006246445 -0.0032902583 -0.0123238135 -0.0013138839 -0.0015780478 0.011077045
0.025541225 0.011581536

action_model._discrete_distribution.branches.0.weight f4 [2, 128]
00000000: 47da 033c c733 473b edf9 01bc 49a7 8ebc
00000010: 209a 5cbc 1407 7a3d 9f2a 143c 3f2a 82bc
00000020: c392 1dbc 3d52 49bb a300 cb3c 823a 073d
00000030: 7330 9fbb 9ab8 08bb 4abc 0d3c a5a9 ac3b
00000040: 6a07 b1bc 554c 18bc 7251 9c3b 80c6 d13b
00000050: 139d ad3b 12b5 e43b f10f 1d3c 8fef 3dbc
00000060: 305e 7e3c b982 5e3c 33c6 e33b bace 493c
00000070: 69f0 6f3c 6398 8a3c 729b 143a d842 033d
00000080: 5fb1 af3c dabc 283b 5ef4 bd3c 5957 20bc
00000090: cb4c 2e3c 9e8b 72bc 886d 4fbc cc82 813c
000000a0: 3067 523c 8a0f 0a3d dfa4 1e3d 9a58 2c3c
000000b0: 5d98 83bc 97cb 433c 8e12 97bb f218 713c
000000c0: a9e7 7fbc 86fa 613c c063 a93c 80f5 ebbc
000000d0: 0479 873b 4d5f 963c 2194 e03b 72a2 71bb
000000e0: 8369 25bb 1b1a 953c c7dc 3c3c 39ec cbbb
000000f0: 3406 a2bc c9f6 473c d6ba eebc 1740 1cbb
00000100: 60ef 0e3c 25a8 5a3a 0349 5f3c d3c1 0c3d
00000110: a24c af3b 04f0 843c fd83 eb3a 7266 153d
00000120: 317b ef3c 7952 0abd 43ec 86b9 deb0 8e3c
00000130: ecac 853c 0ac0 033d 3eac 203b 2ba3 df3a
00000140: 7264 ca3c 15f2 d83a 27c0 893b 5382 14bb
00000150: ad0a 22bd a5b5 823b 12f9 1ebd 5d33 12bc
00000160: 4491 963c 15f3 8cbb a6af e53b 5d8c a1bc
00000170: 7a01 8cbc 24d7 483b 0626 293c 0741 523c
00000180: 363d 7bbc 4245 893c 4b59 503b e33c b23c
00000190: e287 95bb 6c1e 1fbc 049d b437 bc20 2bbb
000001a0: d3da 183b 9b30 dbbc 3050 fbbc 3b8a 993c
000001b0: 98d4 31bc adb6 1e3c a3b9 ca3c 3165 0cbc
000001c0: 8d7b 6fbc 19a9 92bc e24c 47bc d3cf bcbc
000001d0: d29d 44bc af20 a43c 2878 91bb 961d f6bb
000001e0: d595 cbb9 31d2 463b d3f4 07bb d29d 083c
000001f0: 4393 e73b 9a2e b1bb 1a70 103d 78be c0bc
00000200: b744 babb 445d 643b 5e6d c13c ecbb 9a3c
00000210: 1702 b83c a787 45bd ec0f b3bc 2776 aa3c
00000220: 99da 3c3c c94b ac3b 5c07 18bc dc24 d5bc
00000230: a0bc 8bbc 3660 9c39 27a1 efbc 98d8 803c
00000240: d6bd 4cba c253 4f3c 8fb8 f0bb 1ac6 d23b
00000250: 8333 493c c101 64b8 b0b9 bf39 d180 9139
00000260: a693 bd3b de34 aa3b ce22 3abc a826 4fbc
00000270: 329e 21bd 3770 efbb cf21 50bc a0a5 30bc
00000280: c8ea 15bb 65fd cbbc e0b7 8bbc db44 8d3b
00000290: 481d 4fbc f686 993b 7127 b13c 534c 43bb
000002a0: 16ce 553b f231 28bd ca14 ccbc 3f04 133b
000002b0: c3bb 1f3c 3821 5bbc f4d0 9a3b 876e 18bc
000002c0: 51b6 fd3b 9f5d 4fbc eb18 a2bc 47f1 e93c
000002d0: 8916 dd3c 4c4a 793c 2c98 f7ba 6b4b 903c
000002e0: 4837 13bb 9bb5 883b dc31 5ebc 369e c6ba
000002f0: 0e8d 41bc 2b59 27bb 70d8 853c 69ac f83b
00000300: 1b54 43bb 5a44 dc3b 8318 17bc 0c22 ebbc
00000310: 9987 acbc 50e6 ddbb 9b85 9fbb 60e8 f2bc
00000320: fa51 03bd c69a 413d 5f6c 62bc 5fc5 e239
00000330: 3eab 30bc a001 27bd b190 55bc 189f 433c
00000340: 22f4 b0bc 84fe cdbb 3a7f 5dbc 681d 063c
00000350: e29f 1e3d f437 f4bb 3d3f 323d 383f a63b
00000360: 3763 1abd 7f6e 3eb9 b917 0bbc 26da 693c
00000370: 9d3a 823b 3492 5fbb 56db bfbb f96e 5bbc
00000380: f99a 143d 3eeb 02bc 4910 e73b 001f 7cbc
00000390: 593a b83a 0fa5 b53b d9a5 74bb 9b11 c33b
000003a0: ea69 983c d89c 0c3d 3324 1f3d 4256 c3bc
000003b0: 6036 17bc e942 f8ba e1d9 cebc 37cf ddba
000003c0: fbdc fb3b 9a49 b03c a4ca b23c 069e ad3c
000003d0: 09ad ba3c 40fd 1b3c b018 c63b 191e 893c
000003e0: 5550 f13c 33a5 31bc a484 3a3c 4973 c4bc
000003f0: 1511 42bc 1d2e 223b d204 ccbc b611 243c
0.008047647 0.0030395852 -0.007933122 -0.017413752 -0.013464481 0.061041906 0.009043365 -0.015889285
-0.00961751 -0.0030719184 0.024780577 0.03301478 -0.0048580705 -0.0020861984 0.008650849 0.0052692466
-0.02160998 -0.009295543 0.004770451 0.006401837 0.0052982657 0.006979593 0.00958632 -0.01159276
0.015525386 0.013580971 0.0069511174 0.012317354 0.014644721 0.016918367 0.0005668915 0.03204617
0.021446882 0.002574733 0.023187812 -0.00978645 0.010638426 -0.014803795 -0.012660392 0.01580944
0.012841985 0.033706225 0.038731452 0.010519171 -0.016063863 0.011950395 -0.004610366 0.01471542
-0.015619197 0.01379264 0.020677447 -0.028803587 0.0041342992 0.01835599 0.006853596 -0.0036870507
-0.0025239892 0.018200925 0.011527247 -0.0062232283 -0.019778349 0.012204834 -0.029141825 -0.0023841911
0.008724064 0.00083410955 0.013628247 0.034364533 0.0053497115 0.01622773 0.0017968413 0.036474653
0.029233547 -0.03377006 -0.000257345 0.017418321 0.016317807 0.032165565 0.0024516727 0.0017062178
0.0247061 0.0016551638 0.0042038145 -0.0022660687 -0.039560962 0.003988939 -0.03881175 -0.008923379
0.018379815 -0.0043014386 0.0070094643 -0.01972025 -0.017090548 0.0030645812 0.010324007 0.012832887
-0.015334418 0.016756658 0.0031791504 0.021757549 -0.0045633176 -0.009711843 2.1530788e-05 -0.002611204
0.0023323789 -0.026756575 -0.030677885 0.018742671 -0.010853909 0.009687108 0.024746722 -0.008569048
-0.014616859 -0.017902898 -0.012164326 -0.023048317 -0.012000518 0.020035116 -0.0044393726 -0.007510851
-0.0003883081 0.0030337686 -0.0020745292 0.008338409 0.0070671155 -0.0054071667 0.03526316 -0.023528323
-0.005684461 0.003484563 0.02361172 0.018888436 0.022461934 -0.04822507 -0.021858178 0.020808293
0.011526727 0.0052580577 -0.009279098 -0.026018552 -0.017057717 0.0002982632 -0.029251648 0.01572828
-0.000781027 0.012654247 -0.00734622 0.006432307 0.012280348 -5.436107e-05 0.00036568707 0.0002775253
0.0057854233 0.0051942905 -0.011360837 -0.012643494 -0.039457507 -0.007307078 -0.012703373 -0.010781676
-0.0022875536 -0.024901101 -0.017055452 0.0043111867 -0.012641259 0.004685278 0.021625252 -0.0029800131
0.0032624057 -0.041063257 -0.024912257 0.002243295 0.009749356 -0.013374619 0.004724616 -0.0093036955
0.007742681 -0.012656598 -0.019787272 0.028557433 0.026988285 0.015215468 -0.0018889955 0.017614087
-0.002246337 0.0041720397 -0.013561692 -0.0015153352 -0.011813415 -0.0025535326 0.016338557 0.0075889123
-0.002980477 0.0067220153 -0.009222153 -0.028702758 -0.021060752 -0.00677184 -0.004868222 -0.02965182
-0.0320606 0.047266744 -0.013819783 0.00043253132 -0.010783015 -0.040773034 -0.013034985 0.011939786
-0.021600787 -0.006286444 -0.013519103 0.008185722 0.038726695 -0.007452959 0.04351734 0.005073454
-0.037692275 -0.00018160975 -0.008489543 0.014273202 0.0039742724 -0.0034114243 -0.0058550043 -0.013393157
0.036280606 -0.007990656 0.007051502 -0.01538825 0.0014055475 0.005543358 -0.0037330298 0.0059530265
0.018605191 0.034329265 0.03885288 -0.023844842 -0.009229273 -0.0018940839 -0.025250377 -0.0016922717
0.007686255 0.021519471 0.021825142 0.021193516 0.022787588 0.009520829 0.0060454234 0.016737984
0.02945725 -0.010842609 0.011384163 -0.023980753 -0.011844893 0.0024746724 -0.024904642 0.010013988

action_model._discrete_distribution.branches.0.bias f4 [2]
00000000: 38b8 2a3c 38b8 2abc
0.010419898 -0.010419898

onnx::Div_105 f4 [14]
00000000: 283a 833e eb54 303e ae0b 7f3e 9156 2f3e
00000010: 6838 7d3e 5d38 2e3e a367 6b3e b88f 2b3e
00000020: 2b04 6a3e 4dd8 293e 511a 583e 8513 283e
00000030: 6515 553e 8fd0 243e
0.25630307 0.17219894 0.24906799 0.17122866 0.24728549 0.17013688 0.22988753 0.16754043
0.22853152 0.16586418 0.21103789 0.16413696 0.20808943 0.16095184

onnx::Div_108 f4 [14]
00000000: 45de 903e 912e 463e 709e 8d3e 1ae4 443e
00000010: 7551 8c3e 1d8e 433e a503 843e c742 413e
00000020: ce1a 823e e868 3e3e 4873 713e 95de 3c3e
00000030: 8c46 6d3e afcd 383e
0.28294578 0.19353701 0.2765994 0.19227639 0.27405897 0.1909718 0.2578403 0.1887313
0.25411075 0.18594706 0.23579133 0.18444283 0.23171443 0.18047212
