Assets/Dueler-2999999.onnx (onnx, 402609 bytes, 19 tensors)

network_body.observation_encoder.processors.0.normalizer.running_mean f4 [14]
00000000: 8733 733f ddb1 773f abfd 733f 9c03 783f
00000010: d825 743f 0022 783f 0fdf 753f 8ed8 783f
00000020: bedd 753f 37ef 783f 1272 773f 6498 793f
00000030: 178f 773f 61c3 793f
0.950005 0.9675577 0.9530894 0.9688051 0.95370245 0.9692688 0.96043485 0.97205436
0.96041477 0.9724001 0.9665843 0.97498155 0.9670271 0.9756375

network_body.observation_encoder.processors.1.normalizer.running_mean f4 [14]
00000000: 7fe5 6c3f ac45 733f 8256 6e3f 53e5 733f
00000010: b87e 6e3f 9bff 733f 6143 713f 9139 753f
00000020: 4f39 713f 6f48 753f 829b 733f e864 763f
00000030: 3ba4 733f 6e83 763f
0.92537683 0.95028186 0.9310075 0.95271796 0.9316211 0.953119 0.9424344 0.95790964
0.9422807 0.9581365 0.9515916 0.9624772 0.9517247 0.96294296

network_body.observation_encoder.processors.2.normalizer.running_mean f4 [435]
00000000: 88cb 2d41 e527 c33d c54f 9ebf b0c4 2d41
00000010: 737e bf3d 443a e7bf 4d80 2d41 79fb 923d
00000020: ae8c 8e3f 6f79 2d41 437f 8d3d f7c8 f23f
00000030: d3a6 2c41 3096 8b3d 783d a13f 12a3 2c41
00000040: 071a 883d ace8 dd3f 7bf7 2c41 c575 c03d
00000050: cc1b ad3f c3f3 2c41 2d41 be3d cdfa d73f
00000060: 65df 2b41 a629 623d 0237 edbd 3c5d 2d41
00000070: 5ae1 643d 2b32 2c3e 2df3 083d 3eba c93e
00000080: 0dbe 333d 34a0 b13e 1016 df38 aad6 7e3c
00000090: ede2 9bba 6a5e 9fbd 0ff7 48bd f40e aebb
000000a0: e508 fc3f 0910 0b3f 08b1 fe3e 22e9 3d3f
000000b0: b975 453f 8b17 ae3f 4749 00c0 b975 453f
000000c0: 8b17 ae3f 4d75 8cbf f368 e23e 945a 9b3f
000000d0: b772 1e40 f368 e23e 945a 9b3f d63f 203f
000000e0: e0e9 ba3e fd94 7c3f 6268 0f40 e0e9 ba3e
000000f0: fd94 7c3f d775 5c3f a460 3f3f a5b9 a43f
00000100: 1693 e93f a460 3f3f a5b9 a43f eb72 a33f
00000110: 8232 be3e 2695 543f 4841 2cbe b77a b33e
00000120: b696 8d3f dfb3 5a3e ab6e 013d d141 d13e
00000130: fde2 4d3d 25f9 bd3e 5eb1 8f39 f90e 803c
00000140: 6007 70ba b0bf a9bd 18c6 2fbd 7b32 6abc
00000150: 3307 fc3f f8f9 153f 9469 063f b35a 2e41
00000160: 82c7 c33d ccd4 9ebf 2454 2e41 8b1d c03d
00000170: 79fa e7bf 190f 2e41 fd72 933d f406 8f3f
00000180: 7d08 2e41 e3f6 8d3d 1c94 f33f b534 2d41
00000190: 6b08 8c3d 35c7 a13f 3f30 2d41 298c 883d
000001a0: bda3 de3f 9685 2d41 cd13 c13d 10ac ad3f
000001b0: 3081 2d41 c9de be3d 04af d83f ed6b 2c41
000001c0: 8de4 623d 3497 edbd ebea 2d41 4b9b 653d
000001d0: 06a3 2c3e 2414 093d 5818 ca3e 3739 343d
000001e0: 77f2 b13e f9cb 9d38 d617 7f3c c635 96ba
000001f0: 40df 9fbd 0bfa 4abd cbbf a7bb 9fd8 fc3f
00000200: cf4a 0b3f e208 ff3e 0653 3e3f ac16 463f
00000210: f4a7 ae3f fab3 00c0 ac16 463f f4a7 ae3f
00000220: 65e3 8cbf 4422 e33e 68d8 9b3f 8bf3 1e40
00000230: 4322 e33e 68d8 9b3f 81c2 203f 2d86 bb3e
00000240: 3863 7d3f b0d9 0f40 2d86 bb3e 3863 7d3f
00000250: 3a2a 5d3f e9fe 3f3f 0041 a53f 2b52 ea3f
00000260: e9fe 3f3f 0041 a53f ecf8 a33f 03d1 be3e
00000270: fc36 553f b879 2cbe a613 b43e bdf7 8d3f
00000280: 534c 5b3e 5f77 013d 92af d13e 7781 4e3d
00000290: 3f5d be3e a2b2 7b39 4b67 803c b03e 70ba
000002a0: 2dd5 a9bd 7f33 31bd 0d62 69bc d8d6 fc3f
000002b0: c544 163f ad9a 063f 16e8 2e41 f366 c43d
000002c0: 7d59 9fbf 82e1 2e41 9fbc c03d 07bb e8bf
000002d0: 489c 2e41 56ea 933d c980 8f3f ad95 2e41
000002e0: 5f6e 8e3d d05f f43f 01c1 2d41 a779 8c3d
000002f0: 0451 a23f e6bc 2d41 d0fd 883d f35e df3f
00000300: 4912 2e41 76b1 c13d cb3d ae3f 0b0e 2e41
00000310: 8a7c bf3d 0e63 d93f c9f8 2c41 659f 633d
00000320: fee0 edbd 5e78 2e41 fe54 663d fd23 2d3e
00000330: 7c2e 093d 7e76 ca3e 88b5 343d fe42 b23e
00000340: ba7d 7a38 dd68 7f3c 071a 90ba 1f65 a0bd
00000350: 63b2 4cbd c61d a9bb e6a5 fd3f e989 0b3f
00000360: 6b60 ff3e 82ba 3e3f 24b7 463f 003a af3f
00000370: d818 01c0 24b7 463f 003a af3f 2856 8dbf
00000380: 03db e33e 395a 9c3f b478 1f40 03db e33e
00000390: 395a 9c3f 9849 213f 081d bc3e fa30 7e3f
000003a0: 974f 1040 081d bc3e fa30 7e3f 43de 5d3f
000003b0: df99 403f 68cc a53f f210 eb3f de99 403f
000003c0: 68cc a53f 2383 a43f 866f bf3e 19d9 553f
000003d0: b1a5 2cbe b2ac b43e d158 8e3f dce8 5b3e
000003e0: 497a 013d 971c d23e bc26 4f3d 94bf be3e
000003f0: 7134 5439 1ca8 803c e593 71ba a1e3 a9bd
10.86219 0.09529094 -1.2368094 10.860519 0.0935029 -1.8064656 10.843823 0.07176871
1.1136682 10.842147 0.06909039 1.896758 10.790729 0.06815755 1.2596884 10.789812
0.06645589 1.7336631 10.81042 0.09397463 1.3524108 10.809512 0.09289775 1.6873413
10.74204 0.0552155 -0.115827575 10.835262 0.055878974 0.16816013 0.033435035 0.39399904
0.04388242 0.34692538 0.00010637578 0.01555411 -0.0011893191 -0.0778168 -0.04906374 -0.005311841
1.9690214 0.5432134 0.4974444 0.7418386 0.77132756 1.3600935 -2.0044725 0.77132756
1.3600935 -1.0973297 0.44220695 1.2137017 2.4757516 0.44220695 1.2137017 0.62597406
0.36506557 0.9866484 2.240746 0.36506557 0.9866484 0.8611731 0.74756837 1.2869154
1.8248012 0.74756837 1.2869154 1.2769445 0.3714791 0.8304008 -0.16821778 0.35054561
1.1061618 0.21357678 0.03159968 0.40870526 0.0502653 0.37104145 0.00027407234 0.01563214
-0.00091563724 -0.082885146 -0.042913526 -0.014294262 1.9689697 0.5858455 0.5250485 10.897143
0.095595375 -1.240869 10.895542 0.09380635 -1.8123313 10.878686 0.07199667 1.1173997
10.877072 0.069318555 1.9029574 10.825368 0.06837543 1.2638918 10.824279 0.066673584
1.7393719 10.845114 0.09427605 1.3568134 10.84404 0.09319837 1.692841 10.776349
0.055393744 -0.11601105 10.869853 0.056056302 0.16859064 0.033466473 0.39471698 0.043999877
0.34755298 7.524336e-05 0.015569648 -0.0011460118 -0.078062534 -0.049554866 -0.005119299 1.9753608
0.54411024 0.49811465 0.74345434 0.77378345 1.3645005 -2.010985 0.77378345 1.3645005
-1.1006895 0.4436208 1.2175417 2.4836147 0.44362077 1.2175417 0.6279679 0.36625805
0.9897952 2.2476616 0.36625805 0.9897952 0.8639256 0.7499834 1.2910461 1.8306326
0.7499834 1.2910461 1.281034 0.37268838 0.83287024 -0.16843307 0.3517124 1.1091229
0.21415834 0.03160798 0.40954262 0.050416436 0.37180516 0.00024003771 0.015674254 -0.00091646146
-0.08292613 -0.043262 -0.0142445685 1.9753065 0.58698684 0.52579767 10.931662 0.095899485
-1.2449185 10.930056 0.094109766 -1.8182076 10.913155 0.072224304 1.1211177 10.911542
0.06954645 1.909174 10.85962 0.06859141 1.2680974 10.858618 0.06689036 1.7450851
10.879464 0.09457676 1.3612608 10.878428 0.09349926 1.6983354 10.810739 0.055571932
-0.116151795 10.9043865 0.0562334 0.1690826 0.033491597 0.39543527 0.044118434 0.34816736
5.9721737e-05 0.015588966 -0.0010994085 -0.07831787 -0.04997481 -0.00516102 1.9816253 0.5450731
0.4987825 0.7450334 0.776232 1.3689575 -2.0171413 0.776232 1.3689575 -1.1041918
0.4450303 1.2215034 2.4917421 0.4450303 1.2215034 0.6300292 0.367409 0.9929348
2.2548578 0.367409 0.9929348 0.8666727 0.7523479 1.2953005 1.8364546 0.7523478
1.2953005 1.285252 0.37389773 0.8353439 -0.16860081 0.35288006 1.1120855 0.21475548
0.03161076 0.41037437 0.05057405 0.37255538 0.00020237431 0.01570516 -0.00092154584 -0.0829537

network_body.observation_encoder.processors.3.normalizer.running_mean f4 [14]
00000000: a68b 6b3f db59 723f fa2d 6d3f 760b 733f
00000010: 3665 6d3f f924 733f a972 703f 0684 743f
00000020: ac5e 703f 9a7f 743f ffea 723f debd 753f
00000030: 6fdc 723f 6cc1 753f
0.9200996 0.9466836 0.9264828 0.94939363 0.9273256 0.9497829 0.9392496 0.9551395
0.9389446 0.95507205 0.94889826 0.9599284 0.94867605 0.95998263

network_body._body_endoder.seq_layers.0.weight f4 [128, 477]
00000000: 78f6 4b3d aa9e 263d b4ac 01bd b73b 2dbd
00000010: 9cff 94bb 0da9 c9bc 9188 de3c 9cf5 c6bd
00000020: 7cf7 6dbd ee05 b6bc 4dd5 4dbd d125 aabd
00000030: f1aa 90bd 63fd 00bd 02ce 593d 5b5a efbb
00000040: de61 9b3d d2a3 55bd 794f 2fbd fca7 28bd
00000050: 70a3 d5bb b980 16be 10dd 8c3c 3f5d d83d
00000060: 6814 7abd 9d19 31bd 221d 81bc 0536 40bc
00000070: f13d b1bc bdda 87bc 5842 0f3d 4737 743d
00000080: e439 ecbc b398 7d3c 6cf9 14bd c56f 0b3b
00000090: 8bd0 9f3c 044c b1bc 56c8 813c 228c 03bd
000000a0: afea 62bb 4b26 fd39 66d7 6dbd ecc3 913c
000000b0: 80b4 503c 6213 39bd 0b27 0fbd 19f0 b13c
000000c0: 3bad 8abd c7ae 523d eac5 793c 5b69 1dbc
000000d0: 57b9 143e 94d5 023b 1516 b23c a590 1d3d
000000e0: 891c 64bd f04d 8abd 87af 323d 97bf 47bc
000000f0: a954 e439 e969 39bd c562 563d 6152 34bd
00000100: 5ed4 e03c 6392 18bd f6de da3c fc27 2dbd
00000110: 281c d8bc 8f97 ec3c 89be 93bd f1c0 733d
00000120: 5607 f13c d23e 4bbd 86a2 1ebb 84b7 74bd
00000130: 7d70 783c 584a b53d af1c 7fbb 8bda 783c
00000140: 8b5d f7bc ed0c 1b3b 8c0d 683d 3dca f6bb
00000150: 5a39 54bd e5a4 093d 3154 91bd bb08 28bb
00000160: 5027 113d 76d3 103d c87a 9ebd ac51 58bd
00000170: 3210 b9bc 6f28 46bd a39c 4bbd e03a 3b3c
00000180: b06a 9a3d a4c1 4dbd 022c 28bd 70db 843c
00000190: 1970 a63c 2a27 863c ef4b 9a3c c351 a03d
000001a0: 55f2 103c ac2a 23be bfb0 533d a832 1439
000001b0: 6ac1 d23c d3c4 823d 5ec2 613d 79f6 babc
000001c0: a98d ce3c 24c7 793d fa54 13bd 82b0 2a3d
000001d0: 1758 acbb 350e bb3c 031c 403d 36f5 8ebd
000001e0: 054c 7fbc 13ca b23b e87b 5039 9966 383d
000001f0: 6242 d83b 41ab 2cbd 8710 d53b 319f 0f3d
00000200: 9143 79b9 0e82 cf3c 4d60 a93c 318e 3cbc
00000210: abbb 763b 3db4 6abd 47d8 353c 3374 163d
00000220: 3074 ecbc bcbb be3a 1409 48bc 98ed 23bd
00000230: 8f83 71bd ebb7 d43a ca75 e43d 4854 1abd
00000240: a822 043d 0599 5d3c cbdc c03c c286 483d
00000250: 83a7 fdbc fae5 7d3b 759e 1f3d abdc cf3c
00000260: 3661 5cbc 73a6 78b9 ede4 113d aaf2 453d
00000270: b085 1abd bbe5 11bd 437c 523d 5d3e 9a3d
00000280: 02b8 0bbd 9c93 0dbd 7b4f 5bbc 3f56 db3c
00000290: 126e 203b d26f fa3c dff8 0fbd 5dc0 3c3d
000002a0: 8eac 6cbd bf4f 9b3c 5598 4c3d bc21 47bd
000002b0: 2300 a03c e7b8 603c e95c f73d 93e6 2fbd
000002c0: a92f 643d ab58 503c b4b8 9e3d 2c7e 99bb
000002d0: bea9 4f3d 5313 b13c 6dc2 23bd f410 183d
000002e0: 438f 1a3d d0e6 d1bc fe3a d9bc b23f c73d
000002f0: 85c8 963d d359 ab3d 6234 09bd 1e2e 4f3c
00000300: 8705 eebd 31ad 493d affb 343d 3345 f6bc
00000310: 8df9 81bd fecd d73d 09ee b7bc f722 c9ba
00000320: 5d77 a43c c1f5 07bc 5cdc 043d 573b 653c
00000330: 1004 4fbd 97c4 a23d 45aa a2bc 15b9 173a
00000340: c74e 4f3d 1f84 77bd b9f8 973c 7c59 89bd
00000350: 32a3 ab3d 456e 19bd e8b1 4fbd ba9e 9fbc
00000360: 963a 893d b58c 1fbd d447 90bc 8585 0e3d
00000370: 2146 b1bc d265 babd b9aa eabc 02ce 77bc
00000380: c430 73bd 2216 103d d509 c03c 9f5a 98bd
00000390: d984 dfbd e468 1abd 2f52 54bc 9816 493d
000003a0: 01be 7dbd e3f0 753d 5e21 f23d 72ea 41bd
000003b0: 44e8 ca3c c167 523d 14e1 a23d 6aca b9bc
000003c0: 5050 5f3d d8f4 f1bc 29ed 6a3d c079 183c
000003d0: 53b6 e43c d066 463d df9d 033d 7cf5 de3c
000003e0: 4cfe efbc e3d7 22bb 9e22 ac3c 657f ba3c
000003f0: 340c cd3c e592 493d a102 0f3d 6399 e73b
0.049795598 0.040678658 -0.031658843 -0.042293277 -0.0045470726 -0.024616743 0.02716473 -0.09714815
-0.058097348 -0.022219624 -0.050252248 -0.08307994 -0.070638545 -0.03149165 0.05317498 -0.0073044724
0.07587026 -0.052158184 -0.0428004 -0.041175827 -0.0065197274 -0.14697541 0.017195255 0.1056466
-0.061054617 -0.043237317 -0.015760962 -0.011731629 -0.021635981 -0.016583795 0.03497538 0.05962303
-0.028836198 0.015478301 -0.03637068 0.0021276337 0.01950862 -0.021642692 0.015842598 -0.032116063
-0.0034624746 0.0004828445 -0.058066748 0.017793618 0.012738347 -0.0451845 -0.034949344 0.021720933
-0.06771322 0.051436212 0.01524494 -0.009607638 0.14523827 0.0019963728 0.021739045 0.038468022
-0.055691276 -0.06753147 0.043624427 -0.012191675 0.00043550626 -0.04526702 0.052340288 -0.044023875
0.027445015 -0.03724898 0.026717644 -0.04227446 -0.026380613 0.028880863 -0.07214076 0.059510175
0.029422443 -0.049620457 -0.0024205758 -0.059745327 0.015163538 0.088520706 -0.003892701 0.015188823
-0.030195972 0.0023658827 0.056653544 -0.007531433 -0.051812507 0.03360452 -0.07096136 -0.002563997
0.035437882 0.035357915 -0.077382624 -0.052812263 -0.02259073 -0.048378404 -0.049709927 0.011427611
0.0753988 -0.0502335 -0.041057594 0.016217917 0.020317124 0.016376097 0.018835036 0.07828095
0.008846839 -0.15934247 0.05168223 0.00014133251 0.025726993 0.063851975 0.055117004 -0.022822605
0.025214033 0.06098093 -0.03596971 0.041672237 -0.0052595246 0.022833923 0.046901714 -0.06980364
-0.015582089 0.005456218 0.00019882584 0.04501972 0.0065997103 -0.042155508 0.0065022144 0.035063926
-0.00023771661 0.02533057 0.020675803 -0.01150851 0.003764848 -0.057300795 0.011098928 0.03673191
-0.028863996 0.0014551799 -0.012209196 -0.04002151 -0.058963355 0.0016229128 0.11155279 -0.037678033
0.032259613 0.013525252 0.023542782 0.04895664 -0.030963665 0.0038741813 0.038969476 0.025373777
-0.013450911 -0.0002371313 0.03561871 0.048327126 -0.03772515 -0.03561948 0.051388036 0.07531426
-0.03411103 -0.0345646 -0.013385649 0.026774524 0.002447967 0.030570898 -0.03514945 0.04608189
-0.05778175 0.018958924 0.049949963 -0.048616156 0.019531315 0.013715959 0.12078268 -0.042944502
0.055709515 0.012716453 0.07750073 -0.0046842303 0.05069899 0.02161566 -0.03998034 0.037125543
0.03773428 -0.025622755 -0.026517387 0.09728946 0.07362465 0.08366742 -0.03349722 0.012645273
-0.11622148 0.049237434 0.044185337 -0.030062294 -0.06346426 0.10537337 -0.022452371 -0.0015345503
0.020076448 -0.008298338 0.032436714 0.0139911985 -0.050540984 0.07947653 -0.019856581 0.0005787772
0.050612237 -0.060428735 0.018551217 -0.06706521 0.083807364 -0.037458677 -0.050706774 -0.019484866
0.067006275 -0.038952548 -0.017612375 0.034795303 -0.021639885 -0.09101452 -0.02864586 -0.0151248
-0.05937268 0.035177357 0.023442188 -0.074391596 -0.109140106 -0.037697688 -0.012959047 0.049093813
-0.06194878 0.06004418 0.118227705 -0.047342725 0.024768956 0.05136848 0.079530865 -0.022679526
0.05451995 -0.029535696 0.05735508 0.009306371 0.02791897 0.048437893 0.03213298 0.027216665
-0.029296063 -0.0024847917 0.0210126 0.022765825 0.025030233 0.049212355 0.034914616 0.0070678457

network_body._body_endoder.seq_layers.0.bias f4 [128]
00000000: 1aab 483b 491d 043c 8e1f 14bc e730 303c
00000010: 1a1e cf3c 5d9f 753c 77fc 68bb 7762 9f3c
00000020: 325e 8e3c 2907 68bc 3b0b 8d3c d374 02bc
00000030: 7773 833c 61b3 f83c 3e84 fa3b 22e5 923b
00000040: 1375 c33c 8904 d038 1fca 0abc c240 9b3c
00000050: c8d8 d03c 1276 053c 115a 783d fb61 693c
00000060: aa3f 30ba d81d 6a3c a246 383d f103 ba3b
00000070: 1d61 813c e850 d1bb 7fa8 2b3d 71a5 173d
00000080: 8077 883c 2764 9c3c 3a85 8639 3c51 f6bc
00000090: a47f 1e3c 3493 04bc 167c ec3c eeb5 9d3b
000000a0: 96c1 1d3c 6d2e b43c 72e3 383d 2c8a 783b
000000b0: ac4c bd3c f107 a13c f06a 14bd 6685 b43b
000000c0: 48e0 423c 7301 133d 9803 9f3c ff7d b93c
000000d0: 44e9 7c3c 4be1 a83b 63b4 ffbb c1dd 8cbb
000000e0: a957 d7bc 6415 263c a84f 773d d12c 8abb
000000f0: 15b4 5c3b 2d02 943a e100 003d 782c c03c
00000100: 1e64 e63c 9050 4dbc a5b3 01bc 2e8c 883c
00000110: 0b43 283c db94 da3c 9b78 3e3c 2ac5 313d
00000120: b31d cb3c 0a50 a73c 883c 01bc 8c40 70bb
00000130: 5e36 bb3c 6718 df3c 6bba 5a3c c6b2 053d
00000140: 3b17 c0bc f79a 1fbc b418 513c ecec 66bc
00000150: 604f b23c 6e63 45ba 3ff8 3e3c 455c 483c
00000160: 2414 ab3b 44e2 af3c b0d1 a73b 6a2c a73b
00000170: eda0 a93c c7ea 783b 18d0 573c 7c19 21bb
00000180: d383 313d f425 e33c a016 a93c 1d7f c0bc
00000190: f601 cfbb d352 e23c e7a7 353d bc94 6b3c
000001a0: 957c 023d 980c 78ba 774d 6a3c aa31 68ba
000001b0: f10c 8c3a 6810 eb3c a2e9 383c 24c8 ff3c
000001c0: 80cf 873b d5d1 60bc b218 893a 77d4 e33c
000001d0: 62c1 f23b 6b55 573c f4e0 653c 6e3e e33c
000001e0: 7a8d 6b3b 1d3f b0bb 4583 b23c 795e cf3b
000001f0: aa3b 043b eca5 19bb 6e0f 91bb 3000 c53b
0.0030619563 0.008063623 -0.009040726 0.010753847 0.025282908 0.014991608 -0.0035550871 0.019456131
0.0173789 -0.014161863 0.01721727 -0.007962423 0.016046269 0.030358972 0.007645159 0.004482881
0.023859536 9.9190576e-05 -0.008471041 0.018951777 0.025493994 0.008145826 0.06063277 0.014244552
-0.0006723354 0.014289342 0.044989236 0.0056767394 0.015793378 -0.0063878186 0.041908737 0.03702301
0.016658545 0.019090725 0.00025657733 -0.030068032 0.009673987 -0.008091737 0.028867763 0.0048129475
0.009628674 0.021994794 0.045138784 0.0037924154 0.023107849 0.019657107 -0.036234796 0.0055090664
0.011894293 0.035890054 0.019410893 0.022643087 0.015436474 0.00515381 -0.007803486 -0.004298896
-0.026286917 0.010136936 0.0603787 -0.0042167683 0.0033676673 0.0011292152 0.03125084 0.023458704
0.028123911 -0.012531415 -0.007916366 0.016668405 0.010269891 0.026682308 0.011625434 0.04340092
0.024794435 0.020423908 -0.007887967 -0.0036659567 0.022853073 0.027233316 0.01335011 0.032641195
-0.023448577 -0.009741536 0.012762237 -0.0140945725 0.021766365 -0.000752977 0.011655866 0.01222903
0.005220907 0.021470197 0.0051214322 0.00510173 0.020706618 0.0037981735 0.013172172 -0.002458184
0.043338608 0.027728058 0.020640671 -0.023498112 -0.0063173724 0.027627384 0.044349577 0.014378723
0.031857092 -0.0009462326 0.014300696 -0.0008857498 0.0010685009 0.028694347 0.011286171 0.031223364
0.004144609 -0.013721903 0.001045963 0.027811272 0.007408307 0.013142924 0.014030684 0.02773973
0.003594248 -0.0053786174 0.02179111 0.0063284007 0.0020177164 -0.0023444844 -0.004426888 0.0060119852

network_body._body_endoder.seq_layers.2.weight f4 [128, 128]
00000000: 0a88 933a 39f0 e33d 763b debd 9e43 2b3d
00000010: 2e33 90bd 3f45 bbbd fe6b a43d 3b53 673d
00000020: 382e 58be 2a83 033e fad3 eebc 1889 18be
00000030: 303d f33d 5e98 3abd d837 9f3d da2d 35bd
00000040: 6ae3 2dbb ef16 8c3e 2fb7 e73c 06fa 8abd
00000050: f8ac a73d ca1e 12bd 25ed ad3c 306c ce3c
00000060: 1f8a 253d b68e ebbd 17a4 913d 3ada 053e
00000070: c766 16bc 4eda a03d 58fd 20be f903 10be
00000080: 1a59 09be 0518 bbbc 5223 af3c 8d0d 0ebd
00000090: 677f 17bd a6aa b43c c0ef d43d 2442 00bd
000000a0: a7aa 61bd df60 42be ef38 52be 5df0 e33d
000000b0: 55ff c23c 20ae 8fbc d02a d4bd f77a 303d
000000c0: 6b68 1e3d 1338 92bd fec6 de3d 1982 bdbd
000000d0: a9a3 75bd 45c1 9ebc d87b 343d d4ad 383c
000000e0: 1eb4 0c3d 5a3b 353e c85a 25bd 061d b0bc
000000f0: 75a0 82bd ff47 42bd 82e6 033e bdeb 7d3d
00000100: 2cf4 a9bc 8323 ec3c 74ef 5a3c 29c7 9e3c
00000110: d1b6 a53d 5fb4 a0bd dd32 d8bd 8bbb 4b3d
00000120: e1c6 41bc 53f4 32be c7dc b5bd 066c ee3d
00000130: 0dea 513c 3f5e 953d 9d93 b0bc 8262 833c
00000140: 0477 8f3d 3b83 0b3c ac73 73bc eb3d 39be
00000150: 1381 45be 6d4f 523c 9076 783d 9856 aabc
00000160: 4b45 37bd acce 143d 1e88 27bc 2714 abbd
00000170: 3414 c73d d506 113e 662f d03d 58fc 5b3d
00000180: 9ac5 803d c707 00bb e597 203d 98a0 a0bd
00000190: 0829 0b3e 3b4e b8bd 08b9 e9bd 8bcc 70bd
000001a0: 1154 293d 2be9 4b3d 07c4 41bd 7d32 a0bd
000001b0: e877 af3d c32d 8bbd 3a1c a93d a2ec e9bd
000001c0: 2c93 233d 0a8a aa3d 4775 7c3d 8a58 c7bc
000001d0: bd0c 0dbd 1c24 803b 087d f13d 1352 ecbd
000001e0: be9a 58bc d216 a3bd e00f fd3d f480 e73d
000001f0: d0fd 8dbc 7ac4 3d3d a30e b1bd ee2c b63c
00000200: b9d1 073c 5f70 d6bd 848f 413c f62c 7f3d
00000210: 0c6a db3c 79d6 44bd 23dc b6bd dba0 723d
00000220: 635e e5bd 15f7 353d 82bc a6bd 08db ffbd
00000230: 6c5d 7ebc 5be7 9b3d 0786 efbc f855 5abd
00000240: 91e1 d5bd 9231 703c 58d0 bc3d 50ff 0c3e
00000250: a8dd 603c a391 f83c 5693 d0bd a7dc 383e
00000260: 5b98 4a3d 8dea 713d f201 05bd 8115 0bbd
00000270: 0bef c8bd a27e 63be f8a4 bdbd 54db afbd
00000280: 94c8 3cbd 4d74 d0bd 0946 10bd cb69 d83b
00000290: 9e09 f83d c00e 9e3b 29d0 963b a00a 23bd
000002a0: b4b1 a83d 7228 603c 79bd 053e 16e1 dd3d
000002b0: 16c0 60be e38f 2fbe c144 c9bd a2d8 8a3c
000002c0: 3a88 aabc 7c3e 51bd 3f1e a43d 5eed c4bd
000002d0: eee2 3b3d e984 07be d39f 6fbd abb0 7ebb
000002e0: df2c 20bc 63f0 203e e2e4 e2bc 0e20 453d
000002f0: 7c0b c1bc 5201 903d d81f cfbc 9f8b dbbd
00000300: 2d7e 42bd 8031 8c3d 82c1 58bd 0cb4 2e3c
00000310: 274c 1f3c c7a5 323d e219 dfba b3c3 8c3d
00000320: 085e a0bd da4a f6bd e371 083d 57d9 97bd
00000330: 677b a9bd c247 19bd 5de2 773d e6d5 ff3d
00000340: 0831 abbc a52d ed3c f231 603c 5ea1 013d
00000350: ed52 68bd 4eac 583d cb7b bbbb 5270 613d
00000360: d093 c6bc e3fa 04be be86 fe3b 5ae9 293d
00000370: 0f52 aebd 5aea 153d 51d2 403b c700 7bbd
00000380: a2f1 023d e089 083d c9fa 1d3e adf3 183e
00000390: b74c 02be 8079 2e3d 3b6a b6bd aeab 9f3d
000003a0: b201 1fbe dafe 163d 90c6 4b3e 9385 943d
000003b0: 592b f33d ccb9 86bd 0a88 263e f334 b83d
000003c0: fbb3 9bbc 1310 17bc fa87 91bc da07 493d
000003d0: 1003 163d d1e9 0a3c 58ad 76be 4253 fc3d
000003e0: f389 a1bb c860 e1bd 0f95 fdbd b87e c03d
000003f0: 16c7 18bd 9878 8f3d d954 9bbd 6518 633d
0.0011255753 0.11129803 -0.10851185 0.04181253 -0.07041012 -0.09144067 0.080284104 0.05647586
-0.21111381 0.12843004 -0.029153813 -0.14896047 0.11876905 -0.045555465 0.07774323 -0.04423318
-0.0026533254 0.27361247 0.028285591 -0.067859694 0.08187288 -0.035673894 0.021231243 0.025198072
0.040414926 -0.11501829 0.07111376 0.13071528 -0.0091797775 0.07854138 -0.15721643 -0.14064015
-0.13412896 -0.022838602 0.021379147 -0.03468089 -0.036986735 0.022054028 0.10397291 -0.031313077
-0.055094387 -0.18982266 -0.20529531 0.1112983 0.023803392 -0.017539084 -0.10359728 0.04308602
0.0386738 -0.071396016 0.108777985 -0.0925333 -0.05997053 -0.019379267 0.04406342 0.011271913
0.03435146 0.17698422 -0.04036978 -0.021498214 -0.06378261 -0.047431942 0.128809 0.061992396
-0.020746313 0.028825527 0.013362754 0.019382076 0.0809151 -0.07846903 -0.105565764 0.0497394
-0.011827202 -0.17476015 -0.088800006 0.116416976 0.01281215 0.07293367 -0.021554762 0.016038183
0.07005122 0.0085151745 -0.014859121 -0.18090026 -0.19287519 0.012836319 0.060659945 -0.020793244
-0.044743817 0.03632991 -0.010225324 -0.08353453 0.0972065 0.14162762 0.101652905 0.05370745
0.062876895 -0.0019535886 0.039207358 -0.07843131 0.13589871 -0.08999296 -0.11412245 -0.058788817
0.041339938 0.049782913 -0.047306087 -0.0782213 0.08567792 -0.06795838 0.08257337 -0.11422087
0.039935276 0.0832711 0.061635282 -0.02433421 -0.034435976 0.0039105546 0.11791426 -0.11539092
-0.013220487 -0.07963337 0.123565435 0.11303893 -0.017332941 0.046329953 -0.0864537 0.022238221
0.008289748 -0.10470652 0.011814002 0.062298737 0.026783966 -0.0480561 -0.089287065 0.059235435
-0.111996435 0.04442509 -0.08141424 -0.12492949 -0.015525203 0.07612487 -0.029238714 -0.053304642
-0.10443414 0.014660256 0.09219426 0.13769269 0.013724722 0.030342882 -0.10184352 0.18052922
0.049461704 0.059061576 -0.03247256 -0.033956055 -0.09811219 -0.22216275 -0.09259981 -0.085867554
-0.046089724 -0.101784326 -0.03522304 0.0066044084 0.12111209 0.0048235357 0.0046024513 -0.039805055
0.08237019 0.013681518 0.1306056 0.10833947 -0.21948275 -0.17144732 -0.09827567 0.016949002
-0.020816911 -0.05108498 0.080135815 -0.09615587 0.045870714 -0.13234295 -0.05850203 -0.0038862627
-0.009776323 0.157167 -0.02769703 0.048126273 -0.023565046 0.07031502 -0.025283739 -0.1071999
-0.04748361 0.06845379 -0.05291892 0.010663044 0.009722746 0.04361513 -0.0017021263 0.06873264
-0.07830435 -0.120259956 0.033311736 -0.07414501 -0.0827549 -0.03742195 0.06051861 0.1249197
-0.020897403 0.02895243 0.013683783 0.031648032 -0.05671971 0.052898698 -0.0057215444 0.055038758
-0.024240404 -0.1298633 0.0077675274 0.041482307 -0.08511745 0.03660045 0.0029422233 -0.06128004
0.03196872 0.033334613 0.15427698 0.14936705 -0.12724577 0.04259634 -0.089069806 0.07796417
-0.1552799 0.03686414 0.19899964 0.0725204 0.11873502 -0.06578407 0.16262832 0.08994474
-0.01900672 -0.009220141 -0.017765034 0.049079753 0.036624014 0.008478598 -0.24089563 0.12320568
-0.004929775 -0.11004788 -0.12381946 0.0939917 -0.03729924 0.07005423 -0.07584543 0.055443186

network_body._body_endoder.seq_layers.2.bias f4 [128]
00000000: 9fe4 c3bc 533d a03b 7220 87bb 9cd7 0cbc
00000010: 95a6 0c3d 07f2 813c 76ee 263b 352a 9cbc
00000020: d434 94bc 76c5 bc3a 449c d0bb 6a91 9b3c
00000030: a059 3b3c df2b 173d f3da 793c 511d e7ba
00000040: 4226 c73c e462 393b 48a4 423d bf29 ad3c
00000050: a526 b73c 2287 9c3c d83c 9dbb f0f0 043c
00000060: cc4e b23c 48e5 083c d178 f43c d041 b83a
00000070: aed2 0f3c d270 673b be60 e83b 13eb 6a3a
00000080: f33b e0bc e3b0 e63c 4009 1c3c d209 acba
00000090: 025a 43bc e2fc cf3b 8aaf 0a3a 4875 273c
000000a0: 9bc6 c5bc 7361 543c 6c66 53ba 6171 633d
000000b0: e7ce b63a 0b43 f43c 8070 89bc 24e2 0c3d
000000c0: 4b2c 733c 35bb 14bc 8a25 88bb b6c0 76bc
000000d0: a00a 203b 478c ca3c 6f0e 843b db23 6e3c
000000e0: 7e28 4f3c d79b 963c c481 0abc b8b8 113c
000000f0: 99d3 2bbd bce6 a83c 7aac 1a3d b999 673d
00000100: e923 1d3d 4c07 c33c 3b37 a73c 0c06 14bc
00000110: 546a da3b e2ce 9e3c df0d ab3c 8139 013d
00000120: 1a55 fd3c 1073 3c3c 3918 993c 7d91 1f3d
00000130: 3da9 93bc 7464 b13c cca7 893c 9659 343c
00000140: 0500 e33c 04b8 2c3c 3f8a 593c 69b9 7aba
00000150: 7c83 133c 3ed5 dd3c 7483 333c da81 01bd
00000160: 2aa1 813c dcb9 4c3d 1977 063d ac39 9d3c
00000170: 1156 a5bc b642 153b 91c7 1a3b f601 5b3b
00000180: b4a9 c03c 064c fabc 014d 943c 29b5 a8bc
00000190: cbcb adbc 0cf9 d83c d722 6d3c 2ef6 a839
000001a0: b389 053d 0d95 84bb 761c 873b 98bf 82bc
000001b0: 0095 093d c0fb 2e3d c8ce 093d aa57 ad3c
000001c0: b3ae be3c a3d4 b63c 3cb0 8d3b 022b 2a3d
000001d0: 9dc6 273d 88d1 e0bc 6b63 38bc 3ed3 d0bc
000001e0: 1296 9b3c 0bc1 7b3a f341 27bb 6eea 1e3d
000001f0: e788 e03c 92e0 ba3c 9935 8b3c 209e 9f3c
-0.023912726 0.004890123 -0.004123741 -0.008596327 0.034338553 0.015862478 0.0025471724 -0.019063095
-0.018091597 0.001440211 -0.0063662846 0.018990237 0.0114349425 0.036907073 0.0152499555 -0.0017632638
0.024310235 0.0028287703 0.047519952 0.02113807 0.022357294 0.019107405 -0.004798513 0.008114085
0.021766089 0.008355446 0.029842766 0.00140577 0.008778257 0.003531505 0.0070916107 0.00089614204
-0.027372336 0.028160518 0.00952369 -0.0013125485 -0.011923315 0.0063472847 0.00052904396 0.010220833
-0.024142554 0.012962687 -0.0008064273 0.05552805 0.001394716 0.029817125 -0.016777277 0.034395352
0.014842103 -0.009077837 -0.0041548656 -0.015060594 0.0024420395 0.024725093 0.004030041 0.014534916
0.012643931 0.018384857 -0.00845379 0.008894138 -0.041949842 0.020617835 0.037762143 0.056543086
0.038364325 0.02380719 0.020412078 -0.009034645 0.0066655073 0.019385759 0.020880638 0.03154898
0.030924369 0.011502042 0.018688308 0.038957108 -0.018025035 0.021654345 0.016803645 0.011007687
0.02770997 0.01054192 0.013277589 -0.00095643714 0.009003516 0.02707922 0.010956634 -0.031617977
0.01582392 0.049981937 0.032828424 0.01919254 -0.020182641 0.0022775359 0.0023617486 0.0033417917
0.02351842 -0.030553829 0.018103125 -0.020594196 -0.02121534 0.026485942 0.0144736385 0.00032226875
0.032602023 -0.0040460886 0.004123266 -0.0159605 0.033589363 0.042720556 0.033644468 0.021159966
0.023276662 0.02231819 0.0043239873 0.04154492 0.040960897 -0.027443662 -0.011254172 -0.025491353
0.018992458 0.0009603656 -0.0025521487 0.03879779 0.02740903 0.022812162 0.01699333 0.01948458

network_body._body_endoder.seq_layers.4.weight f4 [128, 128]
00000000: c8c4 75bc cb2b 033e ef59 62bd c7e4 013d
00000010: a486 fe3d ec38 cdbc 477e bc3d 2359 11bd
00000020: c463 c93d f67a d43c b206 063d b030 1d3e
00000030: 3d68 f0bb 1cb9 8ebd 917c b1bd 8b3d 933e
00000040: 146e 05be f6f3 c83c ed09 0e3d 80a2 8c3d
00000050: 063b a53d 1d41 5ebc 9cc1 c6bc 2f82 56bd
00000060: 7c5a 9cbd dcae 77bc 69fe d93d 53c2 28bc
00000070: f992 0e3d 3816 b4bd 09b2 b23c f8fd 283e
00000080: d207 a03d 5275 f9bc 6148 f8bc 89f8 473d
00000090: 0873 fcbd 48a2 f53c 90dc f7bc 93bc 213d
000000a0: f50a 35be a60b c2bd 450b 81bd dfd2 b0bd
000000b0: 78da bdbc ec14 56bd 9375 6ebd 4f0e 44bc
000000c0: ec10 dabd 3c54 283e 2640 5ebd 2309 0a3d
000000d0: c316 95bd 3bcc 1fbd f029 65bb 1bf0 35bd
000000e0: 9e0f 383e ddbe 89bb 0105 403e b049 083e
000000f0: d912 0abe ed19 08be a1a1 ef3d 37ee 2c3e
00000100: d8f6 f03c 5f1d 8cbd 6930 de3c a87b 2dbe
00000110: 3e00 2b3d 541f c83c fa76 063d 627d ccbd
00000120: 0e39 de3d a90a 1f3d 8310 203d 47f8 f53c
00000130: 2c8d ab3d a7af 2a3d 0b1d 213e a2c2 2e3e
00000140: 64a5 bcbd 0f4a e33c 61d9 c53c dd94 bd3d
00000150: 9be9 52bc 231f b83d a9c3 78bc b6cc b73a
00000160: 13e1 233e 7538 013e 9c95 3b3d 37f8 f5bd
00000170: d4cf cfb9 bd94 ed3d 578b 583c 2680 e83a
00000180: 321c 773b 2b07 27be 8ba8 1abe 3320 95bd
00000190: 54fb 803d 451d 7ebd 022f a13d cf79 a13d
000001a0: d97c c53c f3a8 363d 3e8f 503d 8df4 80bd
000001b0: 98c1 39bc efa6 523d 5159 953b 2e3e 703d
000001c0: e1ba 663d d381 bdbd c6f4 02be 5af1 0ebb
000001d0: 109c a13a a642 c4bd d255 0ebd 4f04 5bbd
000001e0: 1e39 0fbe 21f6 00be 898c 3dbe 9017 7bbd
000001f0: b147 2cbe 6646 bf3d f900 98bc 2702 683e
00000200: 808e 1a3d 31f4 88bd 4528 54bd 5177 df3c
00000210: 97dc 1fbe 0097 f43b e352 14be 034c 2abe
00000220: 4669 14bd 07c6 d0bb 8b8f 673e f497 18ba
00000230: 2b0b 83bd f6ab 563d 05d3 33be 5faa c8bd
00000240: e0e7 69bd 2330 c13d 9e9e b1bd b071 223e
00000250: 6dd6 b4bd 84a4 e23d 542e 033e fc14 c53b
00000260: 1ac9 7fbe 0a06 4ebd 9da5 d8bd 6e67 ce3d
00000270: b139 443d e832 843d a8e7 513d 92b5 28bb
00000280: f8a9 40be 71d6 093e a935 14be ea16 f1bc
00000290: 7986 20bd 2c18 c2bb d8f2 85bd 609d 02be
000002a0: 6cd5 4b3e a426 de3d 80cd f3bd 1a1f 49be
000002b0: 83ec 02bc 1f0e c03c bea0 f9bd 7913 2fbe
000002c0: 4b99 a73c 6d69 563d 4b1b aabd 7979 ec3d
000002d0: d4b6 79bd 7dc4 04bd c56b 363d e2ae a33b
000002e0: 5eef aa3d 05c5 e8bb 62b9 8bbb 57fc e83d
000002f0: 008e 72bb bd7c f83d 1c9c 5bbd 8df2 d6bc
00000300: 5766 82bd a6f1 a9bd 34f9 913d 169d 01bd
00000310: 2ddd 773d 981a c03c 2900 48bc 8f81 91be
00000320: 5b88 4dbc 26ca d73c 83dd 573e 1e1e 0ebe
00000330: a322 d2bd 32b9 31bd f78b 033c 9d66 56be
00000340: 20ff bbbd 7c7c 1e3d facf 413d 475e ddba
00000350: 03ef c63d 47af f73d 2298 b53d 522c 563d
00000360: c790 5bbe 5a00 4f3b 9a46 d73b 0602 adbd
00000370: f433 313d e9db 7e3e d0c3 c7bd ad88 1bbb
00000380: de27 263c 3074 f5bd 9b47 ccbb 2d59 95bd
00000390: 0d39 9a3d 7bfa b7bd ffb8 02bd 9b0b aebc
000003a0: ccaf 6bbd a63a 9d3d d37f 1bbd cb2b 6bbd
000003b0: a6e8 cebc a316 31bd 7e52 b6bd 9cc4 53bd
000003c0: 6ed0 a9bd a2d6 023d b3b9 fdbd d611 6a3d
000003d0: 7859 4cbd 3507 eebd f294 103e 50e0 bdbd
000003e0: 4a94 2c3a e4a4 47bd 6584 3fbe 8d9f 74bd
000003f0: d690 01be ca5b 26be 39c3 553d 945b 133e
-0.01500053 0.12809674 -0.05526155 0.03171232 0.124280244 -0.025051557 0.09203773 -0.035485398
0.09833482 0.025937539 0.03272123 0.15350604 -0.007336645 -0.069689006 -0.08666337 0.2875789
-0.13030273 0.024530392 0.034677435 0.06866932 0.080678985 -0.013565329 -0.024262242 -0.052370246
-0.07634446 -0.015117373 0.10644228 -0.010300237 0.034808133 -0.087933004 0.02181341 0.16503131
0.078139916 -0.03045145 -0.03030795 0.048821006 -0.12326628 0.029984608 -0.03025654 0.03948648
-0.17679961 -0.09474878 -0.063009776 -0.086339705 -0.023175463 -0.052266046 -0.058217596 -0.011966302
-0.10647759 0.16438383 -0.054260395 0.03370012 -0.07279732 -0.03901313 -0.0034967624 -0.044418436
0.17974707 -0.004203661 0.18751909 0.1330936 -0.13483752 -0.1329114 0.1170075 0.16887747
0.02941458 -0.068415396 0.027122693 -0.16941702 0.041748278 0.024429 0.03282831 -0.099848524
0.10850726 0.038828526 0.039078247 0.030025614 0.08376536 0.04167142 0.15733735 0.17066434
-0.09211233 0.027745275 0.024151506 0.09256909 -0.012873079 0.08990314 -0.015183368 0.0014022801
0.16003828 0.12619193 0.045796975 -0.12010234 -0.0003963696 0.11600635 0.013216815 0.0017738387
0.0037706015 -0.16311328 -0.15103357 -0.07281532 0.06297937 -0.062039632 0.07870294 0.07884561
0.024107384 0.044594716 0.050917856 -0.06296644 -0.01133766 0.05142873 0.0045577665 0.05865305
0.056330565 -0.09253278 -0.12788686 -0.0021811337 0.0012329835 -0.09583025 -0.034749813 -0.053470906
-0.13986632 -0.1259389 -0.18510641 -0.061301768 -0.16824223 0.09339599 -0.018555151 0.22657071
0.037733555 -0.06687201 -0.051796217 0.027278574 -0.15611492 0.0074642897 -0.14484744 -0.16630559
-0.03623321 -0.006371263 0.22613351 -0.00058209826 -0.063986145 0.05241009 -0.17560966 -0.09798121
-0.0571059 0.094330095 -0.08672832 0.15863681 -0.08829961 0.11066535 0.12810642 0.0060144644
-0.24979058 -0.050298728 -0.10578463 0.100783214 0.04790658 0.06455022 0.051246315 -0.002574299
-0.18814838 0.13460709 -0.14473595 -0.029429872 -0.039190743 -0.0059232917 -0.065404594 -0.12755346
0.19905633 0.10847214 -0.119044304 -0.1964077 -0.007990959 0.023444233 -0.12188862 -0.17097272
0.020458838 0.052346636 -0.08305987 0.115466066 -0.060965374 -0.03241395 0.04453637 0.004995213
0.08346437 -0.0071035647 -0.0042640427 0.11376255 -0.0037010908 0.12133167 -0.053615674 -0.026238704
-0.06367176 -0.08298044 0.0712761 -0.03164395 0.060513664 0.02345018 -0.012207069 -0.28419158
-0.012544717 0.02634151 0.21080594 -0.13878676 -0.10260513 -0.043389507 0.008028976 -0.20937581
-0.091795206 0.038692936 0.047317483 -0.0016889059 0.097135566 0.120939784 0.08866908 0.05228836
-0.21441947 0.0031585903 0.0065696957 -0.084476516 0.043262437 0.24888577 -0.09754145 -0.0023732588
0.010141341 -0.11985052 -0.006234122 -0.072923996 0.07530413 -0.08983322 -0.031914707 -0.021245768
-0.0575407 0.07677202 -0.0379637 -0.05741481 -0.02525742 -0.04323448 -0.08902453 -0.051701173
-0.08291708 0.03194297 -0.12388935 0.057145916 -0.04989001 -0.116224684 0.14119318 -0.092713
0.0006583376 -0.048741236 -0.18702848 -0.059722472 -0.12652907 -0.16245952 0.052188132 0.14390403

network_body._body_endoder.seq_layers.4.bias f4 [128]
00000000: e08d ccbb ee43 54bc 5b67 50bc 049d 6d3c
00000010: b0cf 9c3c 1ffb e43c 3402 07bc 49f3 d13a
00000020: f712 9abb 52cf 63bc 61e6 2e3c bb2c cbbb
00000030: 75ba 373b df5e 953c 4c83 0a3a ecdc cdbb
00000040: 48ca 59bc f64c 55bc c056 cdbb 82d2 323c
00000050: f429 1bbd 07fc c8bc 3ad4 4abc abcb 353c
00000060: 6e83 573c 1ec1 16bc 0f69 ba3b 8577 303d
00000070: 18bc 4dbc 956f 18bc 42e5 b03c f3b4 9dbc
00000080: 52d7 25bb 6b49 83b9 e2da 9ebc 2905 3f3d
00000090: 0133 0abc 1a9f 333d df2e 17bc e63a 303c
000000a0: b2da 223b ed0b 613c be03 58bc e32a 00bc
000000b0: e417 0c3d 71a0 3f3d a0cb 89bc 136f df3b
000000c0: c8d5 c83c 74fe 9c3c a5a3 21bc 79e9 e7bb
000000d0: 4976 80bb 34b8 463c 6736 643d b20d 313c
000000e0: 027b 7f3b a337 8e3b ff9a 0e3c 7080 373d
000000f0: c9a7 3e3d 4060 8e3c 861d d13b 9e9e f43c
00000100: e24d 543d 8ea4 843c 5c94 7fba 238b fb3c
00000110: 90da 113c cbcc 19bc bb4a ba3c f8cc ab3b
00000120: 81c4 2f3c 5188 9c3c d82e 1fbb 8e39 723b
00000130: b969 af3b 33e9 3a3c fc1a 0f3d 4338 e33b
00000140: da96 373c ebbf fcbc 229d f93c 313d 85bc
00000150: 39b9 223b 7400 0eb9 2a25 053d 6edc b8bc
00000160: 823b 37bb 9b5d d73c 75f9 ff3b 5fce a13c
00000170: 98e3 b0bc 2cc8 e63c 7db0 a73c 1dbc 583c
00000180: ccf3 313b 96e7 003d 6dc9 4ebb b1d1 0b3c
00000190: 2c9f a53c fac4 c0bc 071e 5ebc a793 fc3b
000001a0: a5b7 fabb 89e5 0a3c f2b4 bd3c b701 a43c
000001b0: bf69 cebc 4a68 c0bc ab1a db3b 7451 ae3c
000001c0: 3be7 3a3d 1d21 6cbb 2c32 7f3a 6639 dfbc
000001d0: c350 17bc f294 63bc c847 5b3b c53b 24bb
000001e0: 99bf c6bc 0269 d43c f09b 9cbb 62c8 a03c
000001f0: 3a1c dc3b d681 4c3c 23df 33bc c538 5d3c
-0.0062424988 -0.012955649 -0.012719954 0.0145027675 0.019142002 0.027951775 -0.008240271 0.0016017939
-0.004701968 -0.0139044095 0.010675044 -0.0062004006 0.002803472 0.018233715 0.0005283847 -0.0062824395
-0.0132928565 -0.013018837 -0.006266445 0.010914447 -0.037881806 -0.024534239 -0.0123797 0.0110959215
0.013153894 -0.009201316 0.0056887935 0.043082733 -0.012557052 -0.009303947 0.021593694 -0.019251322
-0.0025305343 -0.00025040968 -0.01939148 0.04663578 -0.008435012 0.043852903 -0.0092274835 0.01075623
0.002484959 0.0137357535 -0.013184486 -0.007822725 0.03420247 0.04678387 -0.016820729 0.006818661
0.024516001 0.019164301 -0.009865676 -0.0070773927 -0.0039203507 0.012128878 0.055715945 0.010806488
0.003898323 0.0043401285 0.008703946 0.044800222 0.04654673 0.01737988 0.0063816933 0.02986079
0.051832087 0.016191747 -0.00097495853 0.030705994 0.008902207 -0.009387205 0.022740712 0.00524294
0.0107280025 0.01910797 -0.0024289396 0.0036960575 0.0053531793 0.011408138 0.034937844 0.006934197
0.011205399 -0.030853232 0.030470435 -0.01626453 0.002482964 -0.00013542344 0.032506146 -0.022566047
-0.0027959053 0.026289752 0.00781172 0.019751726 -0.0215929 0.028171621 0.020469898 0.013228443
0.002715337 0.031470858 -0.0031553165 0.008533881 0.0202175 -0.023531426 -0.013556964 0.007708031
-0.0076512867 0.008477577 0.02315757 0.020020349 -0.025196908 -0.023487229 0.0066865287 0.021279074
0.045630675 -0.003603048 0.0009734954 -0.02724905 -0.009235564 -0.013890492 0.0033459533 -0.002506004
-0.024261283 0.025928978 -0.0047793314 0.0196268 0.006717232 0.012482127 -0.010978493 0.013502304

action_model._continuous_distribution.log_sigma f4 [1, 18]
00000000: b855 273e b2be 933d dddb 9f3d 8a94 ed3d
00000010: 72fb f13d e5c2 f93b d23d b8bd 1866 9c3c
00000020: 2a3d 253e 6e22 ec3d 46c8 8e3d 6466 323e
00000030: 7e42 843c 75f4 823d 46e3 1a3e ce03 913d
00000040: 9828 ba3d 2785 253e
0.16341293 0.072141066 0.078056075 0.11600597 0.118155375 0.00762211 -0.08996166 0.01909165
0.16136613 0.115300044 0.06971793 0.17421871 0.016144987 0.06394283 0.1512576 0.07080804
0.09089774 0.16164075

action_model._continuous_distribution.mu.weight f4 [18, 128]
00000000: e88c 38bd 0ca7 55bc 25f8 663d 9d2f a8bc
00000010: f4ed 193d 969c a5bd d468 fc3c c6d2 5c3c
00000020: f341 f53c 225b 5c3d 1d2c ccbc 6ee2 943d
00000030: da02 5bbd 5562 c8bb 1fb8 66bc f8d2 673c
00000040: cc84 e6bc 3bf6 523d 815a 14bc 0a8a ce3c
00000050: 129e 103c 3429 0e3d a03f d63b 96ae 723b
00000060: 0bf6 883d 4d7a 86bc 03d1 7c3d 68c7 40bb
00000070: e6a5 523b b7c9 2ebd e320 283b be9b a9ba
00000080: 9ff9 2d3d af15 5c3d 9738 7ebb 0d20 e33c
00000090: 37e8 133d 49fc e43c a7c4 313c 304b ffbc
000000a0: 5e61 6abb c3ab 0b3d 4e7e e53c a2c5 8d3c
000000b0: 034b 5c3c 738c 813c cd11 7ebd c377 18bd
000000c0: 665f 013c 7ff4 c53c 9db1 d9bc 4c3e 853b
000000d0: 53f1 36bd 3abc 423d fe10 c33c 76c2 e13c
000000e0: e906 29bc 2499 bfbc 5e89 8b3d 4159 55bb
000000f0: 0536 293d f349 f63c 6ce8 4f3d 414b 30bc
00000100: b299 a7bc 22a8 a33c 2966 45bc 21ca a8bc
00000110: c17c 36bd de98 48bd 78d3 3c3c ab72 833c
00000120: 49b0 0dbd 4f4c ffbc 58dd e63c b594 c4bc
00000130: 8f0e 1fbd 0004 0c3d 2017 dcbc 16c4 603b
00000140: ea0a f6ba b527 4cbc f33c 1b3b b1a3 ad3c
00000150: 40b0 303c a0c8 263c 09a2 203c 27ef 9f3b
00000160: d5a0 ecbb 91d0 9cbc 87ad 03bc 3ecd 91bb
00000170: 97f3 c43b ebb6 61bd 4b4b 5cbd 7b47 0fbd
00000180: 1625 ac3c e0b4 d03c b64b 6cbc 531a 21bc
00000190: 521e 953d d533 9dbc f046 823d 1204 443d
000001a0: e53d 0c3d e368 2b3c 9af9 4c3d fda4 d4bb
000001b0: e7b6 c9bc 6ebd 32bc c25b 7b3d 0d2a 29bd
000001c0: 5878 42bd d787 b8bb ec3a f6bc 8cf7 9abc
000001d0: f683 2ebd 3f95 a63c 4219 d13c c2a8 f63c
000001e0: 3d78 e8ba 139f ddbc 4c64 463d 4259 4abc
000001f0: 30bd d8bb 6f97 6b3c 9c5a 70bc 10e4 d4bc
00000200: 3997 1fbc 3dea 33bc f92e b53b 1b33 bf3c
00000210: 02e0 3bbb b3ad 81bc d3d8 6dbc 84e0 e4bc
00000220: aa92 25bd 1505 63bd 9478 f2bc c534 19bd
00000230: d893 423c e132 763d af07 1a3d 6dea d3bc
00000240: 8bff 6339 7240 b8bc 95ed a03b 2300 ea3c
00000250: 042e 80bc 0df0 143d f607 bf3b 60d2 1c3d
00000260: 0340 183b 007b 83bb 3832 663c ac23 a13d
00000270: 6df9 be3b 564d 34bc 7f9e 47bb 75ba 7f3c
00000280: 2c58 8abd 7414 9e3b d410 eebb 557e 743c
00000290: 0993 c8ba 3c9d 3f3d d729 4dbc 9b63 ebbc
000002a0: e925 79bd 67e1 793b a670 253c 9c8b bbbc
000002b0: 86a5 4d3d 30c9 8c3b 788c ffbc 5ce5 90bc
000002c0: 0889 42bd dbab 29bd d291 35bc 5c31 43ba
000002d0: 66fc 21bd 7b3d e13c efce 0a3d 801a 483c
000002e0: ea50 dfbc b65d ae3b 935b 0b3b 471d 44bc
000002f0: c81b b43d 428d 50bd 158a c039 340a 0a3c
00000300: e469 38bc 49b6 18bc a7be eb3b cf38 1abd
00000310: 3747 28bd 50b2 b03a 3017 283d b069 40bd
00000320: c97d 1bbd 1e98 37bd ef62 42bd 8604 10bd
00000330: 0ded 243d 0dea bcbc f29c 38bc ab0b 7abc
00000340: 6105 d03c 80ab 96bc e53a 803c 6177 cc3c
00000350: a29a a63b 82aa 183d bc45 403d 93eb b6bc
00000360: ccf4 61b9 42ca 4b3c f688 26bd 4f76 e8bc
00000370: bab6 15bc f972 383d 02d2 f13b 650c 513d
00000380: 7f11 7abd 7e0a 853b fcdb 413c 4799 fabb
00000390: 2fda aa3c 885f d63b 5f06 2339 c81e 463d
000003a0: 186c 12bd 06b2 28bd ee9a a1bc a18b 37bc
000003b0: 8a31 95bc 00f4 843c d94d 05bd a1e2 983c
000003c0: 33dc 5c3c 0cda f33c a114 67bb 07db b9bb
000003d0: 9326 0dbd 9294 84bc e0e8 193c 3624 5bbd
000003e0: df50 91bc 0275 e03c 0bc5 e4bc cbbf 58bd
000003f0: 5432 30bb 820b 8ebc 62b2 bdbb 8019 393d
-0.045056254 -0.013040315 0.056388993 -0.020530516 0.037580445 -0.08086507 0.030811705 0.013477987
0.029938674 0.05379785 -0.024923379 0.072697505 -0.053469516 -0.0061152377 -0.014081984 0.01414942
-0.028139494 0.051504355 -0.009054781 0.025212307 0.008826749 0.034707263 0.0065383464 0.003703033
0.06687554 -0.01641574 0.061722767 -0.002941573 0.003214234 -0.04267284 0.0025654368 -0.0012940092
0.042474385 0.053731617 -0.0038791054 0.027725244 0.03611013 0.02795233 0.010850108 -0.031163782
-0.0035763602 0.03409935 0.028014328 0.017306153 0.013445619 0.015814042 -0.062028695 -0.03722359
0.00789628 0.024164436 -0.02657395 0.0040662643 -0.04466374 0.047542788 0.023811813 0.027558547
-0.010316589 -0.023388453 0.0681331 -0.003255442 0.041311283 0.030064559 0.050758764 -0.010760129
-0.02045903 0.019977633 -0.012048283 -0.020604195 -0.04455257 -0.04897391 0.011525027 0.016045889
-0.034591947 -0.031164316 0.028181717 -0.02399669 -0.038832244 0.034183502 -0.026866496 0.0034296564
-0.0018771563 -0.012460639 0.0023687452 0.021196218 0.010784209 0.010179669 0.009804257 0.004880804
-0.007221321 -0.019142421 -0.008036978 -0.0044495156 0.0060104835 -0.055106085 -0.053782742 -0.03498028
0.021013778 0.025476873 -0.014422348 -0.009832936 0.07281174 -0.019189755 0.063611865 0.047855444
0.034238715 0.010462019 0.050042726 -0.0064893947 -0.024623347 -0.010909421 0.061366804 -0.04129987
-0.04747805 -0.0056314277 -0.030057393 -0.018916868 -0.042606317 0.020334838 0.02552474 0.030109767
-0.0017736029 -0.027053392 0.048435494 -0.012350382 -0.00661435 0.014379366 -0.01467004 -0.025987655
-0.009740644 -0.01098114 0.005529281 0.023339799 -0.0028667455 -0.015829897 -0.014517027 -0.027939089
-0.040423073 -0.05542477 -0.029598512 -0.03740384 0.011876069 0.060107116 0.037604984 -0.025868619
0.00021743604 -0.022491667 0.0049111345 0.028564518 -0.015646942 0.036361743 0.0058298064 0.038286567
0.0023231513 -0.0040124655 0.014050059 0.07868132 0.0058280737 -0.011004766 -0.0030459461 0.01560842
-0.06755099 0.0048242155 -0.0072651897 0.014922698 -0.0015302609 0.04678081 -0.012522182 -0.028734019
-0.06082717 0.0038128735 0.010097658 -0.02289372 0.050206684 0.0042964444 -0.03119491 -0.017687492
-0.047493964 -0.04142366 -0.01108213 -0.0007446015 -0.039547347 0.027495136 0.033888754 0.012213349
-0.027260263 0.00532123 0.00212643 -0.011969871 0.08794361 -0.050915964 0.00036723973 0.008425284
-0.011255715 -0.009320804 0.0071943584 -0.037651833 -0.04108354 0.0013480876 0.04103774 -0.04697579
-0.037961755 -0.044822805 -0.04745763 -0.035160564 0.04026513 -0.023060823 -0.011267887 -0.015261571
0.02539319 -0.018392324 0.015653083 0.024959268 0.0050843516 0.037271984 0.046941504 -0.022329127
-0.00021548866 0.012438359 -0.04065796 -0.028376726 -0.009137804 0.04503152 0.007379771 0.05103721
-0.06105184 0.0040600887 0.0118322335 -0.0076476666 0.020855991 0.00654215 0.00015547265 0.0483692
-0.035747617 -0.0411854 -0.019727197 -0.011202724 -0.018212099 0.01622963 -0.032544944 0.018662753
0.013480234 0.029767059 -0.0035260099 -0.005671862 -0.034460615 -0.016184125 0.009393901 -0.05350133
-0.017738758 0.027399544 -0.027925989 -0.052917283 -0.0026885467 -0.017339472 -0.005789087 0.045190334

action_model._continuous_distribution.mu.bias f4 [18]
00000000: 1290 4eba 1f88 d33b b7b1 03bd f523 29bc
00000010: d02b 63bc 485d 0d3c 4af9 ca3b 1fc3 b23b
00000020: 4302 703d 9b85 103b e43d f6ba fb7a e33b
00000030: 6139 0ebc 9eb2 973b b1c8 5bbb 635c c33c
00000040: 5c2e 4d3b d75c b63a
-0.00078797445 0.006455436 -0.032151904 -0.010323514 -0.013865426 0.008628197 0.0061942684 0.005455389
0.058595907 0.0022052291 -0.0018786755 0.0069421506 -0.008680672 0.004629447 -0.003353637 0.023847764
0.003130815 0.0013913166

action_model._discrete_distribution.branches.0.weight f4 [2, 128]
00000000: fb11 b93d a031 62bd 9a1a d7bc 405d 0b3d
00000010: 9288 cb3c 66ba 073e b2fc c7bc a1f0 77bd
00000020: 7fc0 bd3d 288a 4bbc 7b14 9fbd b97b 4d3d
00000030: 96f0 7f3b 91e6 f13c c2ba 57bc 37a3 2ebd
00000040: eabb 2ebd 85c9 f0bc b734 0dbd 4d25 863c
00000050: 3465 b9bc f51f 02bd 10a0 17bd 43f3 75bd
00000060: 6554 1f3d 2f97 6a3d 4ddd 8dbc 7e10 2c3d
00000070: 2687 303a 3483 1abd e750 453d 8cd9 8cbc
00000080: 624f 33bb 7c7c 31bc c78c 75bd bfb1 973d
00000090: afcc 4cbd 8ae5 febc 06f2 8f3d 8a9f 77bc
000000a0: b88c e8bc df3c 5ebd 6b09 623d a2cd b1bc
000000b0: b632 5e3d 5c0e 053e 9d0d a0bd 7617 1f3d
000000c0: 4fc8 f03c 8246 66bd b7d5 dd3c 100a dc3c
000000d0: 2cf0 86bd 8c06 323d 0204 9dbc aa07 113c
000000e0: 9ce2 08bd 26ef b73c aa22 9ebc 88e2 743d
000000f0: ec96 d83d 1372 ddbb 2677 273d 0169 8a3d
00000100: 3a20 943d 1cda e23c ca30 a6bc d032 9d3d
00000110: f205 9a3d ed35 49bd ca06 da3b 9ec9 483c
00000120: c39c b13c 8684 3aba 47b6 f2bb 2d2c 963d
00000130: ff49 01bd a56d 0f3d c879 c93c 15d7 84bd
00000140: 731b fa3c 30b8 1fbd db73 04bb feeb 5abc
00000150: 3cb6 013e f980 36bd 986e 1d3c 2acb 75bc
00000160: 3b74 81bd 2c16 2dbd 227b 9c3c e214 8a3d
00000170: eb62 6c3c 4a54 043e 7e5a cabc 846a ce3c
00000180: c3cb 143d a08f 733d 5a4b be3a cdf7 db3d
00000190: 8ed5 8b3d b2a2 f2bc 7949 693d 7c8f 11bd
000001a0: a85e 163d f57c 003c 4117 d73c 8292 4f3c
000001b0: 7940 ecbc 2614 93bd 71c6 943d ec4b 673d
000001c0: 8d39 33bd 6782 74bc 013c dc3c ece4 fcbc
000001d0: 5a89 713c e7c3 13bc 8816 69bd b7b9 8cbc
000001e0: 9527 88bd f505 883b 2608 fe3c 1d30 503d
000001f0: 2bff aa3c 04c5 44bc f07d eabc 19c8 42bb
00000200: 5e86 b0bd 4f59 893d a6af 883c cb44 e8bc
00000210: bca4 32bd 8e68 19be ae37 bd3c 6554 903d
00000220: e107 cfbd 1aa7 033d 22e5 983d 3c33 4dbd
00000230: 5076 8c3c 12f7 cebc 2800 1b3c 63d5 4d3d
00000240: fac7 5d3d 2358 323d 3559 fe3c f84e dbbc
00000250: 99e0 2b3d 66ea 0c3d 541b 8c3c 6be0 773d
00000260: 9705 09bd 5b6e 7abd 8b64 173d 0b6e 1cbd
00000270: 0672 883b 19c7 f43c e203 0dbd 09e7 7a3c
00000280: f6e8 163c d7d0 a43b 3589 8d3d 1c04 8dbd
00000290: 3185 6d3d 7475 d83c 3b03 49bd 3dc7 8f3a
000002a0: 31c1 943c 183d 293d c95e 09bd 5092 de3b
000002b0: e917 6cbd 27b9 fcbd a8e8 663d 37d9 c7bc
000002c0: 6234 2fbd 7c66 553d 065c bebc 89bc b6bc
000002d0: afdc 8c3d 0930 35bd 2c6a 383d f93b 0fbd
000002e0: d0a3 0e3d caba 53bb 2941 af3c 9d94 95bd
000002f0: 6f53 f2bd 38a6 7b3c 3476 2bbd e73b 9abd
00000300: 313d 65bd 113d 0dbd 23cd 2d3c 89c4 a1bd
00000310: e1fd 9bbd 1d5a 4f3d 5bbd d9bb 9fd9 21bc
00000320: b337 02bd 301f 86bb f93c 8dbc 5fa1 c4bd
00000330: 98b9 243d 8330 11bd cf42 09bd 3f29 833d
00000340: 968b 69bd 4241 843c 5ac2 0d3c aca2 2a3c
00000350: 85a1 f3bd 4649 1e3d 830e cbbb 785b 983c
00000360: a14e 393d a004 3d3d 9cd5 0dbc 539b 32bd
00000370: f0de 6dbc 28c6 01be 8618 bb3c 2a1e 04bd
00000380: 92b6 f1bc 8ef4 b0bd d015 dd3c 787f b5bd
00000390: 7038 71bd 145b 3e3d 066b 33bd c87f 0f3d
000003a0: 51ee 25bd b3a3 09bd e26d d0bc 88d3 8fbc
000003b0: de3e 433c 1b49 843d 24b7 50bd 924c 63bd
000003c0: 1e11 143d 3a4c 513c b306 16bd bb3f 0f3d
000003d0: c2c7 d0bc 3263 b03c fe0e 783d a66d 893c
000003e0: 2349 8a3d f477 26bc 216c 34bd 36a9 27bd
000003f0: 8313 98bc 4379 db3b bd4f a83c cee3 19bc
0.090366326 -0.055223107 -0.026257802 0.034024477 0.024845395 0.13254699 -0.024412487 -0.060532216
0.09265231 -0.012423076 -0.07767578 0.05016682 0.0039053313 0.029528888 -0.013167085 -0.042636123
-0.042659678 -0.029392967 -0.0344741 0.016375208 -0.022631265 -0.031768758 -0.037017882 -0.060046446
0.038898844 0.057273086 -0.017317438 0.042007916 0.0006734006 -0.03772278 0.048172858 -0.017193578
-0.0027360548 -0.010832902 -0.05994871 0.07406949 -0.04999989 -0.031115312 0.07028584 -0.015113721
-0.028387412 -0.05425727 0.055184763 -0.021704499 0.05424758 0.12993759 -0.078150965 0.038840733
0.02939239 -0.056219585 0.027079446 0.026860267 -0.06588778 0.043463275 -0.01916695 0.008851925
-0.033419237 0.022452902 -0.019303638 0.05978635 0.10575661 -0.0067579835 0.040885113 0.06758309
0.07232709 0.027691893 -0.020286936 0.07675707 0.07520665 -0.049123693 0.0066536414 0.0122551005
0.021681195 -0.00071150844 -0.007406983 0.073326446 -0.03156471 0.035016675 0.024594203 -0.06486336
0.030530667 -0.038994014 -0.0020210657 -0.013361929 0.12667173 -0.04455659 0.009608887 -0.015002051
-0.06320997 -0.042257473 0.019101683 0.06742264 0.014427881 0.12922779 -0.024701353 0.025197275
0.036327135 0.059463143 0.0014518306 0.107406236 0.06827842 -0.029618595 0.056954835 -0.035537228
0.036711365 0.007842292 0.026256206 0.0126692075 -0.028839337 -0.071815774 0.07264412 0.05646889
-0.043756057 -0.0149236685 0.02688408 -0.030870877 0.01474222 -0.009018875 -0.056906253 -0.0171784
-0.06648175 0.0041511008 0.031009745 0.050827134 0.020873627 -0.012009863 -0.028624505 -0.0029721318
-0.086193785 0.067064874 0.016685318 -0.028353116 -0.043614134 -0.1498129 0.02309784 0.07047347
-0.10108925 0.032141782 0.074655786 -0.05009769 0.01714626 -0.025264297 0.0094604865 0.05025233
0.05414579 0.043541085 0.031048397 -0.026771054 0.04196224 0.034403227 0.017102875 0.060516756
-0.033452597 -0.0611404 0.03696112 -0.038190883 0.0041639833 0.029880093 -0.03442753 0.015313872
0.009210816 0.0050297785 0.06910936 -0.068855494 0.05798835 0.026423194 -0.049075346 0.0010969412
0.018158527 0.04131803 -0.03353766 0.006792344 -0.05763999 -0.123400025 0.056374222 -0.024395568
-0.042774566 0.05209969 -0.02323724 -0.022306697 0.068780296 -0.044235263 0.04502313 -0.034969304
0.034824193 -0.003230738 0.021393375 -0.07303736 -0.1183232 0.015359454 -0.041860774 -0.07530957
-0.05596656 -0.034482066 0.01060799 -0.07898814 -0.07616783 0.050623048 -0.0066448874 -0.009878545
-0.0317914 -0.0040930733 -0.017240988 -0.096010916 0.04021606 -0.035446655 -0.03351098 0.064043514
-0.057017885 0.016144399 0.008652294 0.010414761 -0.11896042 0.038644098 -0.0061967983 0.018598303
0.045241002 0.04614699 -0.0086568855 -0.04360516 -0.0145184845 -0.12673247 0.022838842 -0.03225533
-0.029506002 -0.08640395 0.02698794 -0.08862203 -0.058891714 0.046473578 -0.043803237 0.03503397
-0.04051048 -0.03360338 -0.025443021 -0.01755692 0.011916844 0.06459256 -0.050955907 -0.055492945
0.036149137 0.0127745215 -0.036627483 0.034972887 -0.025485877 0.021531675 0.060561173 0.016775917
0.06752231 -0.010160435 -0.044048432 -0.040932857 -0.018563991 0.006697805 0.020545835 -0.009392692

action_model._discrete_distribution.branches.0.bias f4 [2]
00000000: a698 623d a998 62bd
0.05532136 -0.05532137

onnx::Div_105 f4 [14]
00000000: a827 5f3e 0d14 1b3e 1384 583e 7d9b 193e
00000010: 8c2d 573e 315d 183e 0b99 473e 5cbc 143e
00000020: c6a5 473e 5826 133e ff03 383e 5467 0f3e
00000030: 23d8 363e 25e1 0c3e
0.21792471 0.15144368 0.21144132 0.1500072 0.21013469 0.148793 0.19491975 0.14524978
0.19496831 0.14370096 0.17970274 0.1400426 0.17855887 0.13757761

onnx::Div_108 f4 [14]
00000000: 1b8b 863e 300a 403e 07c3 813e 0195 3d3e
00000010: 293b 813e 0ce0 3c3e e280 6e3e 8985 373e
00000020: bbcf 6e3e e385 363e eec7 5b3e 41ad 303e
00000030: d07d 5b3e 9719 2f3e
0.26278004 0.18753886 0.25344107 0.18513872 0.25240448 0.18444842 0.23291352 0.17922033
0.2332143 0.17824511 0.21462986 0.17253591 0.21434712 0.17099606
