Assets/DuelerBest.onnx (onnx, 402609 bytes, 19 tensors)

network_body.observation_encoder.processors.0.normalizer.running_mean f4 [14]
0.9614118 0.97494125 0.9637751 0.97594094 0.964206 0.97625047 0.9694517 0.97844064
0.96940863 0.97868115 0.9741856 0.98070335 0.9745451 0.98118615
00000000: 151f 763f c095 793f f7b9 763f 44d7 793f
00000010: 34d6 763f 8deb 793f fd2d 783f 167b 7a3f
00000020: 2a2b 783f d98a 7a3f 3a64 793f 600f 7b3f
00000030: ca7b 793f 042f 7b3f

network_body.observation_encoder.processors.1.normalizer.running_mean f4 [14]
0.94193643 0.9613174 0.94628006 0.9632 0.9467344 0.96348286 0.9551849 0.96726185
0.9550798 0.9674182 0.96236277 0.9708529 0.9624397 0.9711674
00000000: bf22 713f e618 763f 693f 723f 4694 763f
00000010: 305d 723f d0a6 763f ff86 743f 799e 773f
00000020: 1c80 743f b8a8 773f 685d 763f d189 783f
00000030: 7362 763f 6d9e 783f

network_body.observation_encoder.processors.2.normalizer.running_mean f4 [435]
10.885436 0.09526356 -1.2502403 10.884647 0.09407209 -1.8202955 10.8670225 0.07159363
1.1317699 10.866232 0.06975451 1.9154266 10.813951 0.06813307 1.2804048 10.813451
0.066964254 1.7545482 10.833701 0.09406818 1.3663865 10.833189 0.093348816 1.7015629
10.797812 0.05439657 -0.15097453 10.901562 0.056376945 0.30512518 0.030549979 0.4188358
0.05930363 0.37988904 0.000395475 0.0130266575 -0.0008992782 -0.08414261 -0.043388125 -0.014722947
1.9721855 0.6465372 0.58786094 0.7870447 0.772922 1.3629515 -2.0089455 0.772922
1.3629515 -1.0997137 0.44319138 1.216299 2.4810405 0.44319138 1.216299 0.6273102
0.36582306 0.9887249 2.245606 0.36582306 0.9887249 0.8630815 0.74911237 1.2896523
1.8288041 0.74911237 1.2896523 1.2796645 0.3632338 0.92751664 -0.19402437 0.3448927
1.2531401 0.3133356 0.028748348 0.43044943 0.06359898 0.3974408 0.00020481188 0.013092328
-0.0007678347 -0.08763099 -0.038209636 -0.021259334 1.9721558 0.67980564 0.6121215 10.913779
0.09551609 -1.2536391 10.912785 0.09432332 -1.8251761 10.895283 0.07178144 1.1348951
10.894282 0.06994622 1.9206114 10.842232 0.06831634 1.2838936 10.841414 0.06714546
1.7593191 10.862013 0.094318695 1.3700598 10.861197 0.09359881 1.7061449 10.826356
0.05454361 -0.1511588 10.930384 0.056524847 0.30567706 0.030580336 0.4195047 0.05942181
0.38048202 0.0003756354 0.013035223 -0.0008597793 -0.08437101 -0.043775734 -0.01453622 1.9773664
0.64745975 0.58855766 0.78850055 0.77503353 1.3667792 -2.0138307 0.77503353 1.3667792
-1.102355 0.44432056 1.219477 2.4876008 0.44432053 1.219477 0.6289834 0.36685377
0.99132544 2.251108 0.36685377 0.99132544 0.86529756 0.75119877 1.2931592 1.8335062
0.75119877 1.2931592 1.2831246 0.36423007 0.929691 -0.19425496 0.3458548 1.2558092
0.31396475 0.028762685 0.43120787 0.06373691 0.39814255 0.00018377602 0.013129162 -0.0007752813
-0.0876927 -0.03852322 -0.02123773 1.9773293 0.6809131 0.6128867 10.943678 0.095769435
-1.2570049 10.942747 0.09457783 -1.8300959 10.925126 0.071971826 1.1379871 10.924212
0.07013337 1.9257885 10.871976 0.06849403 1.287409 10.871601 0.06732564 1.764115
10.891853 0.094570264 1.3737642 10.891472 0.0938507 1.7107168 10.855101 0.05469057
-0.15131818 10.959142 0.056672353 0.30626503 0.030605601 0.42017105 0.05954048 0.38106635
0.00037099054 0.013054578 -0.0008224559 -0.08461072 -0.044142094 -0.014601938 1.982623 0.64843035
0.58925694 0.789928 0.7769741 1.3701336 -2.0196443 0.7769741 1.3701336 -1.105419
0.44549438 1.2226833 2.4940681 0.44549435 1.2226833 0.63060546 0.36774817 0.99402314
2.2572963 0.36774814 0.99402314 0.86756545 0.75305253 1.2964283 1.8383951 0.7530525
1.2964283 1.2863849 0.36522323 0.9318708 -0.19445303 0.3468195 1.2584834 0.3145751
0.028770722 0.431962 0.06388059 0.39883336 0.00016284194 0.013154043 -0.0007828124 -0.087727234
00000000: bf2a 2e41 8b19 c33d e007 a0bf 8427 2e41
00000010: dea8 c03d 71ff e8bf 53df 2d41 ae9f 923d
00000020: d6dd 903f 16dc 2d41 74db 8e3d b32c f53f
00000030: f105 2d41 5a89 8b3d 4ee4 a33f e503 2d41
00000040: 8e24 893d 0995 e03f d756 2d41 d1a6 c03d
00000050: c1e5 ae3f be54 2d41 aa2d bf3d d0cc d93f
00000060: d7c3 2c41 f0ce 5e3d 1199 1abe cc6c 2e41
00000070: 83eb 663d 5e39 9c3e f343 fa3c a571 d63e
00000080: 5de8 723d d180 c23e c257 cf39 c36d 553c
00000090: 8abd 6bba f652 acbd bfb7 31bd 8438 71bc
000000a0: 9370 fc3f 7683 253f 0e7e 163f c37b 493f
000000b0: 37de 453f 3275 ae3f 9092 00c0 37de 453f
000000c0: 3275 ae3f 6bc3 8cbf fbe9 e23e b0af 9b3f
000000d0: 5ec9 1e40 fbe9 e23e b0af 9b3f 6797 203f
000000e0: 294d bb3e 131d 7d3f 02b8 0f40 294d bb3e
000000f0: 131d 7d3f e9f2 5c3f d4c5 3f3f 5413 a53f
00000100: 4116 ea3f d4c5 3f3f 5413 a53f 0ccc a33f
00000110: c8f9 b93e bb71 6d3f 53ae 46be c795 b03e
00000120: e566 a03f 866d a03e a881 eb3c de63 dc3e
00000130: 2f40 823d 5c7d cb3e c5c2 5639 3481 563c
00000140: 8448 49ba e077 b3bd b581 1cbd 0e28 aebc
00000150: 9a6f fc3f be07 2e3f ffb3 1c3f d79e 2e41
00000160: f19d c33d 3f77 a0bf c49a 2e41 962c c13d
00000170: 5f9f e9bf 1453 2e41 2602 933d 3e44 913f
00000180: fb4e 2e41 f73f 8f3d 98d6 f53f c879 2d41
00000190: 70e9 8b3d a056 a43f 6f76 2d41 8f83 893d
000001a0: 5e31 e13f ceca 2d41 292a c13d 1f5e af3f
000001b0: 77c7 2d41 bcb0 bf3d f562 da3f c138 2d41
000001c0: 1f69 5f3d 5fc9 1abe dae2 2e41 9986 673d
000001d0: b481 9c3e 9d83 fa3c 52c9 d63e 4964 733d
000001e0: 8ace c23e eef0 c439 b091 553c d062 61ba
000001f0: b5ca acbd 2f4e 33bd 5329 6ebc 581a fd3f
00000200: ecbf 253f b7ab 163f 2cdb 493f 9968 463f
00000210: 9ff2 ae3f 9ae2 00c0 9968 463f 9ff2 ae3f
00000220: f819 8dbf fc7d e33e d317 9c3f da34 1f40
00000230: fb7d e33e d317 9c3f 0e05 213f 42d4 bb3e
00000240: 81c7 7d3f 2712 1040 42d4 bb3e 81c7 7d3f
00000250: 2484 5d3f 904e 403f 3e86 a53f 55b0 ea3f
00000260: 904e 403f 3e86 a53f 6d3d a43f 5d7c ba3e
00000270: 3b00 6e3f c6ea 46be e113 b13e 5bbe a03f
00000280: fdbf a03e b99f eb3c 47c7 dc3e 7f88 823d
00000290: 57d9 cb3e 00b4 4039 b21b 573c 3f3c 4bba
000002a0: 3b98 b3bd 86ca 1dbd bffa adbc 2019 fd3f
000002b0: 5250 2e3f 25e6 1c3f 4e19 2f41 c422 c43d
000002c0: 89e5 a0bf 7e15 2f41 05b2 c13d 9540 eabf
000002d0: 51cd 2e41 f765 933d 90a9 913f 93c9 2e41
000002e0: 16a2 8f3d 3d80 f63f 9df3 2d41 9946 8c3d
000002f0: d1c9 a43f 14f2 2d41 06e2 893d 85ce e13f
00000300: 0845 2e41 0eae c13d 81d7 af3f 7843 2e41
00000310: cc34 c03d c5f8 da3f 7eae 2d41 3803 603d
00000320: 27f3 1abe a558 2f41 4521 683d c5ce 9c3e
00000330: 99b8 fa3c a920 d73e b8e0 733d 211b c33e
00000340: 8281 c239 dee2 553c 159a 57ba 6348 adbd
00000350: 57ce 34bd f83c 6fbc 97c6 fd3f 88ff 253f
00000360: 8bd9 163f b938 4a3f c6e7 463f 8a60 af3f
00000370: da41 01c0 c6e7 463f 8a60 af3f 5f7e 8dbf
00000380: d717 e43e e380 9c3f d09e 1f40 d617 e43e
00000390: e380 9c3f 5c6f 213f 7d49 bc3e 4d78 7e3f
000003a0: 8b77 1040 7c49 bc3e 4d78 7e3f c518 5e3f
000003b0: 0dc8 403f 5df1 a53f 8850 eb3f 0cc8 403f
000003c0: 5df1 a53f 43a8 a43f 8afe ba3e 168f 6e3f
000003d0: b21e 47be 5392 b13e fc15 a13f fd0f a13e
000003e0: 94b0 eb3c 202a dd3e d4d3 823d e333 cc3e
000003f0: 8dc0 2a39 0e84 573c a735 4dba 56aa b3bd

network_body.observation_encoder.processors.3.normalizer.running_mean f4 [14]
0.9368092 0.9578254 0.9419801 0.9600349 0.9424581 0.96022296 0.9521467 0.96465623
0.95174253 0.96445125 0.95985097 0.9685043 0.95940715 0.96833265
00000000: bad2 6f3f 0c34 753f 9c25 713f d9c4 753f
00000010: ef44 713f 2cd1 753f e3bf 733f b6f3 763f
00000020: 66a5 733f 47e6 763f cbb8 753f e6ef 773f
00000030: b59b 753f a6e4 773f

network_body._body_endoder.seq_layers.0.weight f4 [128, 477]
0.04878823 0.04648947 -0.03222061 -0.039583266 -0.0063038017 -0.025430953 0.026524093 -0.092221744
-0.07034967 -0.034346715 -0.042558208 -0.073888145 -0.07121099 -0.032132648 0.05343187 -0.0014625731
0.077200696 -0.048697285 -0.03853848 -0.036478084 -0.007502548 -0.143789 0.026634736 0.11275885
-0.060044862 -0.038326588 0.007459927 0.009923847 -0.031410653 -0.022048995 0.050539576 0.04936182
-0.050012447 0.027405461 -0.046145853 1.1979533e-05 0.00498472 -0.031906158 -0.007394464 -0.0430618
-0.013342886 -0.0050979243 -0.0738441 0.0076223444 -0.0081075905 -0.062155418 -0.044829 0.012319323
-0.083199956 0.04126679 -0.004722738 -0.023078991 0.13083942 -0.015576691 0.040403724 0.03597771
-0.07443198 -0.059063494 0.026112856 -0.030069092 -4.7152986e-05 -0.031717423 0.061084412 -0.023366746
0.043251812 -0.072445236 0.026706096 -0.04921006 -0.044638835 0.024454253 -0.07042494 0.05479754
0.019763855 -0.05928759 0.0072283614 -0.06940406 0.005496504 0.09818047 -0.01355784 0.0055176294
-0.03986793 -0.0072992477 0.0469824 -0.017203575 -0.061477337 0.023938369 -0.08062434 -0.012228887
0.025771728 0.025694996 -0.08704401 -0.062484335 -0.032255806 -0.058039892 -0.05938199 0.0017552217
0.06830391 -0.05697321 -0.06468393 0.03132591 0.01840148 0.00414251 0.022183534 0.081007004
0.02664693 -0.16500457 0.027845373 0.021543724 0.023999296 0.07349526 0.036075607 -0.013005906
0.017478757 0.053548045 -0.029206596 0.042746622 -0.005331594 0.03535409 0.046431813 -0.086240456
-0.0068865493 0.006529578 0.0020020753 0.032989148 0.0061229924 -0.06152443 -0.00227775 0.035801325
-0.0016815519 0.011800288 0.020494824 -0.028320117 -0.011178961 -0.056559656 0.0072236964 0.024267128
-0.029038718 -0.013537643 -0.022573216 -0.04531208 -0.07443928 0.025971852 0.12811507 -0.050620526
0.051736694 -0.0108418055 0.008756689 0.041089676 -0.017352652 -0.013558604 0.087333485 0.044618566
-0.036600012 0.027169835 0.018066145 0.07383964 -0.040316656 -0.02924804 0.046867132 0.076926164
-0.03245154 -0.036124136 -0.011773813 0.028434027 0.0008471116 0.032181293 -0.033498842 0.047745027
-0.056171335 0.020609464 0.051616892 -0.0469827 0.021156695 0.015322892 0.12241611 -0.041319106
0.057312332 0.014340419 0.079168454 -0.003068088 0.05232284 0.02328335 -0.03831263 0.03831703
0.034934904 -0.04051404 0.00077007775 0.09811362 0.05960305 0.087721474 -0.025547642 0.042283192
-0.11693112 0.036778897 0.06293423 -0.014027803 -0.056933213 0.10579521 -0.0080629755 0.011118118
0.023264436 0.002926274 0.03634094 0.013143142 -0.036648203 0.07940889 -0.03848502 0.010048185
0.054509968 -0.0593332 0.0050388104 -0.067152195 0.06238875 -0.04685513 -0.04759619 -0.022085793
0.05215311 -0.0382297 -0.03643296 0.019129798 -0.018521119 -0.096118875 -0.042365212 -0.014383332
-0.07653178 0.023910731 0.0221701 -0.08913586 -0.09075038 -0.017148852 -0.02756124 0.066994585
-0.06763085 0.051803626 0.096098736 -0.03504787 0.039056055 0.08270977 0.08830586 -0.011950492
0.093166254 -0.062047124 0.08234245 0.004457619 0.0340528 0.048776455 0.03725999 0.032371845
-0.0346526 0.002642306 0.026167775 0.017453294 0.030248988 0.05444883 0.040137645 0.012286598
00000000: 2bd6 473d be6b 3e3d c2f9 03bd 1022 22bd
00000010: 1f90 cebb 9354 d0bc 0e49 d93c c1de bcbd
00000020: 7d13 90bd 24af 0cbd 8451 2ebd ab52 97bd
00000030: 11d7 91bd 869d 03bd 60db 5a3d cfb3 bfba
00000040: 661b 9e3d ce76 47bd 86da 1dbd 0b6a 15bd
00000050: efd7 f5bb 6c3d 13be 1731 da3c 1dee e63d
00000060: 9af1 75bd 57fc 1cbd 6772 f43b a297 223c
00000070: 75a8 00bd 18a0 b4bc 9602 4f3d 9f2f 4a3d
00000080: dad9 4cbd 6b81 e03c 6f03 3dbd b4fb 4837
00000090: dd56 a33b 08b0 02bd 434d f2bb 9261 30bd
000000a0: 1f9c 5abc 7d0c a7bb 933b 97bd dcc4 f93b
000000b0: b3d5 04bc ae96 7ebd 9d9e 37bd fcd6 493c
000000c0: bd64 aabd 5e07 293d 33c1 9abb 2710 bdbc
000000d0: c5fa 053e 6135 7fbc 607e 253d 5d5d 133d
000000e0: cb6f 98bd 90ec 71bd a1ea d53c 7553 f6bc
000000f0: 22c6 45b8 21ea 01bd a633 7a3d 9e6b bfbc
00000100: d028 313d 2b5e 94bd bec6 da3c 7d90 49bd
00000110: 36d7 36bd 4954 c83c f33a 90bd 6373 603d
00000120: cfe7 a13c 8bd7 72bd e4db ec3b b723 8ebd
00000130: 041c b43b d812 c93d b421 5ebc 3bcd b43b
00000140: 8e4c 23bd 872e efbb 9e70 403d 83ee 8cbc
00000150: a9cf 7bbd 661a c43c 601e a5bd ab5b 48bc
00000160: 3b1f d33c 507e d23c 2144 b2bd 93ef 7fbd
00000170: aa1e 04bd 3dbb 6dbd 883a 73bd 780f e63a
00000180: ece2 8b3d be5c 69bd 0279 84bd 994f 003d
00000190: b3be 963c e4bd 873b 3eba b53c 00e7 a53d
000001a0: aa4a da3c f5f6 28be fb1b e43c 777c b03c
000001b0: 2c9a c43c af84 963d 04c4 133d b916 55bc
000001c0: 9c2f 8f3c 3255 5b3d ac42 efbc 1517 2f3d
000001d0: a7b4 aebb 73cf 103d 492f 3e3d d69e b0bd
000001e0: 90a8 e1bb 12f6 d53b 4035 033b a11f 073d
000001f0: 62a3 c83b 0a01 7cbd 4e46 15bb 69a4 123d
00000200: 8567 dcba ff55 413c c3e4 a73c 97ff e7bc
00000210: f627 37bc 19ab 67bd c2b4 ec3b dbcb c63c
00000220: 9be2 edbc fdcc 5dbc 77eb b8bc 2999 39bd
00000230: 9f73 98bd ecc2 d43c 9930 033e 7857 4fbd
00000240: dbe9 533d d4a1 31bc 3778 0f3c a64d 283d
00000250: 2627 8ebc e824 5ebc e6db b23d f5c1 363d
00000260: e5e9 15bd 4693 de3c 74ff 933c 3d39 973d
00000270: 1423 25bd 9699 efbc c0f7 3f3d 778b 9d3d
00000280: e8eb 04bd e7f6 13bd f3e6 40bc 7aee e83c
00000290: b210 5e3a 88d0 033d 1536 09bd 4a90 433d
000002a0: ea13 66bd 2ed5 a83c 3c6c 533d ee70 40bd
000002b0: ce50 ad3c de0c 7b3c 4cb5 fa3d 393e 29bd
000002c0: 56c0 6a3d 14f4 6a3c 1223 a23d fa11 49bb
000002d0: 7950 563d b9bc be3c b4ed 1cbd 51f2 1c3d
000002e0: e717 0f3d 0df2 25bd 0bdf 493a cbef c83d
000002f0: 5422 743d 51a7 b33d 4a49 d1bc 2431 2d3d
00000300: 9579 efbd 78a5 163d a9e3 803d dfd4 65bc
00000310: cd32 69bd 29ab d83d 921a 04bc c428 363c
00000320: 0f95 be3c bbc6 3f3b 3dda 143d 5556 573c
00000330: 6d1c 16bd 21a1 a23d 78a2 1dbd 24a1 243c
00000340: d845 5f3d 5f07 73bd 9b1c a53b 1787 89bd
00000350: 598b 7f3d 2aeb 3fbd 39f4 42bd 44ed b4bc
00000360: 809e 553d bf96 1cbd ba3a 15bd 18b6 9c3c
00000370: 9ab9 97bc f9d9 c4bd 2587 2dbd 11a8 6bbc
00000380: b2bc 9cbd 70e0 c33c 129e b53c dd8c b6bd
00000390: 56db b9bd c07b 8cbc 1cc8 e1bc 7534 893d
000003a0: 0b82 8abd 0a30 543d 6acf c43d 5b8e 0fbd
000003b0: 3ef9 1f3d bd63 a93d b4d9 b43d ffcb 43bc
000003c0: f3cd be3d 2025 7ebd 29a3 a83d 3811 923b
000003d0: f37a 0b3d d2c9 473d ee9d 183d 5798 043d
000003e0: e2ef 0dbd 8a2a 2d3b cd5d d63c 36fa 8e3c
000003f0: bacc f73c bd05 5f3d 5f67 243d ba4d 493c

network_body._body_endoder.seq_layers.0.bias f4 [128]
0.0077826595 0.018183015 -0.0028982947 0.009179465 0.03316293 0.009502256 0.003820291 0.02076133
0.014683443 -0.02361829 0.014956277 -0.007248711 0.018485082 0.03395824 0.0025636228 0.012498033
0.026308745 -0.007863353 -0.005988828 0.01938788 0.024580715 0.005126271 0.071156606 0.012260539
0.00956301 0.0135363685 0.04968193 0.014217955 0.0187558 0.0005953604 0.041596342 0.034765206
0.0151566975 0.02078178 -0.013823599 -0.027519315 0.0087157255 -0.0039833016 0.026993064 -0.0007392472
0.009855866 0.013615808 0.051406555 0.007634874 0.020649567 0.015726738 -0.03315184 0.008469006
0.006405463 0.027351163 0.017323537 0.016449887 0.022008268 0.00030408372 -0.008399723 -0.011428722
-0.037711944 0.0039481884 0.05261967 -0.0018817502 -0.0066209887 0.0016808738 0.0270808 0.021445971
0.026475288 -0.012494192 -0.008451665 0.024353402 0.018703092 0.026267953 0.009179703 0.04791518
0.024988435 0.02920363 -0.014505806 0.0043008463 0.024897754 0.031734135 0.016225075 0.02889479
-0.02245314 -0.01018792 0.013417906 -0.008714039 0.016878903 -0.00053259416 0.016123049 0.011310071
0.006616583 0.016516155 0.001278097 0.005026868 0.019739766 -0.0019611963 0.014855931 -0.0052753873
0.042670723 0.025156658 0.016390422 -0.02011166 -0.012232357 0.029433984 0.032938957 0.015264895
0.027637942 -0.004534812 0.0044987653 0.0054761004 0.002967879 0.016795715 0.015132251 0.037846804
-0.00019275863 -0.01051544 -0.0018131357 0.039033808 0.008776851 0.023266762 0.006919926 0.042780466
0.007722357 -0.009528535 0.017541055 0.014410233 0.00044223297 0.004611183 -0.008455937 -0.00336458
00000000: ae05 ff3b 8cf4 943c 51f1 3dbb 7765 163c
00000010: dad5 073d 5aaf 1b3c d95d 7a3b aa13 aa3c
00000020: d392 703c 257b c1bc 2c0b 753c 9886 edbb
00000030: 076e 973c cc17 0b3d 7402 283b 8dc4 4c3c
00000040: 7085 d73c 4bd5 00bc ee3d c4bb 55d3 9e3c
00000050: 7f5d c93c 47fa a73b 8eba 913d 6ee0 483c
00000060: 2cae 1c3c a5c7 5d3c 487f 4b3d 6df2 683c
00000070: c3a5 993c f611 1c3a ed60 2a3d f665 0e3d
00000080: cc53 783c 8d3e aa3c 607c 62bc 3070 e1bc
00000090: 67cc 0e3c 5b86 82bb 8f20 dd3c 0aca 41ba
000000a0: 807a 213c d714 5f3c ae8f 523d f72d fa3b
000000b0: 4829 a93c 5cd5 803c 39ca 07bd 96c1 0a3c
000000c0: ebe4 d13b 8c0f e03c 17ea 8d3c eac1 863c
000000d0: af4a b43c 6d6d 9f39 fe9e 09bc 893f 3bbc
000000e0: d777 1abd ce5f 813b b987 573d 0fa5 f6ba
000000f0: e1f4 d8bb c450 dc3a 8ed8 dd3c 76af af3c
00000100: b4e2 d83c 71b4 4cbc da78 0abc c980 c73c
00000110: 3a37 993c e42f d73c 7766 163c b542 443d
00000120: 8cb4 cc3c 733c ef3c c3a9 6dbc 1dee 8c3b
00000130: 60f6 cb3c a7fb 013d 73ea 843c c4b4 ec3c
00000140: a6ef b7bc 3ceb 26bc c7d6 5b3c 54c5 0ebc
00000150: a045 8a3c ca9d 0bba 7c14 843c e04d 393c
00000160: eccf d83b e34c 873c d285 a73a 6db8 a43b
00000170: 4ab5 a13c 6a87 00bb 4a66 733c 28dd acbb
00000180: 7fc7 2e3d 5615 ce3c 3545 863c 35c1 a4bc
00000190: 396a 48bc 8a1f f13c 00eb 063d 9c19 7a3c
000001a0: f768 e23c c398 94bb 616a 933b dc70 b33b
000001b0: bf80 423b 2b97 893c 43ed 773c 4005 1b3d
000001c0: 401f 4ab9 f448 2cbc bda6 edba eae1 1f3d
000001d0: c8cc 0f3c f099 be3c 8cc0 e23b 923a 2f3d
000001e0: d30b fd3b 931d 1cbc 42b2 8f3c e618 6c3c
000001f0: 81db e739 6819 973b c58a 0abc 4980 5cbb

network_body._body_endoder.seq_layers.2.weight f4 [128, 128]
0.027243493 0.09027381 -0.11750113 0.01655802 -0.1016358 -0.10921118 0.0742413 0.060600847
-0.21709481 0.13342923 -0.0003431574 -0.14673705 0.110415146 -0.057023477 0.059006047 -0.042523157
0.023571592 0.27243632 0.03675421 -0.056139555 0.10013954 -0.050526716 0.029072393 0.04074308
0.0355658 -0.13948767 0.065123506 0.10894677 -0.012969955 0.071642175 -0.17193642 -0.15496491
-0.13296999 -0.0339137 -0.0033394126 -0.049104225 -0.04964702 0.013424345 0.09157609 -0.029512635
-0.046425533 -0.2140156 -0.20106007 0.139114 0.030748602 -0.012546304 -0.09919032 0.03987094
0.063052416 -0.09913127 0.10600581 -0.0705492 -0.07417435 -0.020088516 0.04618421 0.014711314
0.021415371 0.17543145 -0.06146682 -0.023846053 -0.06407776 -0.07281624 0.1357461 0.06500345
-0.022498805 0.026764378 0.010855586 -0.004035452 0.0873238 -0.06658881 -0.1229963 0.0690516
-0.0033490036 -0.18480961 -0.07391261 0.12619089 0.0019004626 0.07491452 -0.063288204 0.023091724
0.09532122 0.0075896117 -0.025157994 -0.17582974 -0.20964904 0.033517677 0.082017876 -0.017297452
-0.05733629 0.017074624 -0.014013714 -0.09767532 0.07774842 0.1538392 0.11684817 0.052179024
0.048025135 -0.00015995927 0.024904389 -0.07598601 0.123712584 -0.08619613 -0.13627341 -0.05363045
0.06462686 0.055357184 -0.033108436 -0.109048665 0.07500328 -0.07186686 0.08823506 -0.094887264
0.041299596 0.085537076 0.06870938 0.0010070031 -0.006240446 0.025088163 0.11499631 -0.106019616
-0.0044195578 -0.087624505 0.111258596 0.13392527 0.010079913 0.029259363 -0.07604328 0.011761627
-0.0043561948 -0.094694994 0.01017537 0.08827338 0.03894881 -0.02788511 -0.076504245 0.060087778
-0.097167216 0.040520415 -0.095540255 -0.11435668 -0.0005255521 0.10076371 -0.009303538 -0.062138595
-0.10920552 0.032836527 0.08152422 0.14451885 -0.0048419423 0.052815016 -0.101099744 0.19927208
0.054931533 0.07787954 -0.023622474 -0.042973194 -0.061956685 -0.19337553 -0.08018103 -0.07821492
-0.039126948 -0.08751624 -0.054334085 -0.0027731252 0.13512067 0.013149245 0.019761262 -0.040198892
0.10190328 0.036906492 0.15310588 0.122258835 -0.2310339 -0.16061738 -0.09811429 0.012968239
-0.03649585 -0.036680788 0.067959525 -0.08639417 0.056687497 -0.121185735 -0.06299135 0.0024026625
-0.017689724 0.17104216 -0.0033269706 0.05738134 -0.033049814 0.05885115 -0.005173159 -0.09827584
-0.03862766 0.05227117 -0.04895126 0.023293326 0.012990512 0.06089152 -0.005645694 0.07391188
-0.08035907 -0.09332243 0.043134492 -0.078111194 -0.083230086 -0.014885263 0.072986476 0.13626954
-0.018170986 0.051360205 0.028941035 0.042304892 -0.059451636 0.07345324 -0.014210396 0.04731669
-0.030776981 -0.10992619 0.00870287 0.06377985 -0.07308318 0.03301271 0.014229336 -0.06494199
0.037295774 0.03980016 0.1552479 0.15497379 -0.14035371 0.06544208 -0.08858696 0.08256773
-0.14034945 0.054107487 0.18441977 0.07003901 0.1172555 -0.040388286 0.18954909 0.089134224
-0.025607334 -0.0188046 -0.040161744 0.05867975 0.018393798 -0.0010999348 -0.23325326 0.14238855
0.018949058 -0.081166096 -0.10500912 0.086748265 -0.021623353 0.086345926 -0.083179645 0.054557547
00000000: bf2d df3c 7ae1 b83d 6fa4 f0bd afa4 873c
00000010: 6e26 d0bd 1caa dfbd d30b 983d 9838 783d
00000020: 1a4e 5ebe aca1 083e cee9 b3b9 3d42 16be
00000030: 5621 e23d 7391 69bd 53b0 713d c32c 2ebd
00000040: 3619 c13c c67c 8b3e 958b 163d 97f2 65bd
00000050: f615 cd3d 1af5 4ebd 3a29 ee3c 37e2 263d
00000060: 72ad 113d dbd5 0ebe 795f 853d 7c1f df3d
00000070: ef7f 54bc 22b9 923d 1a10 30be 1faf 1ebe
00000080: 4929 08be 18e9 0abd 0cda 5abb 8321 49bd
00000090: ac5a 4bbd c9f1 5b3c 3f8c bb3d 7bc4 f1bc
000000a0: b328 3ebd e826 5bbe b1e2 4dbe e773 0e3e
000000b0: 7ee4 fb3c 038f 4dbc 4b24 cbbd b64f 233d
000000c0: a021 813d 5605 cbbd 9319 d93d 197c 90bd
000000d0: b9e8 97bd ac90 a4bc a72b 3d3d b907 713c
000000e0: 4a6f af3c 4da4 333e a2c4 7bbd cc58 c3bc
000000f0: 333b 83bd ae20 95bd 0701 0b3e 8720 853d
00000100: 6a4f b8bc f840 db3c a1db 313c d33b 84bb
00000110: d2d6 b23d b75f 88bd 7ce5 fbbd ed6a 8d3d
00000120: f57a 5bbb bb3e 3dbe 7f5f 97bd 2f38 013e
00000130: f118 f93a c96c 993d 3f9d 81bd db2a bd3c
00000140: c637 c33d 47b2 f83b 2318 cebc b60c 34be
00000150: 3dae 56be d549 093d fdf8 a73d 63b3 8dbc
00000160: 75d9 6abd 15e0 8b3c c799 65bc 000a c8bd
00000170: 903a 9f3d 0688 1d3e 184e ef3d acb9 553d
00000180: 01b6 443d bdba 27b9 4a04 cc3c 8e9e 9bbd
00000190: 065d fd3d 9987 b0bd 428b 0bbe 9aab 5bbd
000001a0: 165b 843d 37be 623d b69c 07bd e854 dfbd
000001b0: 529b 993d ef2e 93bd 95b4 b43d 4154 c2bd
000001c0: c429 293d 102e af3d 81b7 8c3d 6bfd 833a
000001d0: a87c ccbb b185 cd3c 2f83 eb3d d020 d9bd
000001e0: f0d1 90bb 7a74 b3bd 8cdb e33d b523 093e
000001f0: 3826 253c 55b1 ef3c 94bc 9bbd d7b3 403c
00000200: 69be 8ebb 73ef c1bd 98b6 263c adc8 b43d
00000210: ca88 1f3d 506f e4bc 42ae 9cbd 9a1e 763d
00000220: 9bff c6bd bcf8 253d 9caa c3bd d633 eabd
00000230: 34c5 09ba 345d ce3d de6d 18bc 0a85 7ebd
00000240: 25a7 dfbd 987f 063d 2cf6 a63d c0fc 133e
00000250: 28a9 9ebb 8f54 583d 620d cfbd fb0d 4c3e
00000260: e3ff 603d 4f7f 9f3d eb83 c1bc a904 30bd
00000270: 4bc6 7dbd 3c04 46be f435 a4bd 252f a0bd
00000280: 9443 20bd b73b b3bd 6b8d 5ebd 52bd 35bb
00000290: 135d 0a3e ee6f 573c 5fe2 a13c 98a7 24bd
000002a0: abb2 d03d 432b 173d cac7 1c3e d762 fa3d
000002b0: 2794 6cbe e278 24be 25f0 c8bd bd78 543c
000002c0: ac7c 15bd 983e 16bd 5d2e 8b3d 6def b0bd
000002d0: 2631 683d 3a30 f8bd 9c01 81bd fd75 1d3b
000002e0: 0aea 90bc ad25 2f3e 4e09 5abb b208 6b3d
000002f0: 3e5f 07bd e70d 713d 9a83 a9bb d844 c9bd
00000300: 0a38 1ebd 4b1a 563d 1e81 48bd a5d1 be3c
00000310: 28d6 543c 6369 793d 84ff b8bb 1d5f 973d
00000320: 4c93 a4bd d51f bfbd cbad 303d c3f8 9fbd
00000330: 8974 aabd 51e1 73bc ef79 953d 3e8a 0b3e
00000340: 52db 94bc 145f 523d c015 ed3c e547 2d3d
00000350: 8f83 73bd a76e 963d b9d2 68bc 25cf 413d
00000360: 0220 fcbc fb20 e1bd 7c96 0e3c 039f 823d
00000370: a2ac 95bd 5638 073d 2922 693c 4e00 85bd
00000380: 74c3 183d 7e05 233d 4ef9 1e3e 73b1 1e3e
00000390: e2b8 0fbe 7f06 863d 156d b5bd 4519 a93d
000003a0: c4b7 0fbe d09f 5d3d 89d8 3c3e 9d70 8f3d
000003b0: a723 f03d 306e 25bd 2819 423e 018c b63d
000003c0: 79c6 d1bc 1b0c 9abc a480 24bd 2d5a 703d
000003d0: 97ae 963c b02b 90ba f1d9 6ebe 4ece 113e
000003e0: 0e3b 9b3c 693a a6bd 060f d7bd 13a9 b13d
000003f0: 7523 b1bc 22d6 b03d 175a aabd bc77 5f3d

network_body._body_endoder.seq_layers.2.bias f4 [128]
-0.020643977 0.022062773 -0.0039236885 -0.0018101829 0.037430793 0.02212585 0.00064508605 -0.007943867
-0.02163519 -0.004645964 -0.014592263 0.02258114 0.0069674114 0.033393156 0.01224077 0.0026628564
0.019560652 0.009092516 0.046469327 0.026411286 0.020927683 0.023829501 -0.008062345 0.0016161673
0.02438413 0.011853387 0.035269834 -0.0065733967 0.007724617 -0.0050034355 0.010200134 -0.0013835777
-0.03223816 0.027280753 0.00652537 -0.009201931 -0.009820589 0.008515046 -0.0035293582 0.008855108
-0.010951607 0.020049049 -0.019166326 0.05467097 0.008148091 0.046730492 -0.012516463 0.03806464
0.009737234 -0.01071599 0.005121984 -0.01955835 0.007407273 0.019363457 0.004070157 0.009751849
0.012378589 0.008407539 -0.01591343 -0.00031736205 -0.04452717 0.022998353 0.042597964 0.059218872
0.03954386 0.022600867 0.023750326 -0.020906335 0.014166717 0.015529368 0.013391887 0.04627554
0.03517289 0.004724637 0.010731568 0.043095287 -0.023048455 0.025322052 0.003294339 0.013880386
0.02342137 0.0067511396 0.006219306 0.0036427097 0.0149228275 0.032165393 0.0086424835 -0.027630288
0.01957421 0.055299588 0.029972697 0.0200857 -0.01982157 0.006418517 0.002135089 0.00016844574
0.018340793 -0.029285384 0.025893826 -0.024522034 -0.030533843 0.032444213 0.0066153198 0.011911195
0.03210863 -0.012710499 0.006987313 -0.020880612 0.027714007 0.04260293 0.030709872 0.026516668
0.025095737 0.01799928 0.0043075075 0.046093967 0.04774035 -0.014232599 -0.00010431225 -0.02714973
0.017996121 0.0030672662 -0.01219041 0.041226648 0.023915857 0.019613845 0.011560365 0.025625624
00000000: 8f1d a9bc fdbc b43c 4992 80bb a943 edba
00000010: 0851 193d 4541 b53c fe1a 293a fe26 02bc
00000020: 483c b1bc 2c3d 98bb 6314 6fbc 15fc b83c
00000030: e24e e43b 43c7 083d 838d 483c 5183 2e3b
00000040: a93d a03c c7f8 143c 9f56 3e3d 7b5c d83c
00000050: 8870 ab3c 1636 c33c ed17 04bc 93d5 d33a
00000060: 3ac1 c73c b534 423c 1a77 103d a665 d7bb
00000070: c91e fd3b dcf3 a3bb 761e 273c 2a59 b5ba
00000080: 290c 04bd e37b df3c c5d2 d53b b2c3 16bc
00000090: 89e6 20bc b182 0b3c ce4c 67bb 0415 113c
000000a0: 5e6e 33bc e73d a43c b302 9dbc abee 5f3d
000000b0: 927f 053c 7968 3f3d da11 4dbc abe9 1b3d
000000c0: eb88 1f3c 1f92 2fbc 51d6 a73b d538 a0bc
000000d0: b6b8 f23b 1da0 9e3c f45e 853b 38c6 1f3c
000000e0: 91cf 4a3c c6bf 093c e25c 82bc 9d63 a6b9
000000f0: 1f62 36bd 0b67 bc3c 347b 2e3d 7d8f 723d
00000100: bef8 213d 7425 b93c 0b90 c23c c343 abbc
00000110: 851b 683c e46e 7e3c a569 5b3c 6c8b 3d3d
00000120: 7311 103d 21d1 9a3b 75d3 2f3c af84 303d
00000130: 1dd0 bcbc 3170 cf3c d6e5 573b 8f6a 633c
00000140: 2cde bf3c aa38 dd3b 52cb cb3b 87ba 6e3b
00000150: e07e 743c dcbf 033d 3499 0d3c ea58 e2bc
00000160: 185a a03c d281 623d 4d89 f53c c48a a43c
00000170: d860 a2bc 6c52 d23b d9ec 0b3b cfa0 3039
00000180: 6e3f 963c e7e7 efbc 4a1f d43c 6fe2 c8bc
00000190: 1c22 fabc 39e4 043d 53c5 d83b 2c27 433c
000001a0: 5784 033d b23f 50bc d4f5 e43b d10d abbc
000001b0: 7c08 e33c 6980 2e3d 4593 fb3c 7c39 d93c
000001c0: 9395 cd3c 3a73 933c fe25 8d3b 07cd 3c3d
000001d0: 638b 433d d92f 69bc 36c2 dab8 1c69 debc
000001e0: 9a6c 933c 3004 493b 49ba 47bc 46dd 283d
000001f0: 30eb c33c 37ad a03c af67 3d3c d4ec d13c

network_body._body_endoder.seq_layers.4.weight f4 [128, 128]
-0.0071067265 0.12740588 -0.05336138 0.033665318 0.12133802 -0.020316347 0.096840404 -0.027323449
0.06921811 0.020165958 0.010812949 0.15509735 0.006942696 -0.061281394 -0.0834538 0.3067416
-0.130765 0.01903568 0.045176372 0.074119925 0.07707883 -0.030728223 -0.023896331 -0.052580804
-0.08231557 -0.01625735 0.11562591 -0.0031988036 0.03622032 -0.08669349 0.012543885 0.17439324
0.072217405 -0.03325839 -0.022102937 0.064615615 -0.12473101 0.048244424 -0.0422259 0.033141002
-0.19638808 -0.09279552 -0.071826525 -0.084657796 -0.030641379 -0.039559238 -0.05580122 -0.021928065
-0.1139865 0.15768051 -0.07434654 0.031723686 -0.06202289 -0.051475793 -0.010976008 -0.05701552
0.18682727 -0.008860232 0.19843042 0.11721973 -0.12744828 -0.11981144 0.1206178 0.16953067
0.038233493 -0.06814217 0.032280847 -0.17683198 0.038935594 0.028484179 0.024662765 -0.10017302
0.10975241 0.03552757 0.043662105 0.043254852 0.082535006 0.055610344 0.17916839 0.16911982
-0.10441037 0.01820683 0.010251006 0.09282017 -0.030939853 0.086645946 -0.020665163 -0.010610535
0.16087045 0.12692836 0.043479584 -0.11252171 0.023521125 0.10886193 0.023280866 0.015873058
0.00038823983 -0.16622607 -0.14779736 -0.07987594 0.065128446 -0.06210536 0.07207411 0.076711856
0.03323568 0.04146883 0.032377727 -0.05850393 -0.011961944 0.05296692 0.0025335138 0.059766546
0.05600156 -0.088396184 -0.11576317 -0.008988872 -0.0018097691 -0.09792336 -0.013986404 -0.042130463
-0.14918266 -0.1158349 -0.18601237 -0.061690215 -0.18139043 0.11400183 -0.009023204 0.2225326
0.035679985 -0.05734421 -0.04476754 0.025304066 -0.15840283 0.006438792 -0.1475098 -0.16236326
-0.044725176 -0.007924281 0.22274832 -0.003923097 -0.06544694 0.045795515 -0.18414679 -0.11368526
-0.053858403 0.09820832 -0.090885326 0.15079278 -0.09376546 0.10754033 0.121008866 0.0019456756
-0.25350362 -0.05320891 -0.110850714 0.09325801 0.045252092 0.06369643 0.047422428 -0.0032456412
-0.18847966 0.13564564 -0.14738777 -0.037007175 -0.05573533 -0.018191902 -0.07470276 -0.13464825
0.20118433 0.11065641 -0.11584476 -0.2093833 -0.015328387 0.018617908 -0.13063136 -0.17553575
0.026733637 0.054624967 -0.092318036 0.113821134 -0.061240993 -0.023362245 0.041629948 0.00866326
0.081488624 -0.011723721 -0.0072768657 0.1113874 -0.006152874 0.12840669 -0.05671369 -0.037398085
-0.06211346 -0.07973684 0.06022565 -0.029395597 0.06086705 0.026284367 -0.015485131 -0.28177106
-0.024918329 0.023451226 0.21452792 -0.13545819 -0.105001986 -0.044923756 -0.002368892 -0.21375553
-0.09758492 0.033158522 0.045093082 -0.0016104769 0.101551026 0.11857875 0.08779675 0.050655607
-0.22233325 0.004564607 0.003934932 -0.07587671 0.034868106 0.24039239 -0.10707657 -0.010210106
0.009370963 -0.1229728 -0.0075464435 -0.069462426 0.074903816 -0.097779654 -0.024005724 -0.01816125
-0.062320087 0.074281976 -0.043365385 -0.055939075 -0.03327837 -0.040053852 -0.10095971 -0.047374677
-0.091053106 0.024735687 -0.12445704 0.05737643 -0.057602834 -0.11782796 0.13454773 -0.10100374
-0.008304952 -0.045018487 -0.20044339 -0.065477304 -0.11592509 -0.16874166 0.05442955 0.1446842
00000000: 8bdf e8bb b076 023e 7691 5abd a5e4 093d
00000010: 1180 f83d 786e a6bc 4354 c63d 6dd5 dfbc
00000020: 39c2 8d3d 1433 a53c cc28 313c d7d1 1e3e
00000030: 8e7f e33b 3302 7bbd d3e9 aabd 3c0d 9d3e
00000040: 43e7 05be b7f0 9b3c dc0a 393d 30cc 973d
00000050: 81db 9d3d c1b9 fbbc 3dc2 c3bc f85e 57bd
00000060: 1195 a8bd 222e 85bc 47cd ec3d 05a3 51bb
00000070: c25b 143d 5b8c b1bd de84 4d3c 2494 323e
00000080: b8e6 933d f339 08bd 3811 b5bc 3155 843d
00000090: f972 ffbd f29b 453d 11f5 2cbd dcbe 073d
000000a0: f519 49be 940b bebd c919 93bd 1161 adbd
000000b0: a103 fbbc de08 22bd d28f 64bd 7ca2 b3bc
000000c0: c171 e9bd 0077 213e 0043 98bd b2f0 013d
000000d0: b70b 7ebd 48d8 52bd b7d4 33bc 1b89 69bd
000000e0: a64f 3f3e 822a 11bc 5831 4b3e e610 f03d
000000f0: cd81 02be b35f f5bd 7706 f73d 7399 2d3e
00000100: b99a 1c3d 1f8e 8bbd ec38 043d 7113 35be
00000110: ee7a 1f3d a757 e93c 9109 ca3c 8327 cdbd
00000120: dfc5 e03d 5b85 113d 09d7 323d 002c 313d
00000130: 1d08 a93d acc7 633d eb77 373e bf2d 2d3e
00000140: 1bd5 d5bd 7d26 953c d6f3 273c 8018 be3d
00000150: 9375 fdbc 6e73 b13d fd49 a9bc cfd7 2dbc
00000160: 39bb 243e 82f9 013e a617 323d c871 e6bd
00000170: 60af c03c 01f3 de3d 84b7 be3c 3708 823c
00000180: ab8c cb39 2b37 2abe 3158 17be ff95 a3bd
00000190: 1062 853d 3162 7ebd 979b 933d 1b1b 9d3d
000001a0: 2322 083d 38db 293d 829e 043d d1a1 6fbd
000001b0: 08fc 43bc d7f3 583d 4f09 263b c4cd 743d
000001c0: e461 653d 0f09 b5bd 3e15 edbd 1046 13bc
000001d0: c635 edba 0b8c c8bd 3b27 65bc fe90 2cbd
000001e0: 57c3 18be d93a edbd 077a 3ebe e1ae 7cbd
000001f0: 6abe 39be cb79 e93d 10d6 13bc 96df 633e
00000200: 2d25 123d c3e1 6abd 2b5e 37bd 794a cf3c
00000210: 5a34 22be 81fc d23b cf0c 17be 8e42 26be
00000220: bf31 37bd d8d4 01bc 2318 643e 538d 80bb
00000230: 0c09 86bd 1494 3b3d fa90 3cbe d1d3 e8bd
00000240: a19a 5cbd 7221 c93d 1622 babd 6c69 1a3e
00000250: 1b08 c0bd 1b3e dc3d 7fd3 f73d 0a06 ff3a
00000260: 3acb 81be 96f1 59bd b305 e3bd 0efe be3d
00000270: 425a 393d 4673 823d 053e 423d d3b4 54bb
00000280: d000 41be b1e6 0a3e d2ec 16be d694 17bd
00000290: bb4a 64bd 2f07 95bc c3fd 98bd 3be1 09be
000002a0: 4403 4e3e d49f e23d 0440 edbd 9368 56be
000002b0: ea23 7bbc 9584 983c 3ac4 05be a5bf 33be
000002c0: 8000 db3c 6ebe 5f3d 3d11 bdbd 0e1b e93d
000002d0: d6d7 7abd 2e62 bfbc 2a84 2a3d 59f0 0d3c
000002e0: 82e3 a63d da14 40bc c672 eebb 141f e43d
000002f0: 0c9e c9bb 0b7d 033e 9d4c 68bd bc2e 19bd
00000300: af6a 7ebd 124d a3bd 2caf 763d 09cf f0bc
00000310: ba4f 793d 5052 d73c 59b5 7dbc 4c44 90be
00000320: 8621 ccbc c91c c03c 35ad 5b3e 8db5 0abe
00000330: 480b d7bd f901 38bd 6a3f 1bbb bbe2 5abe
00000340: 9ada c7bd 3bd1 073d 86b3 383d a316 d3ba
00000350: fcf9 cf3d 6ad9 f23d c8ce b33d 417c 4f3d
00000360: 54ab 63be b392 953b 9af0 803b 4065 9bbd
00000370: dcd1 0e3d 6c29 763e f64a dbbd 4a48 27bc
00000380: ab88 193c 2ad9 fbbd 2848 f7bb 5142 8ebd
00000390: 2c67 993d b340 c8bd a7a7 c4bc e7c6 94bc
000003a0: 5943 7fbd 2621 983d e79f 31bd 5f20 65bd
000003b0: e64e 08bd 820f 24bd f7c3 cebd f30b 42bd
000003c0: 0d7a babd 7fa2 ca3c 55e3 febd 8c03 6b3d
000003d0: f3f0 6bbd c94f f1bd e1c6 093e 0ddb cebd
000003e0: 7e11 08bc 4e65 38bd 0841 4dbe f718 86bd
000003f0: 226a edbd 9dca 2cbe 85f1 5e3d 1828 143e

network_body._body_endoder.seq_layers.4.bias f4 [128]
-0.0045836563 -0.01472555 -0.017079387 0.01869389 0.019441688 0.029878387 0.0050537833 -0.0051953373
-0.012113426 -0.004658433 0.012439724 -0.010322664 0.013718763 0.014902078 -0.005564916 -0.016364327
-0.029188905 -0.01796163 -0.015673582 0.00968658 -0.03739866 -0.023293993 -0.019792955 0.009968492
0.014859211 -0.0064028306 0.01588519 0.049276397 -0.015535551 -0.014850728 0.021428144 -0.017804781
0.005647674 -0.0037219366 -0.010803117 0.05262204 -0.011819817 0.047714215 -0.0038810426 0.00850326
-0.00773119 0.015965533 -0.0002166291 -0.004315882 0.042128526 0.05674187 -0.010349909 0.008446454
0.026533179 0.026158074 -0.012034699 -0.008116857 -0.0015441059 0.011070162 0.062028047 0.0045345207
-0.0019316636 -0.0031824168 0.008995567 0.04975383 0.051109806 0.015125339 0.01321191 0.03202385
0.052409932 0.012273186 -0.0015910006 0.037257086 0.0075865714 0.003914729 0.023377674 0.009755895
0.0031260126 0.02128128 -0.011025812 -0.0018769536 0.000317435 0.016717516 0.045658913 -0.0053568003
0.017368931 -0.033872187 0.023678228 -0.01661226 0.004640968 0.0034726884 0.028670935 -0.0154350735
-0.004126645 0.030479038 0.0055497484 0.020552274 -0.01390537 0.02170416 0.018852638 0.008227474
-0.0071598715 0.0347865 0.0017051939 0.015230733 0.020135183 -0.02154805 -0.025318068 0.005934938
-0.0036163183 0.009295508 0.026897723 0.022567661 -0.026819566 -0.027480032 0.006529364 0.022978395
0.048484176 -0.00024666087 0.0082253665 -0.029336957 -0.003888064 -0.0044804267 -0.016797783 -0.00418879
-0.008469174 0.0249823 -0.0020396237 0.024571775 0.006187933 -0.0015684358 -0.006358838 0.010675103
00000000: 7f32 96bb 6f43 71bc 12ea 8bbc ee23 993c
00000010: 2d44 9f3c 85c3 f43c 359a a53b a63d aabb
00000020: 6477 46bc c5a5 98bb fccf 4b3c 6420 29bc
00000030: aac4 603c d827 743c e659 b6bb 7b0e 86bc
00000040: 921d efbc 4524 93bc e265 80bc 76b4 1e3c
00000050: 562f 19bd 0bd3 bebc d624 a2bc e352 233c
00000060: 0c74 733c d6ce d1bb a821 823c 0cd6 493d
00000070: d388 7ebc 7850 73bc 138a af3c 55db 91bc
00000080: 2010 b93b bceb 73bb 8fff 30bc 358a 573d
00000090: e8a7 41bc fb6f 433d 1759 7ebb 4251 0b3c
000000a0: ec55 fdbb 26ca 823c ee26 63b9 3e6c 8dbb
000000b0: f68e 2c3d 2a6a 683d aa92 29bc ff62 0a3c
000000c0: 1c5c d93c 7549 d63c 302d 45bc 91fc 04bc
000000d0: 9963 caba a05f 353c 1f11 7e3d 5196 943b
000000e0: e02f fdba 1890 50bb 2562 133c acca 4b3d
000000f0: 8458 513d 45d0 773c c476 583c 712b 033d
00000100: ccab 563d 7915 493c 1f89 d0ba e39a 183d
00000110: c698 f83b 2147 803b 8982 bf3c 30d7 1f3c
00000120: cadd 4c3b 1456 ae3c 9ba5 34bc 1d04 f6ba
00000130: 686d a639 2cf3 883c d704 3b3d 1988 afbb
00000140: 4a49 8e3c 90bd 0abd d8f8 c13c 6f16 88bc
00000150: 4313 983b 0b96 633b 4fdf ea3c 64e3 7cbc
00000160: cf38 87bb 2daf f93c aada b53b 3e5d a83c
00000170: 59d3 63bc eccc b13c d970 9a3c 87cc 063c
00000180: 5b9d eabb 4a7c 0e3d d080 df3a 538a 793c
00000190: 8af2 a43c 8985 b0bc d667 cfbc de79 c23b
000001a0: c1ff 6cbb 304c 183c 9d58 dc3c d1df b83c
000001b0: b5b4 dbbc ce1d e1bc 46f4 d53b 303d bc3c
000001c0: 5897 463d 4352 81b9 b0c3 063c 0f54 f0bc
000001d0: e4ce 7ebb 8bd0 92bb 819b 89bc 1e42 89bb
000001e0: 4ac2 0abc aea7 cc3c 35ab 05bb bf4a c93c
000001f0: 25c4 ca3b f993 cdba cd5d d0bb a1e6 2e3c

action_model._continuous_distribution.log_sigma f4 [1, 18]
0.20594591 0.0710553 0.11914508 0.13802543 0.1257972 0.025020083 -0.14675485 0.036766462
0.16268955 0.17401569 0.10534326 0.1759107 0.031706937 0.10991028 0.17946938 0.08660888
0.14247274 0.22435132
00000000: 7ce3 523e 7185 913d 5602 f43d 8a56 0d3e
00000010: fbd0 003e ebf6 cc3c e746 16be 6e98 163d
00000020: 1798 263e 2b31 323e 35be d73d ef21 343e
00000030: 22df 013d a418 e13d d2c6 373e ff5f b13d
00000040: 60e4 113e 5abc 653e

action_model._continuous_distribution.mu.weight f4 [18, 128]
-0.046499345 -0.013078634 0.0541211 -0.024380503 0.043522023 -0.07841193 0.052688427 -0.009369027
0.02269514 0.05223036 -0.018409036 0.07077129 -0.07226396 -0.018629454 -0.0050149383 0.029927997
-0.038226146 0.060929574 -0.015976384 0.029472003 0.0046318993 0.04802793 0.015434706 -0.015049071
0.07749839 -0.039083213 0.107759215 -0.010407844 -0.008857421 -0.05089823 0.014400151 0.012353871
0.048286226 0.05201388 -0.0006797024 0.031205088 0.040595982 0.019552113 0.027031265 -0.037163813
-0.028914554 0.028462645 0.02132067 0.023545802 0.01971166 0.017168911 -0.07131471 -0.038765926
0.019091578 0.027136022 -0.035450727 0.0109104505 -0.03755221 0.06316788 0.01908027 0.024626438
-0.00042580042 -0.033778198 0.08696358 0.0005597257 0.059201892 0.024826473 0.059049167 -0.014258534
-0.030598134 0.03238109 -0.016282592 -0.022360256 -0.043497253 -0.060193412 0.014858007 0.027296957
-0.032941785 -0.024855189 0.026019301 -0.021978453 -0.038094785 0.04169091 -0.034622483 0.0138343405
0.002729967 -0.020589024 0.0072865016 0.037074737 0.033097707 0.009403598 0.004286975 -0.0040808413
-0.0034025218 -0.032592822 0.003168665 0.005086169 0.0077128457 -0.04920657 -0.05770563 -0.031461872
0.023752637 0.028102538 -0.0029721127 -0.015496682 0.08478849 -0.024499599 0.05195217 0.07807818
0.04037261 0.006991013 0.067237005 0.014292778 -0.017442338 -0.019877441 0.079906166 -0.051919114
-0.060749214 -0.005193083 -0.03415512 -0.020543419 -0.037257608 0.039246265 0.03688601 0.042090334
-0.0089708995 -0.020848049 0.06936564 0.000500757 0.0022114401 0.004573296 -0.015367598 -0.02109281
-0.0035662286 -0.019041544 0.013907153 0.019654334 0.0018930191 -0.009065163 -0.0048330296 -0.03749257
-0.037853327 -0.064931616 -0.021487916 -0.03796824 0.011869614 0.050472543 0.020513877 -0.025031557
-0.002803035 -0.021901585 0.0012397564 0.010292569 -0.0069808178 0.040126197 0.0043608323 0.045028035
-0.0066111535 -0.019612355 0.01998654 0.08578715 -0.0014207896 -0.017079925 8.3598214e-05 0.02680523
-0.06928168 -0.0038557863 -0.016138405 0.015811915 0.00043347545 0.04406482 -0.009841145 -0.02104233
-0.050139703 -0.0013776827 0.0040610214 -0.02759151 0.054404072 0.0055558737 -0.026163703 0.0007011959
-0.042874947 -0.04349683 -0.0002673944 0.009381102 -0.012260887 0.01927215 0.03906068 0.0036574665
-0.018060377 -0.00161498 0.016864872 -0.0049953037 0.09823206 -0.06035315 -0.0109208105 0.007674141
-0.007801561 -0.0022675174 -0.0010913704 -0.028922431 -0.034257844 -0.010325465 0.03770561 -0.06601314
-0.025662122 -0.037442174 -0.03627513 -0.026443366 0.042794622 -0.017816553 -0.015729424 -0.009533457
0.024867428 -0.02515733 0.016752033 0.023663482 0.016108172 0.025152633 0.032148436 -0.02066404
-0.008327099 0.017849058 -0.04620267 -0.014595262 -0.009376511 0.047220938 0.018550713 0.055149537
-0.046561614 0.012245531 0.00351471 0.0012963627 0.027758323 0.0043452387 -0.01113494 0.042494986
-0.021701269 -0.036440317 -0.032239977 -0.011150886 -0.01302784 0.011328247 -0.033538576 0.021891814
0.014459862 0.01913927 0.0043711048 -0.009034624 -0.022131288 -0.008599529 0.005319745 -0.07054173
-0.020216048 0.026858957 -0.011267065 -0.043007243 0.015221382 -0.022783082 0.009038356 0.03344397
00000000: 1976 3ebd c447 56bc 16ae 5d3d 9fb9 c7bc
00000010: 2644 323d 6f96 a0bd d2cf 573d 8c80 19bc
00000020: 29eb b93c 81ef 553d 8cce 96bc 8af0 903d
00000030: 21ff 93bd cc9c 98bc 5a54 a4bb 8f2b f53c
00000040: 0593 1cbd 4a91 793d e8e0 82bc 456f f13c
00000050: 30c7 973b efb8 443d d9e1 7c3c 6190 76bc
00000060: 7ab7 9e3d b815 20bd ddb0 dc3d a985 2abc
00000070: b71e 11bc aa7a 50bd 9cee 6b3c e467 4a3c
00000080: c7c7 453d 820c 553d 0e2e 32ba d0a1 ff3c
00000090: f947 263d c12b a03c ac70 dd3c 1539 18bd
000000a0: 37de ecbc 7e2a e93c b0a8 ae3c 20e3 c03c
000000b0: 597a a13c d1a5 8c3c 720d 92bd 05c9 1ebd
000000c0: f165 9c3c 5d4c de3c c834 11bd bfc1 323c
000000d0: 59d0 19bd 295e 813d 3a4e 9c3c 62bd c93c
000000e0: f73d dfb9 025b 0abd f619 b23d 8eba 123a
000000f0: af7d 723d e360 cb3c 8add 713d a09c 69bc
00000100: f0a8 fabc 09a2 043d 1263 85bc db2c b7bc
00000110: 2d2a 32bd 5e8d 76bd 006f 733c de9d df3c
00000120: f7ed 06bd 1c9d cbbc 6e26 d53c 280c b4bc
00000130: 4709 1cbd 16c4 2a3d 4ed0 0dbd 6ea9 623c
00000140: 3fe9 323b 50aa a8bc 9bc3 ee3b aedb 173d
00000150: 7691 073d 8c11 1a3c c179 8c3b 94b8 85bb
00000160: d8fc 5ebb 0d80 05bd 61a9 4f3b e1a9 a63b
00000170: 0abc fc3b d48c 49bd bd5c 6cbd 2ade 00bd
00000180: e494 c23c 4b37 e63c c7c7 42bb cce5 7dbc
00000190: 96a5 ad3d 62b3 c8bc cccb 543d 74e7 9f3d
000001a0: c05d 253d de14 e53b 8eb3 893d 422c 6a3c
000001b0: 3ce3 8ebc 04d6 a2bc d8a5 a33d 23a9 54bd
000001c0: 2bd4 78bd bd2a aabb 3de6 0bbd ac4a a8bc
000001d0: 6f9b 18bd b1c0 203d c915 173d ea66 2c3d
000001e0: aefa 12bc 87c9 aabc 930f 8e3d 3c45 033a
000001f0: cfed 103b 96db 953b 61c8 7bbc d4ca acbc
00000200: 63b7 69bb 03fd 9bbc d4da 633c 2002 a13c
00000210: 2e1f f83a 0d86 14bc 645e 9ebb cf91 19bd
00000220: 170c 1bbd defa 84bd 6d07 b0bc 9684 1bbd
00000230: c578 423c 4cbc 4e3d b80c a83c fb0e cdbc
00000240: 20b3 37bb f46a b3bc 527f a23a 2aa2 283c
00000250: 58bf e4bb 5e5b 243d 50e5 8e3b 516f 383d
00000260: 60a2 d8bb 17aa a0bc d0ba a33c 2cb1 af3d
00000270: ca39 baba 33eb 8bbc 7351 af38 a496 db3c
00000280: 8ee3 8dbd 5cb1 7cbb b034 84bc fd87 813c
00000290: 1744 e339 507d 343d c13c 21bc f760 acbc
000002a0: 4a5f 4dbd 5c93 b4ba 5112 853b 9707 e2bc
000002b0: ced6 5e3d 0c0e b63b 4355 d6bc 76d0 373a
000002c0: a49d 2fbd bb29 32bd 1231 8cb9 32b3 193c
000002d0: e3e1 48bc a1e0 9d3c 17fe 1f3d 1bb2 6f3b
000002e0: 5bf3 93bc bdad d3ba 3328 8a3c a5af a3bb
000002f0: e42d c93d dd34 77bd 33ed 32bc 5c77 fb3b
00000300: 3da4 ffbb a19a 14bb 500c 8fba bcee ecbc
00000310: f451 0cbd 242c 29bc 3371 1a3d e631 87bd
00000320: 5f39 d2bc f75c 19bd 3b95 14bd c29f d8bc
00000330: 6a49 2f3d 05f4 91bc feda 80bc 3832 1cbc
00000340: c7b6 cb3c bf16 cebc 8f3b 893c ebd9 c13c
00000350: 49f5 833c e50c ce3c 14ae 033d a247 a9bc
00000360: 626e 08bc 3038 923c 033f 3dbd f720 6fbc
00000370: f09f 19bc be6a 413d aaf7 973c 7be4 613d
00000380: 64b7 3ebd 7ba1 483c 0d57 663b b7ea a93a
00000390: 6c65 e33c 8162 8e3b 536f 36bc 390f 2e3d
000003a0: dcc6 b1bc 7142 15bd 110e 04bd 35b2 36bc
000003b0: b972 55bc 1d9a 393c bf5f 09bd 7656 b33c
000003c0: 0fe9 6c3c f5c9 9c3c 7c3b 8f3b f605 14bc
000003d0: ad4c b5bc 0ae5 0cbc 4151 ae3b 2f78 90bd
000003e0: 209c a5bc 5107 dc3c 7f99 38bc 5d28 30bd
000003f0: 1a63 793c 96a3 babc 9d15 143c 8bfc 083d

action_model._continuous_distribution.mu.bias f4 [18]
0.004240065 0.010286151 -0.037884913 -0.009364825 -0.011155703 0.012447294 0.008999012 0.0084251715
0.06828213 -0.0010584353 -0.00029693334 0.0056282156 -0.0018476855 0.007010823 -0.006398235 0.027056733
-0.00680488 0.006673717
00000000: 3ef0 8a3b 3f87 283c 362d 1bbd ec6e 19bc
00000010: 69c6 36bc bcef 4b3c 9870 133c bb09 0a3c
00000020: 80d7 8b3d 32bb 8aba b8ad 9bb9 e56c b83b
00000030: 0a2e f2ba 0cbb e53b 49a8 d1bb 15a6 dd3c
00000040: 79fb debb 32af da3b

action_model._discrete_distribution.branches.0.weight f4 [2, 128]
0.09546687 -0.07054125 -0.04111382 0.042711042 0.029077375 0.1525958 -0.023347631 -0.08791639
0.08739678 -0.01787704 -0.07228877 0.05775846 0.029925644 0.034363512 -0.031225352 -0.052946195
-0.06422396 -0.03283444 -0.051848862 0.009997108 -0.043425497 -0.049220342 -0.048662204 -0.0748305
0.040981866 0.08821394 -0.019803118 0.04460712 0.004227223 -0.04673777 0.048358146 -0.009810087
0.00667676 -0.0033431642 -0.0681014 0.09330334 -0.061097488 -0.030787438 0.062637605 -0.007005769
-0.016367625 -0.048242606 0.036283895 -0.021356959 0.06807109 0.15249293 -0.09728081 0.04896817
0.057012353 -0.053283032 0.020212146 0.031757504 -0.06082326 0.034935948 -0.011091736 0.008984449
-0.0167741 0.0043133846 -0.019522926 0.07332329 0.10369656 -0.0010833747 0.05869067 0.08186007
0.08280177 0.03726229 -0.033463564 0.09917132 0.09292461 -0.067360416 0.022114312 0.010474528
0.028132128 0.003862425 -0.015720688 0.08414604 -0.02713129 0.05058741 0.04647685 -0.073269054
0.040098872 -0.053209964 0.0062208455 -0.013000662 0.11310497 -0.05141896 0.008992879 -0.021500697
-0.05334288 -0.034042154 0.012916604 0.10322593 0.008702319 0.13265385 -0.019513087 0.020752255
0.044383854 0.074146815 -0.005062528 0.13288414 0.06412894 -0.047255334 0.05540109 -0.04272347
0.050305497 0.021073753 0.02083591 0.01697099 -0.034899544 -0.085747845 0.0821162 0.058207024
-0.03686428 -0.014410256 0.025674397 -0.055389524 0.014916969 0.009232088 -0.065571584 -0.028960321
-0.09033973 0.011793227 0.032934923 0.05760324 0.031668726 -0.0039919238 -0.029792603 0.00401134
-0.091294326 0.082383044 0.031541385 -0.03703966 -0.04784612 -0.16986176 0.022032969 0.09785776
-0.095833704 0.037595797 0.069268756 -0.05768934 -0.008874053 -0.030098913 0.027518736 0.06056241
0.07570999 0.046982564 0.04842315 -0.020392988 0.06275648 0.05185483 0.028747248 0.07530081
-0.03553561 -0.09208132 0.039446745 -0.040790103 0.0006101758 0.038895108 -0.034612827 0.007930383
-0.00020199078 -0.0024599708 0.07726216 -0.08808935 0.06908592 0.026095357 -0.041427046 -0.0070109987
0.006138754 0.03530335 -0.01463687 0.0064447992 -0.07146349 -0.14595534 0.07550415 -0.034523036
-0.07039461 0.04916314 -0.016369957 -0.027203916 0.06371569 -0.03570796 0.036947895 -0.0351018
0.01817905 0.0149087645 0.02161266 -0.086574346 -0.11626318 0.009684822 -0.059666358 -0.08958656
-0.0664413 -0.044052444 0.023784624 -0.10140242 -0.0938858 0.06885979 -0.022105558 -0.008098002
-0.038242348 -0.008667019 -0.0089273015 -0.106830515 0.035782617 -0.051017426 -0.055393685 0.07244922
-0.06658614 0.03036038 0.00041037877 0.010053511 -0.10539363 0.045506466 -0.0055808024 0.025096955
0.035373777 0.037931636 -0.002471814 -0.079408415 -0.008792932 -0.13015853 0.017650578 -0.02781033
-0.037562698 -0.10108779 0.033502206 -0.11410006 -0.054742385 0.06411037 -0.042249482 0.0422202
-0.05410464 -0.04683486 -0.020022737 -0.02185874 0.017977014 0.07852464 -0.06042793 -0.057231143
0.029257353 0.012261117 -0.035417855 0.059491567 -0.025660643 0.0032806848 0.06922653 0.028557848
0.091380276 -0.017802548 -0.04597361 -0.047709007 -0.029359097 -0.0013201337 0.021713937 -0.016376166
00000000: 2284 c33d ee77 90bd f766 28bd c6f1 2e3d
00000010: ad33 ee3c 1342 1c3e 8843 bfbc 820d b4bd
00000020: 15fd b23d df72 92bc 220c 94bd 2394 6c3d
00000030: a026 f53c c1c0 0c3d 4fcc ffbc 1cde 58bd
00000040: da87 83bd 687d 06bd 795f 54bd e9ca 233c
00000050: efde 31bd 459b 49bd 0552 47bd bc40 99bd
00000060: 9adc 273d 83a9 b43d 263a a2bc f5b5 363d
00000070: 8484 8a3b 1b70 3fbd 3113 463d 7dba 20bc
00000080: b9c8 da3b fd18 5bbb bf78 8bbd d215 bf3d
00000090: 5c41 7abd f035 fcbc 2548 803d a690 e5bb
000000a0: 6615 86bc 0a9a 45bd 6c9e 143d caf4 aebc
000000b0: db68 8b3d 1b27 1c3e 293b c7bd d992 483d
000000c0: c985 693d 4f3f 5abd f193 a53c 2814 023d
000000d0: d021 79bd ff18 0f3d 1dba 35bc 8333 133c
000000e0: d669 89bc 4b57 8d3b 8bee 9fbc 852a 963d
000000f0: dd5e d43d 0600 8eba a165 703d 41a6 a73d
00000100: f993 a93d 58a0 183d 1711 09bd 551a cb3d
00000110: 424f be3d 42f4 89bd 1329 b53c 5b9d 2b3c
00000120: 5975 e63c bd20 7d3b acc8 80bc c254 ac3d
00000130: 7042 debc be34 4f3d 825e 3e3d 160e 96bd
00000140: b73e 243d b1f2 59bd 3cd8 cb3b bb00 55bc
00000150: 94a3 e73d b09c 52bd de56 133c 3b22 b0bc
00000160: 107e 5abd c96f 0bbd 2aa0 533c 1e68 d33d
00000170: 2c94 0e3c 69d6 073e e9d9 9fbc a200 aa3c
00000180: d8cb 353d 49da 973d 90e3 a5bb c812 083e
00000190: 0956 833d cf8e 41bd 41ec 623d cefe 2ebd
000001a0: 230d 4e3d dda2 ac3c 12b0 aa3c bf06 8b3c
000001b0: d3f2 0ebd 919c afbd 8a2c a83d 7d6a 6e3d
000001c0: 00ff 16bd ff18 6cbc 1d53 d23c 20e0 62bd
000001d0: 4e66 743c 2f42 173c 654a 86bd 323e edbc
000001e0: 0904 b9bd 6138 413c c5e6 063d 60f1 6b3d
000001f0: 11b7 013d afce 82bb 9e0f f4bc 8f71 833b
00000200: 85f8 babd 71b8 a83d 8a31 013d e6b6 17bd
00000210: 4bfa 43bd 3ef0 2dbe 7c7e b43c a669 c83d
00000220: 7644 c4bd 0dfe 193d c7dc 8d3d a84b 6cbd
00000230: 7a64 11bc ff91 f6bc f96e e13c 4a10 783d
00000240: d70d 9b3d ca70 403d 5a57 463d 320f a7bc
00000250: 7886 803d bb65 543d 597f eb3c 5037 9a3d
00000260: ca8d 11bd 2295 bcbd e992 213d 8613 27bd
00000270: 34f4 1f3a 7a50 1f3d 2ec6 0dbd 70ee 013c
00000280: 7dcd 53b9 7637 21bb a03b 9e3d 3068 b4bd
00000290: eb7c 8d3d eec5 d53c 68af 29bd 85bc e5bb
000002a0: 9a27 c93b 3f9a 103d 7bcf 6fbc e52e d33b
000002b0: 735b 92bd 5175 15be eba1 9a3d 0768 0dbd
000002c0: 0d2b 90bd 4a5f 493d 4a1a 86bc bfda debc
000002d0: 5f7d 823d 8342 12bd ad56 173d e8c6 0fbd
000002e0: 3bec 943c e443 743c 080d b13c e44d b1bd
000002f0: 641b eebd 16ad 1e3c b664 74bd 2979 b7bd
00000300: 6012 88bd 5670 34bd f9d7 c23c 12ac cfbd
00000310: 3347 c0bd 5d06 8d3d b716 b5bc 7bad 04bc
00000320: 02a4 1cbd 1d00 0ebc d143 12bc f5c9 dabd
00000330: cb90 123d a6f7 50bd 7de4 62bd 4260 943d
00000340: 505e 88bd 55b6 f83c 1b28 d739 7bb7 243c
00000350: 9ed8 d7bd fd64 3a3d 2adf b6bb 2198 cd3c
00000360: 18e4 103d 345e 1b3d 28fe 21bb e1a0 a2bd
00000370: 3b10 10bc 4748 05be f297 903c 7dd2 e3bc
00000380: 58db 19bd 1e07 cfbd 9c39 093d 4bad e9bd
00000390: 8d39 60bd 4c4c 833d cb0d 2dbd 17ef 2c3d
000003a0: d49c 5dbd e9d5 3fbd b906 a4bc 1a11 b3bc
000003b0: 8844 933c 87d1 a03d 4783 77bd 346b 6abd
000003c0: 1ead ef3c dae2 483c 5012 11bd 6ead 733d
000003d0: 4536 d2bc c200 573b a4c6 8d3d 26f2 e93c
000003e0: 9525 bb3d a6d6 91bc d34e 3cbd 856a 43bd
000003f0: 7d82 f0bc 5608 adba 6de1 b13c 4f27 86bc

action_model._discrete_distribution.branches.0.bias f4 [2]
0.073978744 -0.07397876
00000000: 2b82 973d 2d82 97bd

onnx::Div_105 f4 [14]
0.19261102 0.13372102 0.18684524 0.1323561 0.18578014 0.13139737 0.1720597 0.12802166
0.17218086 0.12677014 0.15854485 0.123304084 0.15747173 0.12121686
00000000: d33b 453e 2aee 083e 5c54 3f3e 5c88 073e
00000010: 263d 3e3e 088d 063e 6b30 303e 1c18 033e
00000020: 2e50 303e 08d0 013e 9559 223e da86 fc3d
00000030: 4540 213e 8c40 f83d

onnx::Div_108 f4 [14]
0.23387039 0.16665353 0.22546667 0.16441083 0.22456206 0.1638602 0.20687252 0.15891959
0.20711194 0.15815933 0.19029008 0.15274574 0.19010212 0.15157422
00000000: b87b 6f3e 39a7 2a3e bce0 663e 505b 283e
00000010: 99f3 653e f8ca 273e 64d6 533e d1bb 223e
00000020: 2715 543e 85f4 213e 67db 423e 6169 1c3e
00000030: 21aa 423e 4636 1b3e
