Assets/Dueler-3499969.onnx (onnx, 402609 bytes, 19 tensors)

network_body.observation_encoder.processors.0.normalizer.running_mean f4 [14]
0	0x3f74d495	0.95636874
1	0x3f78bf73	0.9716713
2	0x3f7583b3	0.9590408
3	0x3f7907c5	0.9727748
4	0x3f75a556	0.9595541
5	0x3f792088	0.97315264
6	0x3f772815	0.96545535
7	0x3f79c2d2	0.975629
8	0x3f772646	0.96542776
9	0x3f79d536	0.9759096
10	0x3f7885f7	0.97079414
11	0x3f7a6969	0.97817093
12	0x3f78a36d	0.9712437
13	0x3f7a9122	0.97877705

network_body.observation_encoder.processors.1.normalizer.running_mean f4 [14]
0	0x3f6f3d8a	0.93453276
1	0x3f74d58e	0.9563836
2	0x3f707d84	0.9394152
3	0x3f75606d	0.9585026
4	0x3f70a31f	0.93998903
5	0x3f7577cd	0.95885926
6	0x3f730f08	0.9494481
7	0x3f768b43	0.96306247
8	0x3f730b54	0.9493916
9	0x3f7699fc	0.9632871
10	0x3f751f1a	0.9575058
11	0x3f77930c	0.9670875
12	0x3f752b05	0.9576877
13	0x3f77aef6	0.96751344

network_body.observation_encoder.processors.2.normalizer.running_mean f4 [435]
0	0x412e00d8	10.875206
1	0x3dc31096	0.09524648
2	0xbf9f58ec	-1.2449012
3	0x412dfba9	10.87394
4	0x3dc03328	0.09384757
5	0xbfe858f6	-1.8152149
6	0x412db581	10.8568125
7	0x3d92a872	0.07161035
8	0x3f8ff60a	1.124696
9	0x412db06b	10.855571
10	0x3d8e5317	0.06949442
11	0x3ff46283	1.9092563
12	0x412cdb54	10.803547
13	0x3d8b75a4	0.068095475
14	0x3fa2eb96	1.2728145
15	0x412cd832	10.802782
16	0x3d88b4a8	0.066750824
17	0x3fdfadc6	1.7474906
18	0x412d2c20	10.823273
19	0x3dc08654	0.09400621
20	0x3fae3451	1.3609716
21	0x412d28db	10.8224745
22	0x3dbecc1b	0.09316274
23	0x3fd9209e	1.6963079
24	0x412c5b1e	10.772245
25	0x3d606ae7	0.05478945
26	0xbe04f882	-0.12985423
27	0x412de8c1	10.869325
28	0x3d65a8fb	0.056069355
29	0x3e7c952b	0.24666278
30	0x3d0803cc	0.033206746
31	0x3ed01c38	0.4064653
32	0x3d57af4d	0.052657414
33	0x3ebbe35f	0.36696908
34	0x398bdfe2	0.00026678952
35	0x3c674dc0	0.014117658
36	0xba8bdf88	-0.0010671476
37	0xbda915e9	-0.08256132
38	0xbd387811	-0.04503638
39	0xbc3e3892	-0.011610167
40	0x3ffc453d	1.970863
41	0x3f19e8a5	0.6012061
42	0x3f0b65d7	0.5445227
43	0x3f447f2d	0.76756555
44	0x3f45b1c7	0.7722439
45	0x3fae5149	1.3618556
46	0xc00070e5	-2.0068905
47	0x3f45b1c7	0.7722439
48	0x3fae5149	1.3618556
49	0xbf8c9b88	-1.0984964
50	0x3ee2af8c	0.44274557
51	0x3f9b8999	1.2151366
52	0x401ea39f	2.4787366
53	0x3ee2af8c	0.44274557
54	0x3f9b8999	1.2151366
55	0x3f2071d7	0.62673706
56	0x3ebb2674	0.36552775
57	0x3f7ce55e	0.98787487
58	0x400f907d	2.2431939
59	0x3ebb2674	0.36552775
60	0x3f7ce55e	0.98787487
61	0x3f5cba48	0.8622174
62	0x3f3f9cd8	0.748487
63	0x3fa4ee3c	1.2885203
64	0x3fe9dc52	1.8270361
65	0x3f3f9cd8	0.748487
66	0x3fa4ee3c	1.2885203
67	0x3fa3a6d4	1.2785287
68	0x3ebb9f4c	0.3664497
69	0x3f613413	0.87970084
70	0xbe33d482	-0.17561534
71	0x3eb1ef98	0.34753108
72	0x3f96bc34	1.1776185
73	0x3e90d2de	0.2828588
74	0x3d01ea12	0.031717367
75	0x3ed7cb40	0.42147255
76	0x3d69ef90	0.05711323
77	0x3ec4dfd1	0.38452008
78	0x3948b494	0.00019140757
79	0x3c6807fa	0.014162058
80	0xba55d547	-0.0008157086
81	0xbdaf85a6	-0.08570413
82	0xbd279c63	-0.040920626
83	0xbc9182c9	-0.017762559
84	0x3ffc42b3	1.9707855
85	0x3f2375fd	0.6385191
86	0x3f121baa	0.5707346
87	0x412e81bd	10.906674
88	0x3dc3a0ac	0.0955213
89	0xbf9fd149	-1.2485744
90	0x412e7d2e	10.905561
91	0x3dc0c295	0.094121136
92	0xbfe906c2	-1.8205187
93	0x412e35fa	10.888178
94	0x3d9313e0	0.07181525
95	0x3f9064d7	1.1280774
96	0x412e3173	10.887073
97	0x3d8ebfab	0.069701515
98	0x3ff51ab2	1.9148772
99	0x412d5d50	10.835281
100	0x3d8bdce1	0.06829239
101	0x3fa367da	1.2766068
102	0x412d596a	10.83433
103	0x3d891c48	0.06694847
104	0x3fe0577d	1.7526699
105	0x412dae4b	10.855052
106	0x3dc1158f	0.0942794
107	0x3faeb6a7	1.3649491
108	0x412daa7c	10.854122
109	0x3dbf5a62	0.09343411
110	0x3fd9c368	1.7012758
111	0x412cda45	10.803288
112	0x3d611324	0.054949895
113	0xbe052d21	-0.13005497
114	0x412e68f6	10.900625
115	0x3d665110	0.05622965
116	0x3e7d1881	0.24716379
117	0x3d082434	0.03323765
118	0x3ed0764b	0.4071525
119	0x3d582c49	0.05277661
120	0x3ebc3321	0.36757758
121	0x398326e4	0.00025015243
122	0x3c67782c	0.014127772
123	0xba87e7e8	-0.0010368796
124	0xbda99f7f	-0.082823746
125	0xbd3a36bb	-0.04546235
126	0xbc3b1c6b	-0.01142035
127	0x3ffd00d9	1.9765884
128	0x3f1a2450	0.6021166
129	0x3f0b924a	0.54520094
130	0x3f44e32a	0.76909125
131	0x3f46419a	0.7744385
132	0x3faecf45	1.3657004
133	0xc000d111	-2.0127604
134	0x3f46419a	0.7744385
135	0x3faecf45	1.3657004
136	0xbf8d0939	-1.101844
137	0x3ee35966	0.44404143
138	0x3f9c0178	1.2187948
139	0x401f1c4b	2.4861019
140	0x3ee35965	0.4440414
141	0x3f9c0178	1.2187948
142	0x3f20eb18	0.62858725
143	0x3ebbac56	0.3665492
144	0x3f7d9f98	0.99071646
145	0x401001be	2.2501063
146	0x3ebbac56	0.3665492
147	0x3f7d9f98	0.99071646
148	0x3f5d5f18	0.86473227
149	0x3f40270d	0.75059587
150	0x3fa56925	1.2922713
151	0x3fea8c7b	1.8324121
152	0x3f40270d	0.75059587
153	0x3fa56925	1.2922713
154	0x3fa4212f	1.2822627
155	0x3ebc2ddf	0.36753747
156	0x3f61cadc	0.88200164
157	0xbe340ca6	-0.1758295
158	0x3eb27950	0.3485818
159	0x3f971733	1.1803955
160	0x3e91262d	0.28349438
161	0x3d01f8ce	0.03173142
162	0x3ed8334a	0.4222663
163	0x3d6a84a8	0.057255417
164	0x3ec53f1e	0.38524717
165	0x3928df47	0.00016104906
166	0x3c68cbdf	0.014208763
167	0xba573af2	-0.00082103827
168	0xbdafa81d	-0.08576987
169	0xbd290304	-0.04126264
170	0xbc91b04f	-0.017784266
171	0x3ffcfddf	1.9764975
172	0x3f23bf46	0.63963735
173	0x3f124cd9	0.5714851
174	0x412f05ef	10.938949
175	0x3dc430fa	0.09579654
176	0xbfa04955	-1.2522379
177	0x412effea	10.937479
178	0x3dc152ab	0.09439596
179	0xbfe9b52a	-1.8258412
180	0x412eba15	10.92043
181	0x3d937ffe	0.07202147
182	0x3f90d2f6	1.131438
183	0x412eb40d	10.918958
184	0x3d8f2b19	0.06990642
185	0x3ff5d30e	1.9205034
186	0x412dde66	10.8667965
187	0x3d8c4386	0.068488166
188	0x3fa3e4a4	1.280415
189	0x412ddaa3	10.865878
190	0x3d89828d	0.06714354
191	0x3fe10119	1.757846
192	0x412e2fa9	10.886636
193	0x3dc1a377	0.094550066
194	0x3faf3aa9	1.3689777
195	0x412e2bd9	10.885705
196	0x3dbfe974	0.093706995
197	0x3fda6629	1.7062427
198	0x412d59ed	10.834455
199	0x3d61bb34	0.05511017
200	0xbe055864	-0.13022
201	0x412ee8ce	10.931837
202	0x3d66f939	0.05639002
203	0x3e7da919	0.24771537
204	0x3d083e1a	0.03326235
205	0x3ed0d020	0.40783787
206	0x3d58a965	0.052895922
207	0x3ebc8145	0.36817375
208	0x39809ecf	0.00024532384
209	0x3c67bd1a	0.014144206
210	0xba834803	-0.0010015968
211	0xbdaa2006	-0.08306889
212	0xbd3bb24d	-0.045824338
213	0xbc3c0ca6	-0.011477625
214	0x3ffdba5f	1.9822501
215	0x3f1a63b6	0.60308397
216	0x3f0bbebd	0.5458792
217	0x3f4544df	0.77058214
218	0x3f46d6ac	0.77671313
219	0x3faf4db6	1.369559
220	0xc0012db9	-2.0184157
221	0x3f46d6ac	0.77671313
222	0x3faf4db6	1.369559
223	0xbf8d69b4	-1.1047883
224	0x3ee40489	0.4453471
225	0x3f9c6d23	1.2220806
226	0x401f8b65	2.492883
227	0x3ee40489	0.4453471
228	0x3f9c6d23	1.2220806
229	0x3f215c21	0.630312
230	0x3ebc3773	0.36761054
231	0x3f7e58d4	0.9935429
232	0x401062ce	2.2560306
233	0x3ebc3772	0.3676105
234	0x3f7e58d4	0.9935429
235	0x3f5e082f	0.8673124
236	0x3f40b66a	0.7527834
237	0x3fa5de8b	1.295854
238	0x3feb39fd	1.8377072
239	0x3f40b669	0.75278336
240	0x3fa5de8b	1.295854
241	0x3fa49563	1.2858089
242	0x3ebcbc23	0.36862287
243	0x3f62619b	0.88430184
244	0xbe343a66	-0.17600402
245	0x3eb3035f	0.3496351
246	0x3f97723e	1.1831739
247	0x3e917af8	0.2841413
248	0x3d0201d5	0.03174003
249	0x3ed89a62	0.42305285
250	0x3d6b1f26	0.057402752
251	0x3ec59c8a	0.38595992
252	0x390c1a93	0.0001336134
253	0x3c6951ae	0.014240665
254	0xba58ad42	-0.00082655635
255	0xbdafb47b	-0.08579346

network_body.observation_encoder.processors.3.normalizer.running_mean f4 [14]
0	0x3f6de1bc	0.9292257
1	0x3f73e8aa	0.9527689
2	0x3f6f597e	0.9349593
3	0x3f748897	0.9552092
4	0x3f6f8336	0.93559587
5	0x3f749a9e	0.9554843
6	0x3f724204	0.9463198
7	0x3f75d8df	0.96034044
8	0x3f722afe	0.9459685
9	0x3f75cf6b	0.9601962
10	0x3f747448	0.9548993
11	0x3f76f14a	0.9646193
12	0x3f745dea	0.954558
13	0x3f76ec2d	0.96454126

network_body._body_endoder.seq_layers.0.weight f4 [128, 477]
0	0x3d35b503	0.04436208
1	0x3d1deb54	0.038554505
2	0xbd1d5bd6	-0.03841766
3	0xbd452be1	-0.04813755
4	0xbc8702cf	-0.016480831
5	0xbd0ae5f5	-0.03391071
6	0x3c890461	0.01672572
7	0xbdd5980f	-0.104293935
8	0xbd8fbd9f	-0.07018589
9	0xbd05db8a	-0.032680072
10	0xbd63d0b5	-0.05561896
11	0xbdb2cdc2	-0.087306514
12	0xbda01d5f	-0.07818102
13	0xbd1c4501	-0.038151745
14	0x3d4532b4	0.048144057
15	0xbc292930	-0.010324761
16	0x3d992581	0.074778564
17	0xbd5c52b7	-0.05378982
18	0xbd405c94	-0.04696329
19	0xbd2fc2a5	-0.042910237
20	0xbc39b4be	-0.011334596
21	0xbe1a75b5	-0.15083964
22	0x3c93250f	0.017962007
23	0x3dd91083	0.105988525
24	0xbd90dabc	-0.0707297
25	0xbd523860	-0.051323295
26	0xbc307851	-0.010770873
27	0xbbb821ac	-0.0056192484
28	0xbcea627f	-0.02861142
29	0xbcaf7d17	-0.021421952
30	0x3d2e0d95	0.04249342
31	0x3d56dd45	0.052457113
32	0xbd2352dc	-0.039873943
33	0x3cadc2d5	0.021211067
34	0xbd318c57	-0.04334673
35	0xba982ed2	-0.0011610633
36	0x3c4784ef	0.01217769
37	0xbcec02ec	-0.028809987
38	0x3b9ec569	0.0048453105
39	0xbd161098	-0.03663692
40	0xbc2bb6d7	-0.010480604
41	0xbb939515	-0.004503856
42	0xbd850c04	-0.064964324
43	0x3c2eabb0	0.010661051
44	0x3b163055	0.0022916992
45	0xbd546e05	-0.051862735
46	0xbd2be57d	-0.041966904
47	0x3c768131	0.01504545
48	0xbd99a052	-0.07501282
49	0x3d3578f2	0.044304796
50	0x3b902c0a	0.004399781
51	0xbc8224f4	-0.015886761
52	0x3e08bb02	0.13352588
53	0x3a88a3c6	0.0010424785
54	0x3d0343ef	0.03204721
55	0x3d00f594	0.0314842
56	0xbd8bcd2e	-0.06826244
57	0xbd73bcb1	-0.059506122
58	0x3d6394d5	0.05556186
59	0xbc6da9fd	-0.01450586
60	0x3c5bece0	0.013423175
61	0xbd21146d	-0.03932612
62	0x3d95315b	0.072848044
63	0xbd1149e8	-0.035470873
64	0x3d700957	0.058602657
65	0xbd6ac097	-0.057312574
66	0x3c81be03	0.015837675
67	0xbd2d972e	-0.042380504
68	0xbd1e5075	-0.03865095
69	0x3d055f1b	0.032561403
70	0xbd866ac1	-0.065633304
71	0x3d776e9e	0.060408227
72	0x3cb8c339	0.022554027
73	0xbd675f9a	-0.056487657
74	0x3b9177b9	0.004439321
75	0xbd886cce	-0.06661378
76	0x3c07ed78	0.008296363
77	0x3dc35ad9	0.09538812
78	0xbc305af1	-0.01076387
79	0x3c083f49	0.00831587
80	0xbd17d55d	-0.037068713
81	0xbb93a116	-0.004505287
82	0x3d4be6c0	0.049780607
83	0xbc6bfe49	-0.014403888
84	0xbd705a7a	-0.058680035
85	0x3cdb0381	0.02673507
86	0xbd9f654f	-0.07782995
87	0xbc1a869a	-0.009431506
88	0x3cea0852	0.02856842
89	0x3ce95d6c	0.02848693
90	0xbdac8b44	-0.08425
91	0xbd74779d	-0.059684385
92	0xbcf1575f	-0.029460607
93	0xbd624986	-0.0552459
94	0xbd67c294	-0.05658205
95	0x3b9542c4	0.004555078
96	0x3d8e6b49	0.06954057
97	0xbd27df55	-0.04098447
98	0xbd6a611a	-0.05722151
99	0x3cb613f9	0.02222632
100	0x3c4cd2db	0.012501444
101	0x3c9ef3e0	0.019403398
102	0x3cac4ec6	0.021033656
103	0x3d9d1df1	0.076717265
104	0x3c99c8d6	0.018772524
105	0xbe1f61bc	-0.15564626
106	0x3d0637bb	0.032767992
107	0x3cf9c65f	0.030490099
108	0x3ca96235	0.020676712
109	0x3d8b2361	0.06793857
110	0x3d11cfbf	0.035598513
111	0xbc26e64a	-0.010186741
112	0x3c75d9ce	0.015005542
113	0x3d69fa3b	0.057123404
114	0xbcddff83	-0.027099377
115	0x3d0dfcfd	0.034665097
116	0xbbf22cb8	-0.007390585
117	0x3ceb5f77	0.028732045
118	0x3d2003c3	0.039066087
119	0xbda08ed2	-0.07839741
120	0xbc383036	-0.011241963
121	0xbacb44fc	-0.001550823
122	0xba6952e7	-0.0008900598
123	0x3d209b8a	0.039210834
124	0xbaa26641	-0.0012390093
125	0xbd50edf9	-0.0510082
126	0x3b35296c	0.0027643098
127	0x3ce42a44	0.027852185
128	0xbb37cb49	-0.0028044751
129	0x3ca106cd	0.019656563
130	0x3c54a3ab	0.012978475
131	0xbca0cf68	-0.019630149
132	0xbb0c8a9f	-0.002144493
133	0xbd841dc3	-0.06450989
134	0x3bed55c9	0.0072428924
135	0x3cfdaeca	0.030967135
136	0xbd15bdc5	-0.03655793
137	0xbbdf8336	-0.0068210615
138	0xbc8c1979	-0.01710199
139	0xbd608678	-0.05481574
140	0xbd6f0864	-0.05835761
141	0x3bf067ae	0.0073365783
142	0x3ddd8f55	0.10818354
143	0xbd4481c2	-0.04797531
144	0x3d3ec1b7	0.04657146
145	0x3c767b4e	0.015044047
146	0x3cb971a2	0.022637192
147	0x3d714d70	0.05891174
148	0xbcd2f80f	-0.02575305
149	0x3c5e0be9	0.013552644
150	0x3d252853	0.04032166
151	0x3d396d45	0.045270223
152	0xbd075a8a	-0.03304533
153	0x3cd69689	0.026194828
154	0x3d0fef1b	0.035140138
155	0x3d7409b0	0.05957955
156	0xbd0eb911	-0.03484446
157	0xbcdcd9ee	-0.026959386
158	0x3d627d08	0.05529502
159	0x3d8c9a66	0.06865387
160	0xbd26e380	-0.040744305
161	0xbce46872	-0.027881835
162	0xbca437b4	-0.020046093
163	0x3ca4ff3f	0.020141242
164	0x3c152303	0.009102586
165	0x3cc3e7df	0.023914276
166	0xbd2b2559	-0.041783664
167	0x3d219669	0.039450083
168	0xbd83f83f	-0.064438336
169	0x3c49ed56	0.012324652
170	0x3d316f09	0.043318782
171	0xbd625c3f	-0.055263754
172	0x3c530eb0	0.01288192
173	0x3be7822c	0.0070650782
174	0x3de9bf9c	0.114135
175	0xbd4b22f9	-0.0495939
176	0x3d48e442	0.04904581
177	0x3bc6b8f7	0.00606453
178	0x3d91243b	0.070869885
179	0xbc39b3f2	-0.011334406
180	0x3d346a9c	0.044046983
181	0x3c758244	0.014984671
182	0xbd3eeb0b	-0.046610873
183	0x3d06f8d8	0.03295216
184	0x3d569146	0.052384637
185	0xbd2f88fe	-0.042855255
186	0xbc9520e7	-0.018204166
187	0x3db8eef9	0.090299554
188	0x3d9d489f	0.07679867
189	0x3db671a3	0.08908393
190	0xbd0a9acd	-0.033839036
191	0x3cbce818	0.02305989
192	0xbde46785	-0.11152557
193	0x3d59ae93	0.053145003
194	0x3d863dbc	0.06554744
195	0xbce442aa	-0.02786382
196	0xbd3b5df2	-0.04574389
197	0x3deae8ad	0.11470161
198	0xbc488ac8	-0.012240119
199	0xbcf41305	-0.029794225
200	0x3c8f307f	0.01747918
201	0x3b1cce55	0.0023926694
202	0x3cefd8a1	0.029278101
203	0x3c458ad0	0.012057021
204	0xbd390a7e	-0.04517602
205	0x3d987d34	0.074457556
206	0xbce499f6	-0.027905446
207	0x3b83ac26	0.0040183244
208	0x3d425b2c	0.04745023
209	0xbd7ca379	-0.061679337
210	0x3c55ff03	0.013061288
211	0xbd93a606	-0.07209401
212	0x3d9a132e	0.075231895
213	0xbd255fed	-0.040374685
214	0xbd5e5f12	-0.054289885
215	0xbcb60410	-0.022218734
216	0x3d7d2502	0.06180287
217	0xbd32cfa1	-0.04365504
218	0xbcd1ac14	-0.025594749
219	0x3cf2cb44	0.02963794
220	0xbcce9a0d	-0.025219942
221	0xbdc1cb29	-0.09462578
222	0xbd0a67fa	-0.033790566
223	0xbca25741	-0.019816997
224	0xbd89904c	-0.067169756
225	0x3cfeef29	0.0311199
226	0x3c443cf7	0.011977426
227	0xbd96ddb3	-0.073665045
228	0xbdd46658	-0.10371083
229	0xbd1aa58e	-0.03775554
230	0xbcbc943e	-0.023019906
231	0x3d66622f	0.05624598
232	0xbd80d1c1	-0.062900074
233	0x3d82def2	0.0639018
234	0x3def6e1d	0.11690924
235	0xbd380c9e	-0.044933908
236	0x3d3543cf	0.04425412
237	0x3d800b9f	0.062522165
238	0x3da55b73	0.08074083
239	0xbd3a6d3f	-0.04551434
240	0x3db57c4b	0.088615976
241	0xbd09aba5	-0.03361096
242	0x3d7e41fc	0.062074646
243	0x3c38bdcc	0.01127572
244	0x3d183c3c	0.03716682
245	0x3d6ac8f1	0.05732054
246	0x3cf43854	0.029812016
247	0x3ccc4f5a	0.024940182
248	0xbcdea6d7	-0.027179165
249	0xbb9d791e	-0.004805698
250	0x3c997c7c	0.018736117
251	0x3ccc019f	0.024903117
252	0x3cba8f06	0.022773277
253	0x3d409a09	0.0470219
254	0x3d05fc3c	0.032711253
255	0x3b9da4f7	0.004810925

network_body._body_endoder.seq_layers.0.bias f4 [128]
0	0x3c2b473c	0.010453995
1	0x3c4cb77b	0.012494917
2	0xbb68aa4e	-0.00355019
3	0x3c20ad88	0.009806998
4	0x3cfa62b9	0.030564653
5	0x3c122745	0.008920495
6	0xbab21084	-0.0013585244
7	0x3c9e7a46	0.019345414
8	0x3c73ee67	0.0148883825
9	0xbcab67c2	-0.020923499
10	0x3c08d6f5	0.008352031
11	0xbc1307f0	-0.00897406
12	0x3cab3406	0.02089883
13	0x3d1f2b83	0.038859855
14	0x3be251a7	0.0069067064
15	0x3c4918c9	0.012273976
16	0x3cc0c657	0.023532076
17	0xb9682207	-0.0002213792
18	0xbb929718	-0.004473578
19	0x3cacb4a9	0.02108224
20	0x3cbe23f3	0.023210501
21	0x3bfd0fc4	0.0077228267
22	0x3d819a8e	0.06328307
23	0x3c4144c5	0.011796181
24	0x3b8b734a	0.004255687
25	0x3c7f6ab2	0.015589403
26	0x3d39dc3f	0.04537606
27	0x3c466403	0.012108806
28	0x3cb5433c	0.022126786
29	0xbb27db03	-0.002561272
30	0x3d1cb954	0.03826268
31	0x3d156e7a	0.03648231
32	0x3c7f8d6e	0.015597684
33	0x3c89971c	0.016795687
34	0xbc4f7cf1	-0.012664066
35	0xbcfa724f	-0.030572085
36	0x3c22e8ef	0.009943231
37	0xbc5f258a	-0.01361979
38	0x3cdb4211	0.026764901
39	0x3b8e7a8a	0.004348104
40	0x3c0b6f0e	0.008510364
41	0x3c41abbe	0.011820732
42	0x3d4f378c	0.050590083
43	0x3bd08ae9	0.0063642156
44	0x3ca0c77a	0.019626368
45	0x3caa6fb8	0.020805225
46	0xbd0476de	-0.032339923
47	0x3c07e17f	0.008293509
48	0x3c594d7a	0.013263101
49	0x3d080668	0.033209234
50	0x3c72559c	0.014790919
51	0x3ca0832d	0.0195938
52	0x3cbac708	0.022799984
53	0x3aa385cd	0.0012475789
54	0xbbe42b5b	-0.006963176
55	0xbbf6d6d8	-0.0075329356
56	0xbd144e4c	-0.036207482
57	0x3b997178	0.004682716
58	0x3d6dd686	0.058065914
59	0xbb95ab47	-0.004567537
60	0xbb764833	-0.0037579655
61	0x3a8ffe36	0.0010985795
62	0x3d0aad05	0.03385641
63	0x3c96c0d6	0.018402498
64	0x3cc6d7a4	0.024272747
65	0xbc3c4f0b	-0.011493455
66	0xbc943f00	-0.018096447
67	0x3c944619	0.018099831
68	0x3c67308d	0.0141106965
69	0x3cd7d743	0.026347762
70	0x3c5be576	0.013421407
71	0x3d3ace6c	0.045607015
72	0x3cc75ae9	0.024335342
73	0x3cc1ae3c	0.023642652
74	0xbc074987	-0.008257276
75	0x3a9fcea4	0.0012192321
76	0x3cb16909	0.02165653
77	0x3cf5f928	0.030026034
78	0x3c44aef2	0.012004601
79	0x3d0380bc	0.032105193
80	0xbcba84af	-0.022768347
81	0xbc0929d8	-0.008371793
82	0x3c11b64e	0.0088935625
83	0xbc4ceebf	-0.012508093
84	0x3cb06bdf	0.021535812
85	0xbb1ae86a	-0.0023637065
86	0x3c2d0aa3	0.010561618
87	0x3c5e4bb5	0.013567855
88	0x3c341876	0.01099216
89	0x3c962067	0.018325998
90	0x3ba67c21	0.0050807153
91	0x3b6c9f96	0.0036105863
92	0x3c9e7102	0.019340996
93	0xb96299a1	-0.00021610271
94	0x3c749771	0.014928685
95	0xbb57d5b2	-0.0032933769
96	0x3d2f94a9	0.042866383
97	0x3cf5a7fd	0.02998733
98	0x3c97b61b	0.018519452
99	0xbc3828ee	-0.011240227
100	0xbb942f01	-0.004522205
101	0x3d01eef0	0.03172201
102	0x3d11aa1d	0.035562623
103	0x3c7bcbf5	0.015368451
104	0x3cec66e2	0.028857652
105	0xbb232302	-0.0024892692
106	0x3c075567	0.008260108
107	0x3ac64cb9	0.0015129066
108	0x3aa56ffc	0.0012621875
109	0x3cc64abc	0.024205558
110	0x3c79009f	0.015197902
111	0x3d05152e	0.0324909
112	0x3beef556	0.00729243
113	0xbc3ce0fb	-0.011528249
114	0xbb934a27	-0.0044949236
115	0x3ccaddbb	0.024763932
116	0x3bf69f17	0.007526289
117	0x3c84e53c	0.016222589
118	0x3c143030	0.009044692
119	0x3d238edb	0.03993116
120	0x3ba55421	0.0050454293
121	0xbbdb4a3d	-0.0066921995
122	0x3cb35600	0.021891594
123	0x3c09c3bb	0.008408482
124	0xbb022ae7	-0.0019861998
125	0x3b67a075	0.0035343443
126	0xbba3f80f	-0.005003936
127	0x3c1fef01	0.009761573

network_body._body_endoder.seq_layers.2.weight f4 [128, 128]
0	0x3c0e7904	0.008695845
1	0x3dc53755	0.09629694
2	0xbdef14e9	-0.1167391
3	0x3cc3f1d9	0.023919033
4	0xbdb9b43c	-0.0906758
5	0xbdd97463	-0.10617902
6	0x3d907e36	0.07055323
7	0x3d59bfbd	0.05316137
8	0xbe5b5f75	-0.21423133
9	0x3e09a0b8	0.13440216
10	0xbc74a282	-0.014931323
11	0xbe1f9f31	-0.1558807
12	0x3ddd15a2	0.10795142
13	0xbd559550	-0.05214435
14	0x3d84e753	0.06489434
15	0xbd137ac0	-0.036005735
16	0xbb0af308	-0.0021201987
17	0x3e8f8f36	0.2803895
18	0x3d01ec67	0.03171959
19	0xbd824ce6	-0.063623235
20	0x3dbd14b3	0.09232464
21	0xbd1740c3	-0.036926996
22	0x3cc927af	0.024555055
23	0x3d02dea4	0.031950608
24	0x3cff7981	0.031185867
25	0xbe067eaa	-0.13134256
26	0x3d9b898f	0.075945966
27	0x3dfad6f6	0.12248032
28	0xbc8d2905	-0.017231474
29	0x3d91ed14	0.07125297
30	0xbe2a113f	-0.16608141
31	0xbe11788a	-0.14206138
32	0xbe0938c1	-0.13400556
33	0xbd0dc8a9	-0.034615193
34	0x3c04d59c	0.008107569
35	0xbd2a37e8	-0.041557223
36	0xbd265b27	-0.040614273
37	0x3cb3ccf7	0.02194832
38	0x3dd5e2ad	0.104436256
39	0xbcd008bc	-0.02539479
40	0xbd4fc942	-0.050729044
41	0xbe4735ef	-0.19454168
42	0xbe607c7b	-0.21922486
43	0x3dedc10a	0.11609085
44	0x3c68bf55	0.014205773
45	0xbcbcfc9f	-0.023069678
46	0xbdce2086	-0.10064797
47	0x3d1840b9	0.0371711
48	0x3d25aff8	0.04045102
49	0xbdaf80ea	-0.0856951
50	0x3dca280d	0.0987092
51	0xbda8e41a	-0.08246632
52	0xbd8c06a2	-0.068372026
53	0xbca631b0	-0.020287365
54	0x3d4ebd73	0.05047364
55	0x3cac6cb9	0.021047937
56	0x3ce0f4a9	0.027460413
57	0x3e3479eb	0.17624633
58	0xbd5fca8d	-0.054636527
59	0xbc928ec9	-0.01789035
60	0xbd844053	-0.06457581
61	0xbd64986d	-0.055809427
62	0x3e07a59d	0.1324677
63	0x3d82cbfc	0.06386563
64	0xbc99269c	-0.018695168
65	0x3cb9baa4	0.022672005
66	0x3b8ef364	0.0043625105
67	0xbb0d87fc	-0.0021595946
68	0x3daba383	0.08380797
69	0xbd988a26	-0.07448225
70	0xbdf7b69b	-0.12095376
71	0x3d59406c	0.053039953
72	0xbc640558	-0.01391729
73	0xbe37140e	-0.17878744
74	0xbdaa4c35	-0.083153166
75	0x3e01eeeb	0.12688796
76	0x3c56a5ce	0.013101054
77	0x3d96a776	0.073561594
78	0xbd48f596	-0.049062334
79	0x3c99be6c	0.018767558
80	0x3db55986	0.08854966
81	0x3c1f1337	0.009709171
82	0xbc606034	-0.013694812
83	0xbe3125d8	-0.17299592
84	0xbe4e293c	-0.20132917
85	0x3c565ca9	0.013083615
86	0x3d89617e	0.06708048
87	0xbce17c21	-0.02752501
88	0xbd4d5746	-0.05013206
89	0x3cb615e1	0.02222723
90	0xbc882c8f	-0.01662281
91	0xbdc522d7	-0.09625786
92	0x3d9d440d	0.07678995
93	0x3e17e4f2	0.1483343
94	0x3dc8ad47	0.09798675
95	0x3d5044f4	0.05084701
96	0x3d48dfcf	0.049041566
97	0xba4858b6	-0.00076426135
98	0x3d0c0e23	0.03419317
99	0xbdaa45a7	-0.083140664
100	0x3e054952	0.1301625
101	0xbdb3e971	-0.0878476
102	0xbe09b6ce	-0.1344864
103	0xbd6ad7bf	-0.057334658
104	0x3d4894a2	0.048969872
105	0x3d4fc414	0.050724104
106	0xbd420dcc	-0.04737644
107	0xbdbeea72	-0.09322061
108	0x3d95b278	0.07309431
109	0xbd8cbaef	-0.06871592
110	0x3dbfaf85	0.093596496
111	0xbddd607d	-0.10809419
112	0x3d25f268	0.04051438
113	0x3da191f0	0.078891635
114	0x3d723b23	0.05913843
115	0xbc9fe268	-0.019517139
116	0xbcc220d6	-0.023697298
117	0x3c2745f4	0.010209549
118	0x3de1f608	0.11033255
119	0xbddb2e5b	-0.10702201
120	0xbc15c250	-0.009140566
121	0xbda683ef	-0.08130633
122	0x3de62f97	0.11239546
123	0x3ded534c	0.11588153
124	0x3b862795	0.004094074
125	0x3d2ee16d	0.04269545
126	0xbda12d9e	-0.07870029
127	0x3c99d1a9	0.018776732
128	0x3b797f06	0.0038070097
129	0xbdb775da	-0.08958025
130	0x3c58b30a	0.01322628
131	0x3dac76af	0.084210746
132	0x3d0c3280	0.034227848
133	0xbcde5836	-0.027141672
134	0xbdc0a1f1	-0.09405888
135	0x3d7241d0	0.059144795
136	0xbdcc7eba	-0.09985109
137	0x3d2c0f41	0.042006735
138	0xbdb20fc2	-0.08694412
139	0xbdd6f083	-0.10495093
140	0xbc301517	-0.010747216
141	0x3dc45bc9	0.09587819
142	0xbca8ee8a	-0.020621557
143	0xbd5b5260	-0.053545356
144	0xbdc3f6f7	-0.09568589
145	0x3ce30ccd	0.027716065
146	0x3dbaa7ea	0.09114058
147	0x3e124a93	0.1428626
148	0x3bc823f4	0.0061078016
149	0x3d31d33e	0.043414347
150	0xbdc0cf91	-0.0941459
151	0x3e455343	0.19270043
152	0x3d7dc2f2	0.061953492
153	0x3d85ffc3	0.06542923
154	0xbc82dc42	-0.015974168
155	0xbd124ac3	-0.03571583
156	0xbda53b4b	-0.0806795
157	0xbe56a070	-0.2095964
158	0xbda25706	-0.07926755
159	0xbdb6656e	-0.08906065
160	0xbd17d560	-0.037068725
161	0xbdb5e429	-0.08881409
162	0xbd558880	-0.05213213
163	0x3a97b4d7	0.001157428
164	0x3dfde48c	0.123971075
165	0xbaa2bce4	-0.0012415913
166	0x3be8ffee	0.0071105873
167	0xbd14d7b9	-0.03633854
168	0x3dbc0304	0.09180263
169	0x3cedcc65	0.029028127
170	0x3e192511	0.14955546
171	0x3e012e49	0.12615313
172	0xbe642f48	-0.22283661
173	0xbe234e92	-0.15947941
174	0xbdd1fb39	-0.10252995
175	0x3c9513dd	0.018197948
176	0xbce2db29	-0.027692394
177	0xbd30a5ad	-0.04312675
178	0x3d943331	0.072363265
179	0xbdb42e20	-0.0879786
180	0x3d6738e8	0.056450754
181	0xbde02327	-0.10944205
182	0xbd6bc07e	-0.05755662
183	0x3b4a022c	0.0030824048
184	0xbcad6cac	-0.021169983
185	0x3e3250c1	0.17413618
186	0xbc406f02	-0.011745216
187	0x3d60d467	0.054890063
188	0xbd437fbc	-0.04772924
189	0x3d8e0258	0.06934041
190	0xbbef0228	-0.007293958
191	0xbdc9a856	-0.09846561
192	0xbd3850c4	-0.0449989
193	0x3d6518ae	0.05593174
194	0xbd4f7010	-0.05064398
195	0x3c76d8e1	0.015066356
196	0x3cbc7b98	0.023008153
197	0x3d41af03	0.047286045
198	0x3c71c677	0.01475679
199	0x3daea556	0.08527629
200	0xbd93d72d	-0.07218776
201	0xbdd389b1	-0.10328997
202	0x3d50eb3b	0.051005583
203	0xbd9a4546	-0.07532744
204	0xbda88900	-0.08229256
205	0xbc94417d	-0.018097633
206	0x3d6211b5	0.055192668
207	0x3e08fb83	0.13377194
208	0xbc94c5db	-0.018160751
209	0x3cf44fb4	0.029823162
210	0x3c3ee3ff	0.011651038
211	0x3d1fca5d	0.039011348
212	0xbd6949cd	-0.056955148
213	0x3d76a5b5	0.060216624
214	0xbbd9d8d6	-0.0066481633
215	0x3d9c76e4	0.07639864
216	0xbc8d2a6c	-0.017232142
217	0xbdeee994	-0.11665645
218	0xbb8650f9	-0.004099008
219	0x3d5c9d4d	0.05386095
220	0xbd967ed8	-0.07348412
221	0x3d280387	0.04101899
222	0xbac4d71a	-0.0015017719
223	0xbd7ec005	-0.062194843
224	0x3ce52c60	0.027975261
225	0x3cb0aa2a	0.021565516
226	0x3e16698c	0.146887
227	0x3e27e577	0.16396128
228	0xbe0bfdf4	-0.13671094
229	0x3d6acc16	0.057323538
230	0xbdb43323	-0.08798816
231	0x3da6348c	0.08115491
232	0xbe17719f	-0.14789437
233	0x3d4b533b	0.04963992
234	0x3e43ef5a	0.19134274
235	0x3d97dd7c	0.07415292
236	0x3df2cbe8	0.11855298
237	0xbd6bbb4c	-0.057551667
238	0x3e3648e2	0.1780124
239	0x3dcc0857	0.09962528
240	0xbccdc56f	-0.025118558
241	0xbcd55c3e	-0.026044961
242	0xbcff4fd2	-0.031165991
243	0x3d92dcc5	0.07171015
244	0x3d0a5324	0.033770695
245	0x3c220cea	0.009890774
246	0xbe5addab	-0.21373622
247	0x3e13441f	0.14381455
248	0x3c0196a2	0.007909449
249	0xbdb7f5a9	-0.08982403
250	0xbde77ca6	-0.11303072
251	0x3da864b3	0.08222332
252	0xbd078ea2	-0.03309501
253	0x3d9cfa35	0.07664911
254	0xbd952e62	-0.072842374
255	0x3d8de251	0.06927932

network_body._body_endoder.seq_layers.2.bias f4 [128]
0	0xbcd223a4	-0.02565176
1	0x3ca68037	0.02032481
2	0xbb2fe5ea	-0.002683992
3	0xbbfb1198	-0.0076620094
4	0x3d15bc31	0.036556426
5	0x3cb3d9d7	0.02195446
6	0xbab99e8c	-0.001416163
7	0xbc530c13	-0.012881297
8	0xbc79e879	-0.01525318
9	0xbbad445a	-0.005287689
10	0xbbe56fee	-0.0070018684
11	0x3c9a8a33	0.018864727
12	0x3bdd66b2	0.006756627
13	0x3d0d7271	0.034532968
14	0x3c51f3bd	0.012814459
15	0x3b3919e6	0.0028244196
16	0x3c9fe3c6	0.01951779
17	0x3b2db480	0.0026505291
18	0x3d47b15d	0.04875313
19	0x3cb4af0e	0.022056129
20	0x3c9b98e4	0.018993802
21	0x3caa612f	0.020798294
22	0xbbdb500f	-0.0066928933
23	0x3c13331f	0.008984356
24	0x3cbc48e3	0.022983974
25	0x3c2a558f	0.010396375
26	0x3d079235	0.03309842
27	0xbba220ae	-0.0049477434
28	0x3bdf0429	0.006805916
29	0xbaf14cb3	-0.0018409699
30	0x3c53b143	0.01292068
31	0xbb8340ff	-0.004005551
32	0xbccc4fb1	-0.024940344
33	0x3ce4f912	0.027950797
34	0x3bfc33fd	0.007696627
35	0xbc0769be	-0.008264957
36	0xbc162250	-0.009163454
37	0x3baad877	0.005213793
38	0xba45168a	-0.0007518312
39	0x3c140a09	0.009035596
40	0xbc909436	-0.017648797
41	0x3c6e6352	0.014550047
42	0xbba39d1e	-0.004993095
43	0x3d5e4d95	0.054273207
44	0x3b56a2f1	0.003275093
45	0x3d0ab1d7	0.033861008
46	0xbc0a47f6	-0.008440008
47	0x3d14884a	0.036262788
48	0x3c3f6350	0.011681393
49	0xbb98bdd4	-0.004661301
50	0x3b236494	0.0024931775
51	0xbc93b049	-0.018028395
52	0x3bc9f5a6	0.006163317
53	0x3cfcf61e	0.030879077
54	0x3b7071b7	0.0036688873
55	0x3c94d7f4	0.01816938
56	0x3c1b35e7	0.009473301
57	0x3c4a469d	0.012345937
58	0xbc41810c	-0.011810552
59	0x3b68ed7f	0.003554195
60	0xbd3185eb	-0.043340605
61	0x3cbd4b1f	0.02310711
62	0x3d1a9486	0.0377393
63	0x3d733948	0.0593808
64	0x3d30095c	0.042977676
65	0x3cc56922	0.024097983
66	0x3cc404a7	0.023928
67	0xbc7814d3	-0.015141684
68	0x3c2dbbb0	0.01060383
69	0x3ccd5872	0.025066588
70	0x3c8bf5df	0.017085014
71	0x3d25a64b	0.040441792
72	0x3cfea8ac	0.031086288
73	0x3c176c2b	0.009242098
74	0x3c8b393b	0.016995063
75	0x3d207984	0.039178386
76	0xbccd6507	-0.025072588
77	0x3cc22de2	0.02370352
78	0x3c26d663	0.01018295
79	0x3c6c352b	0.014416973
80	0x3ce034cb	0.027368924
81	0x3be1c9c9	0.0068905097
82	0x3c5be441	0.013421119
83	0x3b9eda90	0.004847832
84	0x3c162e88	0.009166367
85	0x3d01ce55	0.031690914
86	0x3c3410b9	0.010990315
87	0xbcf9cb3b	-0.030492416
88	0x3ca21fc6	0.019790541
89	0x3d4a1360	0.049334884
90	0x3cf9c073	0.030487275
91	0x3c83776a	0.016048152
92	0xbc8cb058	-0.017173931
93	0x3b049d14	0.0020235227
94	0x3b933edb	0.004493577
95	0x3b43a5a6	0.0029853373
96	0x3cb56410	0.02214244
97	0xbcc7abb5	-0.024373868
98	0x3cafadcb	0.021445176
99	0xbcb55998	-0.022137448
100	0xbcadf35b	-0.021234205
101	0x3d057b73	0.032588433
102	0x3c48ee06	0.01226378
103	0x3c12dc46	0.00896365
104	0x3d0378a4	0.032097474
105	0xbb825626	-0.003977555
106	0x3bb1cb28	0.0054258294
107	0xbc5e0cff	-0.013552903
108	0x3d013269	0.031542215
109	0x3d3b7ef3	0.045775365
110	0x3d12aa53	0.035806965
111	0x3cbdfa0b	0.023190519
112	0x3ca62331	0.020280452
113	0x3c9cbee4	0.019133992
114	0x3bd438b3	0.0064764856
115	0x3d203afe	0.03911876
116	0x3d262736	0.04056474
117	0xbceff06b	-0.029289445
118	0x3a653e8a	0.0008744976
119	0xbcebefe4	-0.028800912
120	0x3cbf743c	0.023370855
121	0x3ab0de5c	0.0013494003
122	0xbbb97343	-0.005659492
123	0x3d2f4ded	0.042798925
124	0x3cb83ae4	0.022489019
125	0x3c8c2980	0.017109632
126	0x3c269a0f	0.010168566
127	0x3cc2e414	0.023790397

network_body._body_endoder.seq_layers.4.weight f4 [128, 128]
0	0xbc66ff98	-0.014099024
1	0x3e07b162	0.1325126
2	0xbd4dad11	-0.050213877
3	0x3d058f98	0.032607645
4	0x3df563af	0.11981904
5	0xbc91126a	-0.017708976
6	0x3db42fe7	0.08798199
7	0xbd0483d2	-0.032352276
8	0x3dcc51c4	0.09976533
9	0x3cc2217e	0.023697611
10	0x3cbf7475	0.02337096
11	0x3e1b7995	0.15183099
12	0x389cb6a4	7.472679e-05
13	0xbd8b4bcf	-0.06801569
14	0xbdb59991	-0.08867181
15	0x3e97e5a8	0.296674
16	0xbe05181d	-0.1299748
17	0x3cd984d8	0.026552603
18	0x3d19b32c	0.037524387
19	0x3d8a7f39	0.06762547
20	0x3d9f9b1b	0.07793256
21	0xbca4f0cb	-0.02013435
22	0xbcbf0084	-0.023315676
23	0xbd84215f	-0.064516775
24	0xbdaed881	-0.085373886
25	0xbc2c57de	-0.010518996
26	0x3dde95ea	0.108684376
27	0xbc006b23	-0.007838043
28	0x3d176eef	0.03697103
29	0xbda86669	-0.08222658
30	0x3c8db057	0.017296
31	0x3e2eb8fb	0.17062752
32	0x3d9f531d	0.077795245
33	0xbd10c4c7	-0.03534391
34	0xbd16c4a5	-0.03680863
35	0x3d822623	0.0635493
36	0xbdeadff9	-0.11468501
37	0x3d258c26	0.04041686
38	0xbceb7226	-0.028740954
39	0x3d0356b5	0.032065112
40	0xbe38b2fd	-0.18037029
41	0xbdb9f4d9	-0.09079904
42	0xbd7cdb54	-0.061732605
43	0xbdc868ee	-0.09785639
44	0xbd025f0e	-0.031828932
45	0xbd417187	-0.04722741
46	0xbd8158a3	-0.06315734
47	0xbc70b083	-0.014690521
48	0xbdd8685b	-0.10566779
49	0x3e2b56a7	0.16732274
50	0xbd7d1a90	-0.06179291
51	0x3d011d0e	0.03152185
52	0xbd8913e5	-0.06693248
53	0xbd3fce80	-0.046827793
54	0x3b5af40b	0.003340962
55	0xbd49f7ba	-0.049308516
56	0x3e3a3f77	0.18188272
57	0xbbb5568b	-0.0055339984
58	0x3e3abc6d	0.18235941
59	0x3dff6b12	0.12471594
60	0xbe0b9158	-0.13629663
61	0xbe050083	-0.12988476
62	0x3de7a617	0.11310976
63	0x3e283b10	0.1642878
64	0x3ce5f0c6	0.028068911
65	0xbd952bb3	-0.072837256
66	0x3d053fb9	0.032531474
67	0xbe3195e1	-0.1734233
68	0x3d39d490	0.04536873
69	0x3c879d49	0.016554492
70	0x3cdf2b48	0.027242318
71	0xbdde2b50	-0.10848105
72	0x3ddd726e	0.10812841
73	0x3d16a48e	0.036778025
74	0x3d2781f2	0.04089541
75	0x3d0ca9ac	0.0343415
76	0x3dad2a6e	0.084553584
77	0x3d35f2d4	0.044421032
78	0x3e2473d9	0.16059817
79	0x3e2a5007	0.1663209
80	0xbdcb3805	-0.09922794
81	0x3c7fd409	0.015614518
82	0x3c84b565	0.016199777
83	0x3dbf2697	0.09333532
84	0xbcb417d9	-0.021984028
85	0x3db70303	0.08936121
86	0xbcad3d20	-0.02114731
87	0xbc83b847	-0.016079081
88	0x3e25185e	0.16122577
89	0x3e002a96	0.12516245
90	0x3d33f45b	0.043934207
91	0xbdf9eef7	-0.12203782
92	0x3c4e56cd	0.012593937
93	0x3dd8117b	0.10550209
94	0x3c741fa1	0.014900119
95	0x3c447ab7	0.011992148
96	0x3a946686	0.0011322058
97	0xbe206965	-0.15665205
98	0xbe20a630	-0.15688396
99	0xbd9add50	-0.07561743
100	0x3d84853c	0.06470725
101	0xbd806016	-0.06268327
102	0x3d92a960	0.07161212
103	0x3d9561d6	0.07294051
104	0x3cd96a39	0.026539909
105	0x3d456518	0.048192114
106	0x3d3e0cda	0.046398975
107	0xbd63850b	-0.0555468
108	0xbc55171b	-0.013005997
109	0x3d3e1f24	0.046416417
110	0xbb454fc3	-0.0030107356
111	0x3d6b36dd	0.05742537
112	0x3d6022f3	0.05472083
113	0xbdbfc09d	-0.0936291
114	0xbe013198	-0.12616575
115	0xbb92cd1d	-0.004480018
116	0x3a8145ea	0.0009862755
117	0xbdb9cb65	-0.090719976
118	0xbc70825a	-0.014679516
119	0xbd50c8d4	-0.050972775
120	0xbe144305	-0.14478691
121	0xbe06920e	-0.13141653
122	0xbe47ed2e	-0.1952407
123	0xbd779615	-0.060445864
124	0xbe3079dd	-0.17233987
125	0x3dc7c7e6	0.097549245
126	0xbc184f34	-0.009296227
127	0x3e6064db	0.21913473
128	0x3d180ef5	0.03712364
129	0xbd579559	-0.052632663
130	0xbd5c0e08	-0.05372432
131	0x3cb3f7f4	0.02196882
132	0xbe202e18	-0.15642583
133	0x3c8ab352	0.01693121
134	0xbe158ba5	-0.14604051
135	0xbe2c166b	-0.16805427
136	0xbcf037ca	-0.029323477
137	0xbba0da27	-0.0049088183
138	0x3e6ab576	0.22920784
139	0xbb6e8b71	-0.0036399032
140	0xbd7e3df2	-0.062070794
141	0x3d4a496c	0.049386427
142	0xbe374b1b	-0.17899744
143	0xbddc633e	-0.107611164
144	0xbd69e902	-0.05710698
145	0x3dc23753	0.094832085
146	0xbdc33ba1	-0.09532858
147	0x3e1fafed	0.15594454
148	0xbdb3577c	-0.08756921
149	0x3de6bdad	0.112666465
150	0x3e0226c8	0.12710106
151	0xbc082874	-0.008310426
152	0xbe7d9f05	-0.24767692
153	0xbd5705ef	-0.052495893
154	0xbdd985a6	-0.106211945
155	0x3dd52653	0.104077004
156	0x3d3980ab	0.045288723
157	0x3d85e14e	0.06537114
158	0x3d4317aa	0.04762999
159	0xbbd35a1b	-0.0064499504
160	0xbe424b91	-0.18974139
161	0x3e0da136	0.13831028
162	0xbe151987	-0.14560519
163	0xbcc184b1	-0.023622843
164	0xbd0e25b8	-0.03470394
165	0xbc6ddb31	-0.014517591
166	0xbd828611	-0.063732274
167	0xbe0384e1	-0.12843658
168	0x3e53a4b1	0.20668294
169	0x3dd256bd	0.1027045
170	0xbde72070	-0.11285484
171	0xbe5162ce	-0.20447847
172	0xbc893b35	-0.016751865
173	0x3ca719e7	0.020398093
174	0xbdfb9b2b	-0.12285455
175	0xbe2ae128	-0.16687453
176	0x3c91d191	0.017800124
177	0x3d27c039	0.040954802
178	0xbda5bb8b	-0.080924116
179	0x3dec325f	0.11533045
180	0xbd786a0a	-0.060648
181	0xbcc6c311	-0.024262937
182	0x3d3d740e	0.046253256
183	0x3c0760a9	0.008262792
184	0x3da41662	0.08012082
185	0xbc1a3ac1	-0.009413422
186	0xbb85ddc3	-0.004085274
187	0x3deb72cc	0.11496505
188	0xb986db50	-0.00025721872
189	0x3e018196	0.1264709
190	0xbd698a39	-0.057016585
191	0xbd1ad406	-0.037799858
192	0xbd89f711	-0.06736577
193	0xbd9cb9d3	-0.07652631
194	0x3d8396fd	0.06425283
195	0xbce8af41	-0.02840388
196	0x3d6fbaa0	0.05852759
197	0x3ce9772b	0.028499207
198	0xbc96a490	-0.018389016
199	0xbe90372b	-0.2816709
200	0xbcb8b991	-0.022549422
201	0x3cd8a123	0.026444023
202	0x3e528d59	0.20561732
203	0xbe0be2a5	-0.13660677
204	0xbdd1516d	-0.10220609
205	0xbd374475	-0.04474302
206	0x3b1b0a32	0.00236572
207	0xbe55c141	-0.20874502
208	0xbdc60bc0	-0.0967021
209	0x3d1082f8	0.03528115
210	0x3d2f592b	0.042809647
211	0xba9bb563	-0.0011879619
212	0x3dc9bffb	0.098510705
213	0x3dead2ee	0.11466013
214	0x3db3922c	0.087681144
215	0x3d50bb30	0.050959766
216	0xbe5a9787	-0.21346866
217	0x3bc940d9	0.0061417636
218	0x3c283358	0.010266148
219	0xbdac0fae	-0.08401428
220	0x3d278015	0.040893633
221	0x3e7f1ce3	0.24913363
222	0xbdd03c93	-0.101678036
223	0xbc0ac23d	-0.008469162
224	0x3bf348ef	0.007424466
225	0xbdfbf846	-0.12303214
226	0x39c7ef95	0.0003813474
227	0xbd9cd2de	-0.07657407
228	0x3d90c7c0	0.07069349
229	0xbdb7092b	-0.089372955
230	0xbce66845	-0.028125891
231	0xbcb6d6be	-0.022319194
232	0xbd842a8c	-0.06453428
233	0x3d975492	0.073891774
234	0xbd096a5e	-0.033548705
235	0xbd5e157e	-0.054219715
236	0xbcd52fa4	-0.026023693
237	0xbd36b651	-0.044607464
238	0xbdbaf958	-0.0912959
239	0xbd41888f	-0.047249373
240	0xbdb31488	-0.087441504
241	0x3ceab7b5	0.028652051
242	0xbe07c2d1	-0.1325791
243	0x3d6feefe	0.05857753
244	0xbd55cdef	-0.052198347
245	0xbdedfc41	-0.11620379
246	0x3e0d50bf	0.13800333
247	0xbdc57519	-0.09641475
248	0xbabac4d6	-0.0014249336
249	0xbd4164cd	-0.04721527
250	0xbe460dd5	-0.19341214
251	0xbd85c6dc	-0.0653207
252	0xbdfa46cb	-0.12220534
253	0xbe2aba15	-0.16672547
254	0x3d542851	0.05179626
255	0x3e155af8	0.14585483

network_body._body_endoder.seq_layers.4.bias f4 [128]
0	0xbc01d693	-0.007924694
1	0xbc77ec82	-0.015132071
2	0xbbfaa421	-0.00764896
3	0x3c84a3e4	0.01619143
4	0x3c84c25c	0.016205959
5	0x3cf0fe4c	0.029418133
6	0x3ba1aa83	0.0049336567
7	0x3b8b28a6	0.004246789
8	0xbc17239f	-0.009224801
9	0xbc915f10	-0.017745525
10	0x3c7acb81	0.015307308
11	0xbb80fa6b	-0.003936102
12	0x3c285efe	0.010276554
13	0x3c2df874	0.010618318
14	0x3b203872	0.0024447707
15	0xbc530263	-0.012878987
16	0xbcbc3d07	-0.022978319
17	0xbc681969	-0.0141662145
18	0xbc5cb7e1	-0.0134715745
19	0x3c0078ab	0.0078412695
20	0xbd28e61f	-0.041235086
21	0xbbcd0297	-0.0062564122
22	0xbc5d9e70	-0.013526544
23	0x3c43de4e	0.011954857
24	0x3c6afcac	0.014342468
25	0xbc0e875c	-0.008699264
26	0x3c3e40c5	0.011612122
27	0x3d3b1457	0.045673694
28	0xbc5b8eb8	-0.013400726
29	0xbc8c9539	-0.017160999
30	0x3cb165dc	0.021655016
31	0xbc3371a1	-0.010952384
32	0xba20b31b	-0.00061302044
33	0x3ae122db	0.0017176525
34	0xbc6c3648	-0.0144172385
35	0x3d474b3a	0.048655726
36	0xbc66991f	-0.014074593
37	0x3d352991	0.044229094
38	0xbc1f27f1	-0.009714113
39	0x3c3711f2	0.011173712
40	0x3b96fc07	0.0046076807
41	0x3c4a8a70	0.012362108
42	0xbc3796a3	-0.011205348
43	0x394f2562	0.00019754985
44	0x3d20ad53	0.039227795
45	0x3d42e611	0.04758269
46	0xbc58a441	-0.013222755
47	0x3c15fd81	0.009154678
48	0x3ce2fff5	0.02770994
49	0x3cb7c1d2	0.022431288
50	0xbc5df790	-0.013547793
51	0xbbd1fd7c	-0.0064083915
52	0x3ae367ed	0.0017349698
53	0x3c564009	0.013076791
54	0x3d6ffae4	0.058588877
55	0x3c3a89e5	0.011385416
56	0x3a3cf7f0	0.00072085764
57	0x3bb32277	0.005466755
58	0x3c64892c	0.01394872
59	0x3d3f847d	0.04675721
60	0x3d495220	0.049150586
61	0x3c583c53	0.013197976
62	0x3c3dddee	0.011588557
63	0x3d071cf3	0.032986593
64	0x3d5ec30e	0.054385237
65	0x3c740a6c	0.014895063
66	0x3ab95a4d	0.0014141292
67	0x3d08f494	0.033436373
68	0x3c3ff69d	0.011716512
69	0xbc02c89e	-0.007982401
70	0x3cc1c07e	0.023651358
71	0x3bcde590	0.0062834695
72	0x3b85822f	0.004074357
73	0x3ca7ea6b	0.020497521
74	0xbbb5b121	-0.005544797
75	0x3b088c12	0.0020835442
76	0x3bf84e8c	0.007577723
77	0x3c51f373	0.0128143905
78	0x3d1e9392	0.038714953
79	0x3baaa0a9	0.0052071405
80	0x3c8e529e	0.01737338
81	0xbd101713	-0.035178255
82	0x3ce9c167	0.028534604
83	0xbc294bc3	-0.010333004
84	0x3b93afea	0.0045070546
85	0x3a670ed4	0.000881416
86	0x3d093bb8	0.033504218
87	0xbccb3fb2	-0.024810646
88	0x3a860422	0.001022462
89	0x3cf4b81a	0.029872943
90	0x3bb0cca0	0.005395487
91	0x3ca6519e	0.02030259
92	0xbc82acdb	-0.015951565
93	0x3c9c9b0d	0.019116903
94	0x3c90e3b3	0.0176867
95	0x3c678a13	0.014132041
96	0xbb266bf3	-0.0025393933
97	0x3d0ce7c3	0.034400713
98	0x3ae6a9f7	0.0017598261
99	0x3c291c23	0.01032165
100	0x3cc6270e	0.024188545
101	0xbcbd4fb4	-0.023109294
102	0xbca14405	-0.019685755
103	0x3c2975b4	0.010343004
104	0xbb7ba2cd	-0.0038396597
105	0x3c349c28	0.011023559
106	0x3ce52954	0.027973808
107	0x3cc03d34	0.023466684
108	0xbcc8e3fc	-0.024522774
109	0xbcbf4d41	-0.023352267
110	0x3c0b75a9	0.008511939
111	0x3cd78c61	0.026312055
112	0x3d49c146	0.049256586
113	0xbb38a83f	-0.0028176454
114	0x3c0f3891	0.008741514
115	0xbcdf5e8f	-0.027266769
116	0xbc17c5a1	-0.009263427
117	0xbc425b09	-0.011862525
118	0xbba68c57	-0.005082648
119	0xbb0e73b8	-0.0021736454
120	0xbc86ee2b	-0.01647099
121	0x3ce61b28	0.028089121
122	0x3b913698	0.004431557
123	0x3cb48cd2	0.022039805
124	0x3b129bb5	0.002237064
125	0x3be3de55	0.0069539943
126	0xbc08c724	-0.00834826
127	0x3c5bcfb0	0.013416216

action_model._continuous_distribution.log_sigma f4 [1, 18]
0	0x3e41661e	0.18886611
1	0x3d977aa3	0.07396438
2	0x3de4394d	0.11143742
3	0x3e0a58d5	0.13510449
4	0x3df3786a	0.118882015
5	0x3c93bc24	0.018034048
6	0xbdf18d4e	-0.1179453
7	0x3cde0e2e	0.02710637
8	0x3e2cb63c	0.16866392
9	0x3e19f075	0.15033133
10	0x3dc2ed3d	0.09517906
11	0x3e32ad07	0.17448817
12	0x3c9e1084	0.019294985
13	0x3db3f6be	0.08787297
14	0x3e2f8c1e	0.17143294
15	0x3d9d2647	0.076733164
16	0x3de338df	0.11094832
17	0x3e53e317	0.20692097

action_model._continuous_distribution.mu.weight f4 [18, 128]
0	0xbd487590	-0.04894024
1	0xbc3e2901	-0.011606456
2	0x3d668a68	0.05628434
3	0xbcbd8f5d	-0.02313965
4	0x3d1a4c86	0.037670635
5	0xbda817dd	-0.082076766
6	0x3d3ce3af	0.046115573
7	0xbae69606	-0.0017592318
8	0x3cd551fa	0.026040066
9	0x3d77b7a3	0.060477864
10	0xbcc3eaf1	-0.02391574
11	0x3d9b36e4	0.07578829
12	0xbd8ea0d8	-0.06964272
13	0xbc107b50	-0.0088184625
14	0xbc5cfa63	-0.013487431
15	0x3d0429c7	0.032266404
16	0xbd03e3c4	-0.032199636
17	0x3d7fdfa1	0.06246913
18	0xbc316827	-0.0108280545
19	0x3c293163	0.010326716
20	0x3c01c4aa	0.0079204235
21	0x3d351c13	0.044216227
22	0x3c134c85	0.008990412
23	0xbaf2d1dd	-0.0018525679
24	0x3d95da05	0.073169746
25	0xbd0149a5	-0.031564374
26	0x3dbedf47	0.093199305
27	0xbbd4beb1	-0.0064924587
28	0x3a212972	0.00061478384
29	0xbd4dbd7e	-0.050229542
30	0x3bd8f13c	0.0066205543
31	0x3baea1e6	0.0053293584
32	0x3d06cbe7	0.0329093
33	0x3d4b4cf4	0.049633935
34	0xbace5e84	-0.0015744721
35	0x3ceb264e	0.028704789
36	0x3cd0f0a7	0.025505377
37	0x3cc61553	0.02418009
38	0x3caf6b5d	0.0214135
39	0xbd23711c	-0.03990279
40	0xbd27d52c	-0.04097478
41	0x3c9d3365	0.019189546
42	0x3ccd6564	0.02507276
43	0x3cb87e0c	0.022521041
44	0x3c5c05d9	0.013429129
45	0x3c978d47	0.018499983
46	0xbd88fa34	-0.066883475
47	0xbd45008e	-0.048096232
48	0x3c510ef3	0.012759912
49	0x3cd1eeb7	0.025626523
50	0xbcddf53b	-0.027094474
51	0x3be2d4ee	0.006922356
52	0xbd4d0bb7	-0.05006
53	0x3d66d726	0.056357525
54	0x3c906831	0.017627807
55	0x3ccc6447	0.02495016
56	0xbbc2d427	-0.0059457007
57	0xbd14173c	-0.03615497
58	0x3da30002	0.07958986
59	0xbb922a9d	-0.0044606463
60	0x3d4f2222	0.05056966
61	0x3d028d3e	0.03187298
62	0x3d64c4ec	0.05585186
63	0xbbc700f1	-0.0060731103
64	0xbcd8f89c	-0.026485734
65	0x3cb02eb2	0.021506641
66	0xbc8f2aba	-0.017476428
67	0xbcd90ca5	-0.026495287
68	0xbd2c6f7f	-0.04209852
69	0xbd44a7c3	-0.048011553
70	0x3ba734f4	0.005102748
71	0x3cc0fb22	0.02355725
72	0xbd3a2d55	-0.04545339
73	0xbcd9dbc5	-0.026594052
74	0x3cee1995	0.029064933
75	0xbcccf43c	-0.025018804
76	0xbd17bfaa	-0.03704802
77	0x3d14411a	0.0361949
78	0xbd2d2be1	-0.042278174
79	0x3bad4dec	0.00528883
80	0x3b2d2856	0.0026421747
81	0xbc8782cc	-0.016541861
82	0xb786969b	-1.6044176e-05
83	0x3cb43e30	0.02200231
84	0x3cd55b49	0.026044505
85	0x3c1724b5	0.00922506
86	0x3c320451	0.010865287
87	0x3b68c1d2	0.0035515917
88	0xbca2b1c0	-0.019860148
89	0xbcf2ce40	-0.029639363
90	0x3b435159	0.0029803126
91	0xbbbd6e79	-0.0057809916
92	0x3b9b92e9	0.0047477377
93	0xbd63eb44	-0.05564429
94	0xbd801439	-0.06253857
95	0xbd263187	-0.040574577
96	0x3cb0d129	0.02158411
97	0x3cc41404	0.023935325
98	0xbc46e5d8	-0.01213976
99	0xbc3760c7	-0.011192507
100	0x3da74881	0.08168126
101	0xbcb37901	-0.021908285
102	0x3d592262	0.053011306
103	0x3d7d8cfb	0.061902028
104	0x3d212f15	0.03935154
105	0x3be97378	0.0071243607
106	0x3d83d48f	0.06437027
107	0x3a918d83	0.0011104796
108	0xbc67d262	-0.01414928
109	0xbc8f5975	-0.017498711
110	0x3d958114	0.0730001
111	0xbd610d20	-0.054944158
112	0xbd6e1cf6	-0.058133088
113	0xbc13c86c	-0.009019952
114	0xbd10e7c1	-0.035377268
115	0xbc9c6ec6	-0.01909579
116	0xbd580cc0	-0.052746534
117	0x3ce77f27	0.028258873
118	0x3cfb85c7	0.030703438
119	0x3d1c8f09	0.038222346
120	0xbba80f65	-0.0051287883
121	0xbcb4f214	-0.022088088
122	0x3d5de1b4	0.054170325
123	0xbbcdd53e	-0.006281524
124	0xbb09aa14	-0.0021005915
125	0x3bd9aae0	0.0066426843
126	0xbc9072a3	-0.017632788
127	0xbc90980d	-0.017650628
128	0xbbd7feac	-0.0065916386
129	0xbc7a7fe0	-0.015289277
130	0x3bed4621	0.007241026
131	0x3cbeaa40	0.02327454
132	0xb88a9a8a	-6.609138e-05
133	0xbc5f350f	-0.01362349
134	0xba2c13f4	-0.00065642525
135	0xbd14ba8e	-0.036310725
136	0xbd1c9446	-0.038227342
137	0xbd6dff3e	-0.058104746
138	0xbcd2846c	-0.02569791
139	0xbd0ff93c	-0.035149798
140	0x3c8fcef5	0.01755474
141	0x3d6890d2	0.056778736
142	0x3cc01e04	0.023451813
143	0xbcd4565d	-0.025920087
144	0xba94b4f3	-0.0011345431
145	0xbc9b50fc	-0.018959515
146	0x3b5f48c0	0.0034070462
147	0x3c814b64	0.01578302
148	0xbc45e40a	-0.0120782945
149	0x3d2bee63	0.04197539
150	0x3bc5a6a2	0.006031827
151	0x3d63f34a	0.05565194
152	0xb95a9949	-0.00020847203
153	0xbc7df374	-0.015499938
154	0x3cf07a74	0.029355265
155	0x3dad7ba6	0.0847085
156	0xba971346	-0.001152613
157	0xbc95ab34	-0.018270113
158	0xbc03fd59	-0.008056008
159	0x3cc14e08	0.023596779
160	0xbd8920c8	-0.06695706
161	0xbabf7c3e	-0.0014609171
162	0xbc193ebc	-0.009353336
163	0x3c5f43e6	0.013627028
164	0xbae646cb	-0.0017568705
165	0x3d2f97f1	0.042869512
166	0xbbccb6a4	-0.0062473584
167	0xbcbc14ea	-0.022959191
168	0xbd843029	-0.06454498
169	0xbbb4937b	-0.005510745
170	0x3c058350	0.008148983
171	0xbc953ecd	-0.018218422
172	0x3d5a8d07	0.05335715
173	0x3ba2554d	0.0049540163
174	0xbcbbb688	-0.022914186
175	0xbc549e89	-0.012977251
176	0xbd4fca38	-0.05072996
177	0xbd29c790	-0.041450083
178	0xbbd7ebf5	-0.0065894076
179	0x3c1153de	0.008870093
180	0xbcb71af3	-0.022351718
181	0x3d05440b	0.032535594
182	0x3d1bfacc	0.038080975
183	0x3c4d22b8	0.012520485
184	0xbcca51ab	-0.024697145
185	0xba22a839	-0.00062048767
186	0x3c3406a9	0.010987916
187	0xbc2c343b	-0.0105105
188	0x3dc9f7c6	0.09861712
189	0xbd536005	-0.051605243
190	0xbc3d77a5	-0.01156417
191	0x3c39e489	0.011345991
192	0xbc42233b	-0.01184922
193	0xbbb87d9f	-0.0056302096
194	0x3b1cd550	0.0023930855
195	0xbd0c2c47	-0.034221914
196	0xbd1f5383	-0.038898002
197	0xbbe0208b	-0.006839817
198	0x3d11bf61	0.035582904
199	0xbd53ef97	-0.051742163
200	0xbd0cd708	-0.034384757
201	0xbd29090e	-0.0412684
202	0xbd32c70a	-0.04364685
203	0xbd086b02	-0.033305176
204	0x3d2e0bcb	0.042491715
205	0xbc9936a8	-0.01870282
206	0xbc3f5165	-0.011677121
207	0xbc58c48d	-0.013230455
208	0x3cd5d460	0.026102245
209	0xbcb24b89	-0.021764534
210	0x3c57f064	0.013179872
211	0x3cc3f65f	0.02392119
212	0x3c94a554	0.01814524
213	0x3d0af77b	0.033927422
214	0x3d039a43	0.032129537
215	0xbcb90d4f	-0.022589354
216	0x3bf9304a	0.0076046335
217	0x3bfb0ded	0.007661572
218	0xbd2f541c	-0.042804822
219	0xbca56447	-0.020189418
220	0xbb3391fc	-0.0027400246
221	0x3d451afc	0.048121437
222	0x3c3e4e2e	0.011615319
223	0x3d5c2fad	0.053756405
224	0xbd56ea5b	-0.052469593
225	0x3c12f28d	0.008968961
226	0x3c2a4fad	0.010394973
227	0xbb5cb5be	-0.0033677663
228	0x3cd082cd	0.025452996
229	0x3bdcc976	0.006737883
230	0xbbceb453	-0.0063081174
231	0x3d525b8a	0.05135683
232	0xbcfa2c31	-0.03053865
233	0xbd276611	-0.040868822
234	0xbcbe904d	-0.023262167
235	0xbc581514	-0.013188619
236	0xbc4781dd	-0.012176958
237	0x3c4f8627	0.012666262
238	0xbcc8e21b	-0.024521878
239	0x3caa6081	0.02079797
240	0x3c638023	0.013885531
241	0x3ce6d871	0.02817938
242	0xbb8a575f	-0.004221841
243	0xbb5ab14f	-0.0033369844
244	0xbce6c0ce	-0.028168108
245	0xbbab8ae8	-0.005235065
246	0x3c5cebb6	0.013483932
247	0xbd637d70	-0.05553955
248	0xbc86a0d9	-0.01643412
249	0x3ccbd067	0.024879647
250	0xbc825d34	-0.015913583
251	0xbd433e1d	-0.047666658
252	0x3c4e9566	0.012608862
253	0xbcb54795	-0.02212886
254	0x3c1bb712	0.009504097
255	0x3d10c1d2	0.03534109

action_model._continuous_distribution.mu.bias f4 [18]
0	0x39651b28	0.00021849258
1	0x3c02b2f5	0.007977237
2	0xbd16ba9f	-0.03679907
3	0xbc2cd6e2	-0.010549279
4	0xbc586178	-0.013206832
5	0x3be623be	0.007023304
6	0x3c0eb76e	0.008710725
7	0x3bd1eaba	0.0064061554
8	0x3d8265fa	0.06367107
9	0x3b975e30	0.0046193823
10	0xbb895389	-0.0041908664
11	0x3be7a796	0.0070695383
12	0xbbb0283d	-0.0053758905
13	0x3b7b9c7f	0.003839284
14	0xbb7f2df3	-0.00389373
15	0x3ccbc5d4	0.024874605
16	0xbad50170	-0.0016251039
17	0x3ba425a8	0.005009372
