results/playTest1/Dueler.onnx (onnx, 402609 bytes, 19 tensors)

network_body.observation_encoder.processors.0.normalizer.running_mean f4 [14]
00000000: fc95 6f3f 77d8 763f b2a6 713f f065 773f
00000010: 071d 713f 6b6f 773f 7f25 743f d448 783f
00000020: 154c 743f f286 783f 2fe9 763f 8f4e 793f
00000030: e8ca 763f 3163 793f
0.93588233 0.9642405 0.9439498 0.9663992 0.9418492 0.96654385 0.95369714 0.96986127
0.9542859 0.9708091 0.9644956 0.97385496 0.9640336 0.9741698

network_body.observation_encoder.processors.1.normalizer.running_mean f4 [14]
00000000: aea3 6e3f 2608 763f 9ffe 6f3f 9982 763f
00000010: 2551 6f3f cf51 763f 22f1 723f 12bb 773f
00000020: 87f6 713f 0739 773f 47af 753f 2bbc 783f
00000030: 1720 753f 0e41 783f
0.93218505 0.96106184 0.93747896 0.96293026 0.9348319 0.9621858 0.9489919 0.9676982
0.94516796 0.9657139 0.95970577 0.9716212 0.9575209 0.96974266

network_body.observation_encoder.processors.2.normalizer.running_mean f4 [435]
00000000: 2db9 2541 3109 b43d 9316 96bf 2bb5 2541
00000010: 60f4 b03d 4424 dfbf 3c71 2541 e6f6 843d
00000020: fa07 863f 3c6d 2541 3288 7e3d 931e ed3f
00000030: cea1 2441 d5ef 7a3d cd44 973f 6f9f 2441
00000040: 4683 723d 3599 d63f d4ee 2441 6b47 b13d
00000050: 6dc6 a43f 7aec 2441 e75f af3d 6ac6 cf3f
00000060: b76d 2341 7007 4c3d 2069 dabc a287 2341
00000070: eddd 493d a007 26be 4010 c73d 65cb 573c
00000080: 5140 12bd 4e0c f83d e22b 9dbc 272d c73c
00000090: 95f2 3a3c ca30 7bbc 5a66 d83c 1ba7 3c3d
000000a0: f2f0 f03f 1a3d 063e f395 053f c2f2 933d
000000b0: f75a 3c3f a213 a63f 88c3 f4bf f75a 3c3f
000000c0: a213 a63f e7f9 85bf 3ffb d73e ee32 943f
000000d0: ec26 1740 3ffb d73e ee32 943f 14df 183f
000000e0: 1e4d b23e 1bf0 703f 16cb 0840 1e4d b23e
000000f0: 1bf0 703f 694e 523f 888e 363f 6024 9d3f
00000100: bfd0 de3f 888e 363f 6024 9d3f a8ec 9b3f
00000110: 19c6 b73e de9b 273f e7ca 42be a6c8 b63e
00000120: b10c 293f 60e7 3cbd 78c6 593c a90f bd3d
00000130: 06ea 00be adbf 273d 9c13 b93c fb84 d03c
00000140: 8b13 60bc 97e8 463c d665 24bc 2ce6 92bb
00000150: b1fe f03f 48ef fd3d 1644 043f 9f09 2841
00000160: 1296 b63d 0819 98bf 6905 2841 2262 b33d
00000170: 392a e2bf b8c0 2741 9dde 863d cbc9 873f
00000180: 7bbc 2741 68fd 803d bd46 f03f 60ee 2641
00000190: dd80 7e3d 0d42 993f dceb 2641 07d8 753d
000001a0: 2e70 d93f 7d3c 2741 93c6 b33d 81fc a63f
000001b0: f439 2741 48cc b13d 0795 d23f 7eb7 2541
000001c0: 2a46 4f3d 4f95 00bd 6cd5 2541 6ef8 4c3d
000001d0: 82da 2fbe 116e cf3d a3b6 593c 2a7b 12bd
000001e0: bbc6 fe3d 5959 acbc ff7f d33c c7df 4e3c
000001f0: 824f 97bc a3b5 d13c 0cd3 3f3d 0e4c f43f
00000200: eda5 083e e388 073f a5b3 923d 42fc 3e3f
00000210: 4a65 a83f 752e f8bf 42fc 3e3f 4a65 a83f
00000220: ced8 87bf 52ff da3e b844 963f 3943 1940
00000230: 53ff da3e b844 963f 8501 1b3f 7fca b43e
00000240: 5f4d 743f 13b4 0a40 7fca b43e 5f4d 743f
00000250: 2a3e 553f 1a1b 393f 1b56 9f3f 39ed e13f
00000260: 1a1b 393f 1b56 9f3f 051a 9e3f d4bb ba3e
00000270: 886b 2a3f 8000 53be 66b7 b93e 837b 2c3f
00000280: 2476 4bbd 7af6 5c3c 8b72 c53d e02c 05be
00000290: 45ef 2a3d 73df d43c 4a45 e33c 060d 87bc
000002a0: 92f4 6c3c b6cd 0dbc 50bb f8ba 905c f43f
000002b0: 5b1e 013e 1735 063f 769a 2a41 5767 b93d
000002c0: 1248 9abf de95 2a41 5a09 b63d c87d e5bf
000002d0: 7150 2a41 7cf7 883d 5ba8 893f d14b 2a41
000002e0: 9cd9 823d 54c0 f33f c97a 2941 8233 813d
000002f0: 9f65 9b3f 1378 2941 4d71 793d f88c dc3f
00000300: 13ca 2941 ad86 b63d 7e65 a93f 59c7 2941
00000310: 1d73 b43d 19aa d53f c140 2841 86d5 523d
00000320: dbfe 16bd dc62 2841 bf47 503d 906a 3bbe
00000330: 99e1 d83d abcc 5f3c 42e3 12bd db7d 033e
00000340: 23b7 c3bc 8013 e93c 0205 733c d3af d3bc
00000350: 6e77 c53c d2e4 503d 9107 f83f d45b 0b3e
00000360: 11bb 093f 98d0 913d aee6 413f 6ff7 aa3f
00000370: 70f8 fbbf aee6 413f 6ff7 aa3f b9eb 89bf
00000380: 3a57 de3e fb8f 983f 3a9a 1b40 3a57 de3e
00000390: fb8f 983f 575f 1d3f 168d b73e 3508 783f
000003a0: 2ed2 0c40 168d b73e 3508 783f 9b7f 583f
000003b0: 8dee 3b3f d2c4 a13f 3660 e53f 8dee 3b3f
000003c0: d2c4 a13f eb83 a03f f7f9 bd3e 6272 2d3f
000003d0: 1b68 65be dfe8 bc3e 7548 303f f327 58bd
000003e0: d492 653c 2b52 cf3d 120f 0abe 43c7 2d3d
000003f0: 0670 eb3c 9298 f23c 3000 96bc 2634 a83c
10.357709 0.087908156 -1.1725639 10.35673 0.08640361 -1.7432942 10.340145 0.06492405
1.0471184 10.339169 0.062141605 1.8524956 10.289503 0.061263878 1.1817871 10.288924
0.059207223 1.6765505 10.308308 0.086562 1.2873055 10.307734 0.08563214 1.6232426
10.214286 0.04981178 -0.026661456 10.2206135 0.04928391 -0.16213846 0.09719896 0.013171052
-0.03570587 0.12111722 -0.019185964 0.024313523 0.011410375 -0.015331456 0.026415993 0.0460578
1.8823531 0.13109246 0.5218193 0.07224037 0.735763 1.2974741 -1.9122171 0.735763
1.2974741 -1.0466889 0.42183873 1.1578043 2.3617506 0.42183873 1.1578043 0.5971539
0.3482446 0.9411637 2.1373954 0.3482446 0.9411637 0.82150894 0.71311235 1.2276726
1.7407454 0.71311235 1.2276726 1.2181597 0.35893324 0.6547221 -0.19022714 0.35699958
0.6603499 -0.046119094 0.013291948 0.092315026 -0.12589273 0.04095428 0.022592358 0.025454035
-0.013676534 0.012140415 -0.010034045 -0.004483005 1.8827726 0.12399155 0.5166639 10.502349
0.089153424 -1.1882639 10.501321 0.08758952 -1.7669135 10.48455 0.06585429 1.0608457
10.483516 0.062983334 1.8771588 10.433197 0.062134612 1.1973282 10.432583 0.060020473
1.698736 10.452268 0.087781094 1.3045808 10.451649 0.08681542 1.645173 10.357298
0.050604023 -0.03139239 10.364605 0.05004161 -0.17173198 0.101284154 0.013288173 -0.03576199
0.124402486 -0.021038698 0.02581787 0.012626595 -0.01847053 0.025599306 0.04683213 1.908571
0.13344546 0.5294325 0.07163171 0.74603665 1.3155911 -1.9389178 0.74603665 1.3155911
-1.0613039 0.4277292 1.1739721 2.394728 0.42772922 1.1739721 0.60549194 0.35310742
0.9543056 2.1672409 0.35310742 0.9543056 0.8329798 0.7230698 1.2448152 1.765052
0.7230698 1.2448152 1.235169 0.36471426 0.6657033 -0.2060566 0.36272734 0.67375964
-0.049673215 0.013486499 0.09640988 -0.130054 0.04173209 0.025985455 0.027743 -0.016485702
0.014462607 -0.008655002 -0.0018976722 1.9090748 0.12609236 0.5242476 10.66271 0.09052914
-1.2053244 10.661589 0.088885024 -1.792901 10.644639 0.06687829 1.0754503 10.64351
0.06389162 1.9043069 10.592477 0.063086525 1.2140387 10.591815 0.060899068 1.723052
10.611835 0.08912406 1.3234098 10.611169 0.088110186 1.6692535 10.515809 0.051473163
-0.036864143 10.524136 0.050849672 -0.18302369 0.10589904 0.0136596365 -0.03586126 0.12840979
-0.023891037 0.028451681 0.014832737 -0.025840675 0.0241048 0.05099947 1.9377309 0.13609248
0.53801066 0.07119864 0.75742614 1.3356761 -1.9685192 0.75742614 1.3356761 -1.0775062
0.43425924 1.1918939 2.4312882 0.43425924 1.1918939 0.614736 0.35849828 0.9688752
2.2003284 0.35849828 0.9688752 0.8456971 0.73410875 1.263819 1.7919986 0.73410875
1.263819 1.2540258 0.3710477 0.6775266 -0.22402994 0.36896417 0.6886056 -0.052772474
0.014012057 0.10123094 -0.13482311 0.04242636 0.02873994 0.029613767 -0.018310636 0.020532679

network_body.observation_encoder.processors.3.normalizer.running_mean f4 [14]
00000000: 7b90 6f3f 70b9 763f 4b93 703f 0306 773f
00000010: fe5e 703f 9901 773f 0878 733f fa19 783f
00000020: a2f6 723f 2dd4 773f 342b 763f d121 793f
00000030: fa7a 753f b57e 783f
0.93579835 0.96376705 0.9397475 0.9649355 0.93894947 0.9648681 0.9510503 0.9691464
0.9490758 0.9680813 0.9615967 0.97317225 0.9589077 0.9706834

network_body._body_endoder.seq_layers.0.weight f4 [128, 477]
00000000: 4f0e a83d 39df f2bc 9bed 963c 41c2 45bd
00000010: a237 51bd e357 f53a 7d57 443d f893 b5bc
00000020: 4e8f 1a3d edfb dabc 036a 4e3c 6ff6 3dbd
00000030: 8246 3e3d a2d3 e73a 0ddf 503c d8c2 75bd
00000040: 9265 c13c eda7 8b3d 9f69 713c e807 b03c
00000050: f5c5 053d 7043 313d e167 e43b 39fa 243d
00000060: de7c 383d 0f9d bb3b 29a2 673d f437 0dbd
00000070: 6465 46bd 707a a43d 9530 853d 25de 8e3c
00000080: ac7d b4bb 7a38 31bd f09d 713c f692 b0bd
00000090: 731b 9e3c e387 72bd 290a 033d 3e9a 803d
000000a0: deb8 68bc 8081 4e3d 05f3 083d 0a77 92b9
000000b0: 3266 d43c 9967 90bb 8969 153d f5a6 d73b
000000c0: 145a 633d 3a65 c43c a79c 36bd f3a5 873c
000000d0: 943f 93bd 5cd4 ee3d 1951 0cb9 ad1b 2e3c
000000e0: 3d40 573c cb5b 803d 6ad6 54bd eb59 553d
000000f0: 7133 c6bd 1a2a ea3d e6bb 143c af7f b83d
00000100: b804 41bb a915 083d 83a0 ebbb b81f 2e3d
00000110: 55c5 fe3b d779 213d c7a5 e43b ecf9 253d
00000120: 2501 ea3c 876e 25bd 0816 95bd 358a 013d
00000130: 0a0d 773b 74e3 af3c b08e e93c c79b c53c
00000140: d202 953c d8b2 ffbd 502f a33c ed38 c3bc
00000150: 3e96 373d ad1f c93b da32 fe3c 6fdd f93c
00000160: 4026 3f3c 396d e2bd 6a9d f63c a74e b4bb
00000170: 9e39 f9bb 41ab 7ebd f34d 273d c8d5 22bd
00000180: 5873 743c 9a4b f7bd 19e1 163d b298 29bc
00000190: 3fa3 503d dca3 36bb 00eb c2bd 9f21 653d
000001a0: c430 a8bc c287 d3bd 7f0f 803a eb6d 033c
000001b0: b989 ba3c f079 bcbb c8eb 54bc 8da4 3c3d
000001c0: 58e7 803c 84c1 11bd 5764 a53c 9fc6 a13c
000001d0: 72f8 12bd 7995 b43d 0a6b eab9 4015 57bd
000001e0: 41ad ce3d a6df d8bb 0b2d f63c 85c4 34bd
000001f0: ed0b b53d 3323 9fbb 808d 60ba f09d f1bc
00000200: 06a3 d23d 04a9 8cbd b18e 4fbd ae4b 2c3d
00000210: 2e11 9e3d 7ea0 333c 1c13 8f3b 058e 193d
00000220: b2e6 1b3d c164 813c 1fa7 37bc ce72 46bc
00000230: 5214 183c aa34 763d 6d23 2fbd 709a 043d
00000240: 24aa 2cbd 9d86 87bd e476 fabc e4f3 8f3c
00000250: 4711 b4bd a607 d6bd 63b4 d2bc b7bb 753d
00000260: e32a febc 85c4 c73c b974 88bd a2f2 9fbd
00000270: fa8e acbc 46f4 483a d4cc 303c dacd 2f3b
00000280: b1f6 f23c 0991 1abc 9914 a3bd 8150 243d
00000290: f788 d03d 6a51 e3bc 95c3 713c 8fe6 6b3d
000002a0: 0371 d9bc ea6c 97bd ce24 c7bd e31b 24bd
000002b0: 44b4 adbc 3981 adbc 2af0 bb3c c340 fbbd
000002c0: 5599 32bc 30d7 a13c c1e2 9c3c 0970 2cbc
000002d0: 3f79 783d 8a0b 5fbc 145d 513c 9366 16bd
000002e0: 320b ebbc ffdc a5ba f995 18bd b90b 12bd
000002f0: e148 943c 1d51 49bd 0096 96bd dbaa 56bc
00000300: b600 1abd 9933 3f3d c450 d8bc 9231 60bd
00000310: 62d8 6cbc 4576 1dbb c097 a23d b885 cbbc
00000320: 9e7e 27bc 0801 f1bc da7a 12bd f19b 553d
00000330: 4191 cc3c 1e07 a0bd 66ac e63c fd6b 613d
00000340: b12b 4f3d 6669 aabd cd67 9d3c 2752 c53c
00000350: d423 be3a be74 31bd b713 6cbd a70e 613d
00000360: 0239 acbd 56e2 413d 2151 a03d cbe9 643d
00000370: 473f 733d bbc9 003d 2a38 c1bd 3182 89bd
00000380: 5d50 51bc 8f33 aebd 5a27 463d e3fa a93c
00000390: 3779 cf3c 0052 22bd 89d0 613d 6dcf c93c
000003a0: 48b6 b13c ffd5 c73c 9713 263d 171f babd
000003b0: 2f1c 4abc a2df 3b3d 9532 b9bc 1fee a93b
000003c0: 5c61 4abd f6c8 043d c0d3 c03c e03e 1abd
000003d0: 727f e2bc 00cd a3bd 3091 683c 37d8 2d3d
000003e0: f2d5 eabc 1377 05bd b926 dabc b0d4 14bd
000003f0: bdbb 11bd 179f 1b3d 61c3 18bd 5f66 f43b
0.08205854 -0.029647456 0.018423846 -0.048280958 -0.051078446 0.0018718209 0.047934998 -0.022165284
0.037734322 -0.026731456 0.012598517 -0.046377596 0.04645396 0.0017686973 0.012748492 -0.06000027
0.023608003 0.06819139 0.014734655 0.021488145 0.03265949 0.043277204 0.006970391 0.040277693
0.045040958 0.00572551 0.056551132 -0.03447719 -0.048436537 0.080311656 0.06503407 0.017439911
-0.0055081453 -0.04326675 0.014747128 -0.086217806 0.019300198 -0.059211623 0.03199211 0.06279419
-0.014204232 0.05041647 0.033434886 -0.0002793598 0.025927637 -0.004406881 0.0364776 0.006581182
0.055505827 0.02397405 -0.04458299 0.016558623 -0.07189861 0.11661598 -0.00013381652 0.010626716
0.013137874 0.06267508 -0.051962294 0.052087706 -0.096777804 0.114338115 0.009078002 0.09008729
-0.0029452275 0.03322378 -0.0071907653 0.042510718 0.0077749887 0.039422836 0.00697777 0.040521547
0.028564999 -0.04038861 -0.07279593 0.031625945 0.003769698 0.021470763 0.028510422 0.024122132
0.018189821 -0.124852836 0.019920021 -0.023830855 0.044821016 0.0061378093 0.031030107 0.030501096
0.011666834 -0.11055989 0.030104358 -0.00550254 -0.0076057455 -0.06217504 0.040845823 -0.03975466
0.014920078 -0.12074967 0.036835764 -0.010351347 0.050936934 -0.0027868664 -0.09517479 0.055940267
-0.020531066 -0.10328628 0.0009770243 0.008021812 0.02277075 -0.005751841 -0.012995668 0.046055365
0.015735313 -0.03558494 0.020189447 0.01974803 -0.035881467 0.08817572 -0.00044711708 -0.0525105
0.10091639 -0.006618458 0.030050775 -0.044132728 0.08840165 -0.004856491 -0.0008566007 -0.029494256
0.102850005 -0.06868175 -0.05067319 0.04206436 0.077181205 0.010963557 0.0043662917 0.037488956
0.038061805 0.015795114 -0.011209278 -0.0121123325 0.0092821885 0.060108818 -0.042758394 0.032373846
-0.042154446 -0.06617472 -0.03057427 0.01757235 -0.08792358 -0.104506776 -0.02572078 0.059993472
-0.03102631 0.0243857 -0.06662888 -0.078099504 -0.02106427 0.0007665794 0.010791022 0.0026825578
0.029658647 -0.009433993 -0.07962913 0.040115837 0.10182374 -0.027748782 0.014756103 0.057592925
-0.026543146 -0.073938206 -0.09723817 -0.040065657 -0.021204121 -0.021179782 0.022941668 -0.12268212
-0.010900815 0.01975593 0.019151093 -0.010524758 0.060662504 -0.013613591 0.012778539 -0.036718916
-0.028691862 -0.0012654363 -0.0372524 -0.03565571 0.018101158 -0.04914962 -0.07352829 -0.013102259
-0.037598334 0.046680067 -0.0264057 -0.054734774 -0.014455887 -0.0024026793 0.079391 -0.024844036
-0.010223059 -0.029419437 -0.03576169 0.05215067 0.024971606 -0.078138575 0.028158378 0.055034626
0.050578777 -0.083208844 0.019214535 0.024087025 0.0014506527 -0.043324225 -0.05763599 0.054945614
-0.08409311 0.04733499 0.07827974 0.055887025 0.059386518 0.031442385 -0.094345406 -0.06714285
-0.012775508 -0.08505928 0.048377372 0.020749515 0.025326354 -0.039628983 0.055130515 0.024635041
0.021693364 0.024394033 0.040546026 -0.09087961 -0.012335821 0.04586757 -0.022607127 0.005185857
-0.049409255 0.032418214 0.02353847 -0.03765762 -0.027648661 -0.07998085 0.014194772 0.042442527
-0.02866647 -0.03258426 -0.026629793 -0.036335647 -0.03557943 0.037993517 -0.037295703 0.0074584926

network_body._body_endoder.seq_layers.0.bias f4 [128]
00000000: b2ed 18bb a0b6 e239 452b ab3b e9b6 9fba
00000010: 2a26 88ba 2a57 bd3b 02db 263b eb8e 58bb
00000020: a15f 943b e0cb ef3b 9c4b 013c 3c20 993b
00000030: 5e49 90ba c0ef de3b ed34 b63b ca19 603b
00000040: f087 db3b 9714 a7bb be21 a9bb c15b c4bb
00000050: 95ff 113b ef3d 023c ad55 bf3b 59f2 02bb
00000060: dfd1 0b3c 4394 a93b 2144 e9ba 996b 1bbb
00000070: 95b4 063c b27c c43b 68bb 88b9 cb21 cebb
00000080: be58 e93b 2a3f 083c 9abe 043c e9fb db3a
00000090: 3074 093c 26c5 883b 6d09 ad3b 782a 983a
000000a0: 92d1 62bb 1b3d 2ebb fa8d ffbb d3d7 063c
000000b0: 9b1e 8c3b 6be2 013c 7891 b23b 35fd c5bb
000000c0: b2d7 bbbb 686c 003c 6a39 253b 3c16 eabb
000000d0: 8b50 cbbb 6bcf da3b 54c5 f4bb 651a b23b
000000e0: 3be9 f6bb b671 b9ba 68b3 85bb b76f 9f3b
000000f0: 09ff a33b 743b b43b f478 fd3b f689 c9bb
00000100: feda 023c 7958 0d3b 5be1 fa3b 5941 cdb9
00000110: b133 9abb 0311 d33b bfd6 0e3b d94b f83b
00000120: 6244 c9bb 1131 af3a 1231 bfbb 80b2 fe3b
00000130: d16d b5bb 2e91 b63a b452 f7ba 40ce babb
00000140: 7558 c4bb 27f3 ad3b 18dc 883a 5209 96bb
00000150: edb3 ecbb ac53 833a dd42 603b 253f 323b
00000160: 84df 0c3c 83ad e7b9 6f23 f03b 9937 ff3b
00000170: ea95 c5bb 9ffd ed3b d073 adbb 5e86 9f3a
00000180: 8572 c73b 1dd7 ecbb a860 c83b 6951 083c
00000190: 1646 e3bb 6c10 fc3b 9f92 1e3b 913a b5bb
000001a0: ac14 92b8 62a5 033c 6100 a23b 5116 e03b
000001b0: e051 c7bb 26a2 bbb8 e12f b23b e7e3 f93b
000001c0: f8bc f03b 204c fd3b 6e29 1d3b 5d2a c23b
000001d0: 0b04 113c 9fa2 e7bb 71d1 003c eb78 b73b
000001e0: 8ef8 b93b 214f b73b b614 a23b 6e87 163b
000001f0: e1fe d53b 8a9c 803a 1a1a c4bb 5104 553b
-0.0023335037 0.00043242145 0.005223664 -0.0012185249 -0.001038735 0.005778213 0.0025460129 -0.003304417
0.0045280014 0.007318005 0.007891562 0.004673032 -0.0011008193 0.006803483 0.0055605085 0.003419506
0.0066995546 -0.00509889 -0.005161493 -0.005992383 0.0022277583 0.007949336 0.005839071 -0.0019980876
0.008533924 0.005175145 -0.0017796793 -0.0023715256 0.008221765 0.00599631 -0.0002607957 -0.0062906495
0.0071211746 0.008315841 0.008102084 0.0016783449 0.008389518 0.0041738926 0.0052806647 0.0011609336
-0.0034609777 -0.0026586715 -0.0077989073 0.008230167 0.0042761094 0.007927517 0.00544947 -0.0060421475
-0.0057325 0.007838346 0.0025211223 -0.007143764 -0.00620467 0.006677558 -0.0074698124 0.0054352754
-0.0075351275 -0.0014148268 -0.004080225 0.0048656124 0.005004768 0.0055002514 0.007735366 -0.0061504794
0.007986782 0.0021567626 0.007656259 -0.00039149335 -0.004705869 0.006441237 0.002179548 0.007577401
-0.006142185 0.0013366063 -0.005834707 0.0077727437 -0.005536773 0.0013928765 -0.0018869252 -0.0057008564
-0.00599199 0.005308527 0.001044157 -0.004578748 -0.0072235973 0.0010019443 0.003421954 0.0027198282
0.008598212 -0.0004418903 0.0073284428 0.00778861 -0.006029834 0.0072629 -0.005293347 0.0012170782
0.00608665 -0.007227792 0.006115038 0.008320191 -0.006935845 0.0076923873 0.002419628 -0.0055306633
-6.965673e-05 0.008035036 0.004943893 0.006838598 -0.0060827583 -8.947057e-05 0.0054378365 0.007626045
0.0073467456 0.007730022 0.0023980993 0.0059254603 0.008851062 -0.0070689465 0.007862435 0.0055991313
0.005675382 0.0055941497 0.0049463166 0.0022968906 0.006530628 0.0009812277 -0.005984557 0.0032503793

network_body._body_endoder.seq_layers.2.weight f4 [128, 128]
00000000: 9e9f 16bd 755b f2bc 1984 d6bd b801 05be
00000010: 9904 1abd 77b6 c23d c694 a23d d8ac 3a3d
00000020: bcb3 b93d 77af 24be f659 443c e1cf 4cbd
00000030: 3a0b 153e 453c 21be 9b77 ddbc b7fa c03c
00000040: 7c37 f03d e5f9 803d e88e d5bc ee34 28bd
00000050: 3adb 483d 84cb 7a3d a9e2 333e 101b da3c
00000060: f8d9 7cbe bd5e b03b b7d2 d03d ed00 14bd
00000070: 9b2e 1a3e 353d 633d 1451 ffbc afbc 2fbd
00000080: 952d 833c 8f94 af3d c5b0 043e 4dc4 933b
00000090: fb2b 0dbe 23c4 10bd 4d81 19bd 2d5d 0c3d
000000a0: b761 65bd d33d f0bd b0fb 44bd 5f64 e5bd
000000b0: 6e10 89bc e4a2 14bd b2e7 c1bd 5021 a0bd
000000c0: a4ae d63d ab9e a0bd 1de4 a0bd 5452 0c3e
000000d0: 02ea b7bc d5c1 a03b 2e0b 533d 66bd 18bd
000000e0: 57d5 1dbd 98d8 9e3d 4012 8f3d 0913 113d
000000f0: 5864 4f3c fe66 aebd 81f4 e63c 8028 753b
00000100: 8852 bcbc f21f 0f3e dcdb 6dbd 8ef6 b73d
00000110: 0f8e 88bd 7650 0bbe de89 993d 5363 763d
00000120: b99c edbc f2e8 f3bc adf4 d0bd 5778 bdbd
00000130: f5e7 c73d 7ece 8e3d f4b1 92bd bf0c ccbd
00000140: 5720 023e 74d2 283e 7107 943c 8da5 eabc
00000150: 458f ddbc d30d 1dbe 9100 2abe 4ad7 663d
00000160: 43bc b9b9 c242 02be 4c99 27bc 89dd b1bd
00000170: 4028 8cbc e918 a7bd 67e3 92bc 25bf 613b
00000180: 61cb e6bc 3e9c 70bc 41f0 513d 4e88 8d3c
00000190: f9fd 84bd 6443 02bd bbf8 8abd bc7b c13c
000001a0: 151a cdbd fcf0 9a3d 1549 a53d 845f 9fbd
000001b0: 9549 1d3d 2312 7abd 919c 403d 5716 dcbd
000001c0: 28fe 003b f7a3 99bd cc6f a83d ab35 7f3b
000001d0: b455 cdbd 9d8f f2bc a011 383c f175 43bd
000001e0: d048 fbbc 278e 493d 42a2 41be 4c38 d53d
000001f0: fe96 713d 79ed 2ebd 6bd5 38bd f78a f6bd
00000200: 08fc 70bd bbaa 2fbd ec91 99bc cf69 42be
00000210: 1594 d1bd 2564 a53c 570d a73c dcfb 2e3d
00000220: d5b6 7a3d c7cd ba3d 608e 363d 7319 c9bc
00000230: d135 b03d b6fc 1b3d a3c0 f93b 630e 843c
00000240: 71b0 92bc e412 e23c 83ba ae3d 70a8 0c3e
00000250: dedd 5b3d 53c9 70be 572e e73c 1ad7 bd3d
00000260: 5f9c 0fbd 6b8f 4cbc 4736 413e d256 773d
00000270: 16be f13d 3d97 44bd c194 65ba d3d7 07be
00000280: 6428 a4bd 5300 3dbd 31ba b43d f62c 70bd
00000290: 7edf fb3d eb7e 1c3d c268 ca3d 65ca 9ebd
000002a0: 7d45 9e3c 37dc 9dbc d462 08be 4749 193d
000002b0: 57d5 df3d a4c1 15bd 55cc fe3b 236f 863d
000002c0: 7a39 183e e93f fb3d 5499 d4bd 8411 413d
000002d0: 292c c4bd d399 8f3d a488 363d e702 fdbc
000002e0: a80d 93bd aace 3cbd f833 863c 9574 a73c
000002f0: d1e6 023e c742 ef3d 2530 69be cab5 16bd
00000300: 5335 b43d a518 ce3c 0fe9 cebd 80f9 5b3c
00000310: b942 b23c d8f8 f13c 29b0 023d 9f74 0bbe
00000320: fcba f43c 3a84 923d 378f 8bba b8d7 74bd
00000330: 562a 3b3d fcf8 b7bd 1045 b63d 33b0 2ebc
00000340: 5be6 843c 1c40 3b3c a645 09bd 83be bf3d
00000350: 36e8 a1bd b175 f53c d99b c8bd 7393 07be
00000360: d1ee c2bd b11c 1d3d b9ac 2fba 009e 853d
00000370: 4552 123e 2f4c 233c ffa3 07be 3b1d d53d
00000380: 9d7e 843b 59dc 01bc 0def 20be dbaa 29bd
00000390: 10a1 193e c33d 0b3e fbae a83d 3fbe 61bd
000003a0: c83b 223d 78fa 89bb 72c4 203d c0bf f0bd
000003b0: 0ca5 ab3d 4da5 72bd 74fe 723d 79c1 c0bd
000003c0: 0e39 25bd fb68 6e3d 982e 823c 1942 a5bd
000003d0: e78a 58bd af2b c13b 7129 63be 2261 b4bd
000003e0: d3ec acbd ae5a 2f3d bd5c 0ebe fe0e d8bd
000003f0: dd4f 5fbd 1b51 82bd 4399 ca3b 1790 dd3d
-0.036773317 -0.029584626 -0.104744144 -0.12988937 -0.03760204 0.09507459 0.079385325 0.045574993
0.09067485 -0.1608256 0.011984339 -0.050002936 0.14555064 -0.15745647 -0.027034571 0.02355705
0.11729333 0.062976636 -0.02606912 -0.041066103 0.049037196 0.061229244 0.17566933 0.026624233
-0.24692523 0.0053823874 0.10196441 -0.036133695 0.15056841 0.055478293 -0.03116659 -0.042904552
0.016012946 0.08573257 0.12958057 0.004509485 -0.13786308 -0.0353433 -0.037476826 0.034268547
-0.05600139 -0.11730542 -0.04809159 -0.11200785 -0.016731467 -0.036288157 -0.094680205 -0.07818854
0.10482529 -0.078427635 -0.07856009 0.1370328 -0.02245045 0.004905919 0.051524334 -0.03729
-0.038533535 0.07756156 0.06985903 0.035418544 0.012658201 -0.08515738 0.02819276 0.0037408173
-0.022988573 0.1397703 -0.058071002 0.089825734 -0.066677205 -0.13604912 0.07496999 0.060153317
-0.029005395 -0.029774163 -0.10202918 -0.09251469 0.09761039 0.06972979 -0.07162848 -0.099633686
0.12707649 0.16486531 0.018069955 -0.028643394 -0.027045855 -0.15337305 -0.16601779 0.05635766
-0.00035426216 -0.12720779 -0.01022942 -0.086848326 -0.017109036 -0.08159048 -0.0179307 0.0034446206
-0.02817315 -0.014685689 0.051254515 0.01727691 -0.06493754 -0.03180255 -0.06785723 0.023618571
-0.100147404 0.07565495 0.0807058 -0.0778189 0.03840025 -0.061052453 0.047024313 -0.107464485
0.001968274 -0.07501977 0.082244486 0.00389419 -0.10026112 -0.029609496 0.011234671 -0.0477199
-0.030674368 0.049207833 -0.18909553 0.104111284 0.058981888 -0.04270694 -0.045125406 -0.12038224
-0.058834106 -0.04288743 -0.018746339 -0.18985675 -0.102333225 0.020189354 0.020392103 0.04272066
0.06120952 0.0912128 0.044569373 -0.024548268 0.08604015 0.0380828 0.007621841 0.016120141
-0.0179064 0.027596898 0.08531668 0.13736129 0.053678386 -0.23514299 0.028220339 0.09269543
-0.035061236 -0.012485365 0.18868361 0.060385533 0.11803834 -0.047995795 -0.0008757823 -0.13265924
-0.080155164 -0.046142887 0.08824576 -0.058636628 0.12298487 0.038206976 0.09883262 -0.077534474
0.019320244 -0.019270046 -0.1331895 0.0374234 0.10929363 -0.036561623 0.007775823 0.065641664
0.14865676 0.12268049 -0.103808075 0.047135845 -0.095787354 0.070117615 0.044563904 -0.030885173
-0.07180339 -0.046095528 0.016382203 0.020441333 0.12783362 0.11682659 -0.22772272 -0.03679446
0.08799233 0.025158236 -0.10103046 0.013426185 0.021760331 0.029537603 0.03190628 -0.13618706
0.029874317 0.071541265 -0.001064754 -0.059776038 0.04569467 -0.08983037 0.088998914 -0.010662126
0.016223123 0.011428859 -0.033513688 0.09362509 -0.07905619 0.029963346 -0.097953506 -0.13239841
-0.09518207 0.03835744 -0.0006701458 0.06524277 0.14289196 0.009966894 -0.13246153 0.10405966
0.004043414 -0.00792607 -0.1571619 -0.041422706 0.15002847 0.13597779 0.082365 -0.055113073
0.039607793 -0.0042107664 0.039249845 -0.117553234 0.083810896 -0.059239674 0.059324697 -0.09411902
-0.040337615 0.058205586 0.015891358 -0.08069248 -0.052866843 0.0058951 -0.22183777 -0.08807589
-0.08443608 0.04281109 -0.13902564 -0.105497345 -0.054519523 -0.06363126 0.006182821 0.108184986

network_body._body_endoder.seq_layers.2.bias f4 [128]
00000000: aaf1 36bb 05cd 91bb df23 ef3a 61b0 e3bb
00000010: b9b7 893b 10e6 983a 750f acbb a00c e7bb
00000020: a763 c73b 9262 d33a f871 f9ba fc4a 12bb
00000030: 12bf 64bb b856 efbb be71 fd3b 896c ca3b
00000040: 831c dcbb a651 83bb 2edd e0bb 8f6a 013c
00000050: 92c0 483b a915 d0bb a997 91bb 5fe0 c4bb
00000060: d8f8 f13b d6a2 6a3b cb97 ac3b 7d01 e63b
00000070: 806f 1eba 4fbb c43b 6a42 9e3b 6283 053c
00000080: 627e 093c 1338 d53b 51ce 8ebb c404 103b
00000090: da9c d9bb 954b e1bb 9e15 4b3b 3035 8738
000000a0: 3441 c0bb 1651 c23b cea7 d2ba 5a99 093c
000000b0: 1d9b c03b 252a 0a3c e7f4 0bbb 7d94 79bb
000000c0: 3205 433b 9402 d5bb d4af fb3b 354c 6b3b
000000d0: 6129 c5bb 237c f3ba 74d2 ee3b eed5 8f3b
000000e0: aed0 8cbb 4dfa ad3a 1aec f83b 3aa1 87bb
000000f0: b7bc f93b bdba 033c c9ac 35b7 f638 173b
00000100: 3784 df3b d76e a53b c39c cebb eae8 c2bb
00000110: b3b1 bbbb 7398 a4bb 9656 c83b d8e4 c03b
00000120: 363a dcbb 2491 a73b caf3 cb3b 2ebc 753b
00000130: 46a4 e9ba 866f 953b c2df d3bb 174b f03b
00000140: 750d 55bb e483 7a3b 77dc d2bb 5179 bd3b
00000150: 98ce ec3b 31d4 c7bb 0355 bfbb 1322 74ba
00000160: 0751 8fbb 23a6 cd3b b733 183b 0ce1 83bb
00000170: 670f d93b e10c fe3a 0699 bcbb ba9a df3a
00000180: 2a78 e93b 71b6 fabb 683b 4aba 7511 b03a
00000190: ac7d 0cbb 7a23 b0bb 82fc fe3b 4858 593a
000001a0: c6de 89bb 045c 18bb 78a9 8fbb a545 703b
000001b0: c18d f13b 30b2 bcba 9955 023c cca9 cbbb
000001c0: ce5d cd3b 5f95 2abb 6fc7 e5bb 8d7e d33b
000001d0: e861 1fbb 23a6 d33b 9278 f03b 4827 82bb
000001e0: 62b6 aa3b af33 d53b c335 933b ceaa a73b
000001f0: 1dc2 d53b 038f eeba 0d26 6abb b6dc 1c3a
-0.002791504 -0.004449489 0.0018244943 -0.0069485162 0.0042028097 0.0011665244 -0.005250866 -0.0070510656
0.0060848775 0.0016127399 -0.0019031158 -0.0022322526 -0.0034903926 -0.007304039 0.0077345064 0.006177489
-0.006717266 -0.004007536 -0.006862304 0.007898941 0.003063236 -0.0063502383 -0.004443128 -0.0060081924
0.007384401 0.0035802624 0.0052671186 0.0070192204 -0.00060438365 0.0060037742 0.0048296945 0.008149
0.008391948 0.0065069287 -0.004358091 0.0021975497 -0.0066410126 -0.006875465 0.0030988227 6.4472086e-05
-0.005867148 0.0059300764 -0.0016071738 0.008398378 0.005877866 0.0084329 -0.002135569 -0.003808289
0.0029757735 -0.0065005515 0.0076808725 0.0035903577 -0.0060168956 -0.0018576424 0.0072882716 0.004389516
-0.0042973375 0.0013273448 0.007596505 -0.0041390928 0.0076213735 0.008040127 -1.082867e-05 0.0023074723
0.006821181 0.0050486135 -0.0063053085 -0.0059481757 -0.0057279705 -0.005023056 0.0061138375 0.0058866553
-0.0067208065 0.0051137377 0.0062241303 0.0037496197 -0.0017825447 0.004560414 -0.006465883 0.00733317
-0.0032509242 0.0038225586 -0.006434973 0.0057822843 0.0072267763 -0.0060982932 -0.0058389916 -0.0009312939
-0.004373673 0.0062759086 0.0023224184 -0.0040246304 0.0066241506 0.00193825 -0.0057555465 0.0017059662
0.0071249204 -0.0076511432 -0.00077145407 0.0013432937 -0.002143721 -0.005375323 0.007781566 0.0008291048
-0.004207465 -0.0023248205 -0.004384216 0.0036662605 0.0073716347 -0.0014396366 0.007954978 -0.0062153097
0.006267286 -0.0026028974 -0.0070122997 0.006454295 -0.0024319831 0.006459014 0.007338592 -0.003971968
0.00520973 0.0065064053 0.004492493 0.005116797 0.0065233842 -0.001820058 -0.0035728246 0.0005983816

network_body._body_endoder.seq_layers.4.weight f4 [128, 128]
00000000: 99c2 193e d215 483c 7c64 963d 0d86 f5bd
00000010: 0d0b e03d 9173 5b3d a6fc 3c3e 8b3d cfbd
00000020: 0c05 fb3c c290 523d 5296 c63b aa2c c7bd
00000030: 83cc a5bd 9c2d 6cbd 078e 653d 5865 32bd
00000040: aa8a 103c 6e10 653d e822 fcbd d4b2 1c3e
00000050: 8092 833d 4a5e 1a3d b90d 4fbe 6d86 0e3e
00000060: 620b 9d3d d895 c2bb 72aa a9bb a856 52bd
00000070: 8fc3 453e e0df 503d 98be be3b 4441 5abd
00000080: e5c6 a1bd f31d a9bc 94e1 e63d 25e5 ac3d
00000090: a28f 15bd 9135 213e 4e3f 06bd fdc7 07bd
000000a0: 0f9f 033e 12fc 0abd 149d 183e ccf7 093b
000000b0: 6014 44bd e9b7 f43d 9abd 61bd 50ce 01be
000000c0: e020 e03d 4ac4 d6bd b028 f53c c32c 6e3d
000000d0: d3d5 653d da23 2ebe e77d c13c da49 bebd
000000e0: ed1d 0c3e 8330 b13d eb63 4cbd 6e9e f6bd
000000f0: 2e77 ca3d faec 853d aa4a f93c 5968 0e3e
00000100: 2226 0bbb 8e9e e33d db43 c7bb a559 3f3e
00000110: c983 0dbd 6514 fa3d 09e6 273d a4cb af3c
00000120: 8f7b 89bd 8bf5 7d3b de44 d5bd d303 9f3d
00000130: b259 f63c d91d 0c3d 49af f13d 5c7c b3bd
00000140: 5c5c ed3c 0713 46bc abce 03bd 1160 9b3d
00000150: 0fa8 2c3e 08aa d4bd b1ba c63b d069 2f3e
00000160: 96d4 8a3c 1831 793d cd98 893c 2e72 8e3d
00000170: 841a c03c 20a3 473d fb82 773d 4e89 9fbd
00000180: a84b 8bbd 1df5 f43b 494d c5bc c7b2 4abe
00000190: 37fd 71bb 2fdf 04bb 6cd1 a93d de67 bebd
000001a0: d8ee 7bbd fc6d 69bd 79dc 173d 75d4 e0bd
000001b0: 0e4e e7bc 3dfd 02bb 3dcd ad3d 86c2 be3c
000001c0: 02ba 85bd 48bd 883c 59a4 123e c7d4 09bd
000001d0: d5ea 413d 555c 063d be38 09be 1ea3 22bd
000001e0: 336b 41bd 78db 3cbd 2e19 793c 0cc3 9d3d
000001f0: c104 73be be5e efbd d3f1 963d 36a3 1d3d
00000200: c0d5 8ebc 0393 a5bd f84a 363e b8a7 fabd
00000210: 132d 15bd 1230 f9bc 850e 16bc e3a9 a1bd
00000220: 7618 363e 809f 54be 5499 4d3e b87d b63d
00000230: 2b60 08be 9547 99bd dffa 1cbe 0099 33bd
00000240: 8f2e bbbd df1c 8fbd 2e3d 35be 20c0 b4bd
00000250: d535 afbd 0b6c d13d b18e 23bd 1cb5 6abc
00000260: 13d6 70bd 6e0d 0ebd 4c24 8d3c 2a97 313d
00000270: cfbb f8bc b410 7e3d 9a0a f4bc 6cb1 b5bd
00000280: d93c 9cbd 901c 10bc 6264 45bd 3cc3 8ebd
00000290: 9024 c33b 96a8 9dbd 3aac 8f3c cc2b 253d
000002a0: 0e67 c23c a59d 41bb 5f90 9fbc 97b1 783c
000002b0: 8f62 3ebd 8ef5 33bc 4c85 3a3d e9bb 74bd
000002c0: 7b0e e5bd 66cc a23a e06c cf3b 5ed8 663c
000002d0: 99a8 21bd 51d9 02be 32b4 77bd abaa da3d
000002e0: c0ec 27bd 6f4e 083e 0022 843c 10e5 d23c
000002f0: da87 043d 9778 993d ba9d bb3d 5741 30bd
00000300: 9018 45bd acbd debd 5bb7 863d 8688 69bc
00000310: c172 bdbc 575f 5bbd f02e 233e 060e 0d3e
00000320: 4a42 a03d 632f a03c 188a ff3b e7cf 14bd
00000330: 85ba b0bd 6266 15bd fe41 03bd 5c11 673c
00000340: a4d6 363d f775 5abd 2e03 913d 6152 273d
00000350: c397 25bd feac 343e bf35 d43c e839 5abb
00000360: 08d2 aa3c 49e1 023d 2ecd 14be a032 4fbe
00000370: 2112 be3b 9734 87bd c92b b0bc ae06 623d
00000380: 5bc3 f1bb f6aa 74bd 0491 e1bd 1a49 bc3d
00000390: ec01 34bc 0b10 3abd 45dd 13bd 1fa8 fdbd
000003a0: 608d ee3c b5b5 e03c 1301 833d 7ac6 093e
000003b0: 0e17 86bc a93b 1ebe 4a72 7e3d 254d 5fbe
000003c0: 0e28 893d 78fa aebd 40fd 253e c546 08be
000003d0: 8a6b 86bc 51c3 5c3c 0e8a 52bd 69f3 313d
000003e0: d7f2 8d3d ff51 d6bd 7514 383e 0a5d 653e
000003f0: 1040 89bd 8acd 4d3d 2412 6abd 6726 7e3c
0.1501564 0.012212234 0.073433846 -0.11988459 0.10939608 0.05357701 0.18455753 -0.1011916
0.030642055 0.051407583 0.0060604 -0.09725316 -0.08095648 -0.057660684 0.05604365 -0.04355368
0.008822123 0.05592387 -0.12311345 0.15302593 0.06424427 0.037687577 -0.20220079 0.13918467
0.07668187 -0.005938273 -0.0051777894 -0.051352173 0.19312881 0.050994754 0.0058210604 -0.0532849
-0.07899264 -0.020644164 0.11273494 0.08442143 -0.036513932 0.1574309 -0.032775216 -0.033149708
0.12853645 -0.0339318 0.1490367 0.002105224 -0.047870994 0.119491406 -0.05511246 -0.12676358
0.109437704 -0.10486658 0.029926628 0.058148157 0.05611212 -0.17005864 0.023619605 -0.0929143
0.13683291 0.08651831 -0.049899977 -0.12041937 0.09886013 0.0653934 0.03043111 0.13906993
-0.0021232446 0.11114226 -0.006081087 0.1868654 -0.03454951 0.12210921 0.040990863 0.021459408
-0.0671302 0.0038751091 -0.10413526 0.07764401 0.030072067 0.034208152 0.11801011 -0.08763954
0.028974704 -0.012089497 -0.032179516 0.075866826 0.16860984 -0.103839934 0.006064736 0.17130208
0.016947072 0.060837835 0.016796494 0.06955372 0.023450144 0.048739552 0.060427647 -0.07789861
-0.0680154 0.007475509 -0.024084704 -0.1979476 -0.003692461 -0.002027463 0.08291897 -0.09297155
-0.061507076 -0.056989655 0.037075493 -0.10978023 -0.028235462 -0.0019987368 0.08486412 0.023286115
-0.06529619 0.016691819 0.14320506 -0.033650186 0.047343094 0.0328029 -0.13400552 -0.039706342
-0.047221374 -0.04610774 0.015203757 0.07703218 -0.23732282 -0.116879925 0.07370343 0.03848573
-0.017435908 -0.08084681 0.17802036 -0.12239021 -0.03641994 -0.03041843 -0.009158735 -0.078937314
0.17782769 -0.2076397 0.20078021 0.08910698 -0.13317935 -0.07484356 -0.15330075 -0.043847084
-0.0913974 -0.069879286 -0.1769912 -0.088257074 -0.085551895 0.10225686 -0.039931003 -0.014325406
-0.058797907 -0.034680776 0.017229222 0.043357052 -0.030362992 0.062027648 -0.029790211 -0.08871731
-0.07628793 -0.008795872 -0.048191436 -0.06970832 0.0059552863 -0.07698171 0.017538179 0.04032497
0.02373078 -0.0029543426 -0.019478021 0.0151790595 -0.04648071 -0.010983838 0.045537278 -0.059749518
-0.111844026 0.0012420535 0.0063301176 0.014089672 -0.039467428 -0.12778212 -0.060474582 0.106770836
-0.040997267 0.1331117 0.016129494 0.025743991 0.03235612 0.07493704 0.09160943 -0.043031063
-0.048119128 -0.10876021 0.06577941 -0.014253741 -0.023126008 -0.05355772 0.15935874 0.13774881
0.07825144 0.019553846 0.0077984445 -0.036331084 -0.08629326 -0.036474593 -0.032045357 0.01410326
0.04463829 -0.053335156 0.070806846 0.040850047 -0.040427934 0.17644116 0.025904534 -0.0033298675
0.020852104 0.03195313 -0.14531395 -0.20234156 0.005800501 -0.066018276 -0.021505253 0.05518215
-0.0073780245 -0.059733354 -0.11013988 0.091936305 -0.010986786 -0.045425456 -0.03609969 -0.12385582
0.029120147 0.027430395 0.06396689 0.13454619 -0.016368415 -0.15452446 0.062120713 -0.21806772
0.06697093 -0.08543867 0.16209888 -0.13308246 -0.0164087 0.013474301 -0.05140119 0.043445025
0.06931084 -0.10464858 0.17976554 0.22398773 -0.06701672 0.050244845 -0.057146206 0.0155120855

network_body._body_endoder.seq_layers.4.bias f4 [128]
00000000: f5c6 b1b9 7a4d f1bb 8b4d e5ba b049 ac3b
00000010: 87ac d93b 203c aa3b f00c e739 7b2b c63b
00000020: 60ab 233b 71bf bfbb 3b74 e5bb 855d 14bb
00000030: 48b8 c8ba e9e0 fa3b ff35 9a3b 469b 31bb
00000040: b186 dabb 705b b93b 2c48 e5bb 486d d53b
00000050: cb4c df3b 6871 d8bb 36b7 843b d28b 843b
00000060: 37d5 8639 d1d2 783b 9393 4aba 36e9 573b
00000070: 91c5 f5ba d60e aaba e79f bdbb 8eae d2bb
00000080: eb34 45bb 9ec6 e53b 92c0 893b 96fb e23b
00000090: 83fd dc3b 5802 25bb eca7 f1ba d100 a6b9
000000a0: d0e0 b3bb 245e e8bb 97a7 5d3b 457a d3bb
000000b0: 51bc cf3b 42e8 2d3a 2e66 d1bb 9c2c 983b
000000c0: 7de8 e13b fd13 dd3b b147 023c 77c9 61bb
000000d0: 7fc2 c8bb 64f1 dfba e0c9 953b 31eb 7e3b
000000e0: ae69 083b 8731 173b c71f e6bb aae8 ccbb
000000f0: 387a 823a 2725 d0bb 02ba cfbb edf7 ec3b
00000100: 1f70 dfbb 4f7a 023c 3b8d a73b 1c80 a8bb
00000110: ce8c fc3b 28ab 63bb 5f3e 97bb 3f51 e4bb
00000120: 9592 843b b2c5 b13b c711 2e3b 4dc4 6bba
00000130: 7ad4 e43b 8dd1 983b e877 fdbb 2f5f a33b
00000140: e5a6 a73b 364a d5bb b52e d6bb b078 523b
00000150: 71f1 a63b 292a f63b d7cf a73b 5988 ee3b
00000160: 9588 b6ba 84d3 f43b 8d0a d2bb c016 f6bb
00000170: ed0a d73a fe75 c6bb 9912 163b 7ad9 5abb
00000180: f5cd f3bb 3c18 e33b 5dc8 fb3b 620e c33b
00000190: b4db f13a a10f f43b 0366 833b c9ce a73a
000001a0: 2b7e f03b e64c b53b 7094 e5bb 7117 de3b
000001b0: 086e 883b 8920 9cbb 6a71 f33b a197 403b
000001c0: c56b f83b 5313 acbb 56ef 7cbb f525 f53b
000001d0: 4715 5b3b 609f e13b 7057 d23b 168e 16bb
000001e0: 811c ac3b 7bc0 ff3b 2222 ea3b 4813 873b
000001f0: 7b81 4e3b e5ec 973b 901e e2ba dd38 ea3b
-0.00033908305 -0.0073639723 -0.0017494423 0.0052578077 0.0066428813 0.0051951557 0.00044069393 0.0060476637
0.0024973974 -0.005851679 -0.007002381 -0.002263875 -0.0015313709 0.007656206 0.004706144 -0.0027100607
-0.0066688885 0.005656652 -0.006997129 0.0065132715 0.0068145744 -0.006605316 0.0040501608 0.004044988
0.0002571733 0.0037967453 -0.0007727679 0.00329454 -0.0018750896 -0.0012974392 -0.005786884 -0.0064295
-0.0030091356 0.0070122024 0.0042038644 0.006926964 0.006744088 -0.00251784 -0.0018436885 -0.00031662596
-0.005489446 -0.0070913006 0.0033821815 -0.0064537846 0.0063395877 0.00066340354 -0.0063903546 0.0046439897
0.00689417 0.0067467676 0.007951663 -0.0034452358 -0.0061267014 -0.001708549 0.0045711845 0.003889751
0.0020814943 0.0023070292 -0.007022831 -0.0062533217 0.0009954637 -0.006352085 -0.0063393125 0.0072317035
-0.006818786 0.007963731 0.0051132715 -0.005142225 0.007707215 -0.0034739468 -0.0046155895 -0.006967693
0.0040457943 0.0054251784 0.002656089 -0.00089937897 0.006983337 0.0046636523 -0.007735241 0.004985712
0.005116331 -0.006509091 -0.0065363296 0.0032115392 0.0050947 0.00751235 0.005121212 0.0072794375
-0.0013926203 0.0074715037 -0.006409949 -0.007510036 0.0016406454 -0.0060565462 0.0022899269 -0.0033393786
-0.0074403235 0.006930379 0.0076837973 0.0059526423 0.0018452317 0.007448152 0.0040099635 0.0012802716
0.007339259 0.0055328486 -0.0070062205 0.006777697 0.0041635074 -0.0047646207 0.0074292915 0.0029387253
0.0075812065 -0.005251327 -0.0038594804 0.0074813315 0.003342943 0.006885454 0.006419115 -0.0022972873
0.0052524214 0.007804928 0.007145182 0.0041221716 0.0031510282 0.0046363943 -0.001725154 0.007147892

action_model._continuous_distribution.log_sigma f4 [1, 18]
00000000: 9053 26ba e09a 4fba ca1e 24bb ce3c 383b
00000010: 1b48 42bb 86c7 413b 8834 ee3a ee3a 1dbb
00000020: 022e 8b3b 5664 9bb9 6b9b 91ba 9b19 9ebb
00000030: d2a1 9f38 827a 80bb ba75 4ebb 3847 533b
00000040: 8cd8 e1ba 6fee 25ba
-0.0006344849 -0.00079195015 -0.0025042766 0.0028112414 -0.002964503 0.0029568388 0.0018173615 -0.0023991424
0.004247428 -0.0002963866 -0.001110894 -0.0048248298 7.611852e-05 -0.003920854 -0.0031503276 0.0032238495
-0.0017230674 -0.000632978

action_model._continuous_distribution.mu.weight f4 [18, 128]
00000000: 5e19 dbbc e179 b8bc 45c6 d6bc 0ddd 99bb
00000010: 616b 2ebb 3baa 81bc 9cb4 833c 7db8 e83c
00000020: 5682 1539 f93e aa3b e3e0 1fbd cb6e 2f3c
00000030: 9439 133c 9a7b e03c 9094 423c 309a 4b3c
00000040: d0ee 9a3b 7158 333c 6a74 fd3a 59f6 8e3c
00000050: 5a06 613c 7bda d73c bdfb 0a3c 8f4d 2b3d
00000060: 0138 3d3b 2f7c e1bc 1f00 85b8 2954 f33c
00000070: 887d f23b 1c02 14bc f679 eebc 856a cabc
00000080: 9fd2 29bc d510 133a aab2 a63c 9779 133d
00000090: d30b 1d3d ec91 0cbb f5d2 143a 5e72 88bc
000000a0: 00f4 60bc 5f99 5abc e0c8 81bb b802 a7bc
000000b0: 0a8e 57bc 4296 b83a f587 073b 907c 0a3d
000000c0: c81a e7bb cb92 b1bc ae90 e63b 0231 d1bb
000000d0: 338e 56bc 66f4 a1bc f5fe 813b 168e cdbc
000000e0: 6a1f 153b 55f3 4cbb 2e7e d2bb 56bb 55bc
000000f0: 60db 063d 8199 cfbc 50aa 87b7 9f05 073c
00000100: 1269 1dbd c642 ac3c 0101 423a d82e 893c
00000110: 4fa1 c03c 911e 99bc 146e f9bc 8e4f 34bc
00000120: 28f3 a4ba 28f2 e3bc 074a 053c 2655 64bb
00000130: 4349 2e3c b180 a53b f502 b6bc 5f1d b83c
00000140: 4210 063d 7fe3 3d3c b83d 6cbc 3f93 8cbc
00000150: 9bdf 63bc 8069 2bba f9df 86bc 9e9c e23c
00000160: 53f3 6bbc d2ac 193c 2663 cbbc 10ae 09bc
00000170: 84d8 8cbc 618b a1bc 0186 2b3c 8d73 ed3b
00000180: 16db 97bb 7862 8abb 0f33 073d 3122 36bc
00000190: 2b63 dcbb 2cb3 063d 035a 5dbb a3ab af3b
000001a0: bcfb f63b eb81 723c fd82 45bd 21a5 7a3c
000001b0: 3fec 793b f2c9 283b a14b 153c 7128 a2ba
000001c0: 166c 373b 91f4 54bc 2b8e 48bd db9a 393d
000001d0: be99 063c c433 dd3c 9c6e d8bb fdac c339
000001e0: df0b 14bc 5b1c e03c 7775 133d 3012 c3bb
000001f0: 15f7 833c bc16 f0b9 bbce 3b3c 7432 6d3a
00000200: bd88 4abb 9ebf 843c 269b 373c 1adb 2dbb
00000210: 75e8 6bbc 026e 0f3c e73b afbc ccdf 093d
00000220: 2760 30bc 619e 27bb 16d0 61bc 2e40 193d
00000230: a80c 3239 6037 33bc 3e56 8cbc 14ca db3c
00000240: df2f 65bc 66fd 2fbc 0a46 a437 b1e3 46bc
00000250: f8af 2abc e4d1 083d 8087 97bc 5f7d 8c3c
00000260: dee4 afbc 2e0c 8d3c fb49 f4bb 34e6 c6bc
00000270: 6254 323c 54c7 b6bc 84da c0bb f016 4d3c
00000280: fb4e 5ebb 8a0b 4bbc 19b0 243c 69e8 323c
00000290: 86d2 38bc 4bba 19bc 2a0d 4d3c b67a d83b
000002a0: a493 053d f16e 1c3d f1eb 153a d11c 1abc
000002b0: 960e 2dbd 5f34 313d ae8c d13c 3243 2e3c
000002c0: 1697 5ebc 9e99 81bc aec5 9bbb 1545 243b
000002d0: 9105 843b 8c0c c03c 7379 b9bc 3598 0bbc
000002e0: 9adf 1abd e487 e2ba 9dc2 eabb 0d6e 993c
000002f0: 93ba 8d3b 2751 133c 56e5 753b 817a 42bc
00000300: c7ee b53c 16cf a7bc cc2b 87bc 1fa0 ac3c
00000310: 3ad2 973b 8f11 1cbc 88ab 1ebb 580c 623c
00000320: ed00 93bc 62a3 c4bc 6356 8d3b 6d8e 00bc
00000330: 558d ad3a 24a9 b8bc 9ddc 013c 534e 95bc
00000340: c1d8 c73c ef4f 1cbc ca09 4d3c a175 173c
00000350: 535d 63bc cd7d fabc fb90 a7bb e4ba 26bc
00000360: 7ed7 db3c 803c 9cbc a761 dbbc e7da 7a3b
00000370: 2f89 bdbc c473 b0bc 5319 10bc ca39 153d
00000380: 623c f23a 8ebd 6d3b d83b 23bd 04b5 84bc
00000390: ac4a 5cbb 0512 a5ba 58aa 193d 746b 863c
000003a0: 324f 66bc e9c4 f2bb c1a5 e73c 27ce f3bc
000003b0: e276 4abc 5517 223c ec71 edbc 6d73 013c
000003c0: 5c51 823b d1a4 69bb 7cd2 76bc f4b9 40bc
000003d0: 7d88 d4bc af2a 593c 51f0 c93b fe5b 55bc
000003e0: 8c5a efba c849 9a3b c02b 06bd 1712 b33c
000003f0: de91 d83b 3892 473c d488 bfbc 7286 bc3c
-0.026745494 -0.022519054 -0.02621759 -0.0046955408 -0.0026614296 -0.015828243 0.016077332 0.028408283
0.00014258301 0.005195495 -0.039032828 0.010707567 0.008985896 0.027402688 0.01187624 0.012426898
0.0047281757 0.010946379 0.0019337062 0.017451452 0.0137344245 0.026349297 0.008482871 0.041822013
0.0028872492 -0.027525036 -6.341957e-05 0.029703217 0.0074002184 -0.009033706 -0.02911089 -0.024708996
-0.010365157 0.0005610113 0.020348866 0.03600463 0.038341355 -0.002144928 0.0005677187 -0.016656097
-0.013730049 -0.013342231 -0.0039607137 -0.020387039 -0.013156423 0.0014082866 0.0020680402 0.0338102
-0.007052753 -0.021676442 0.00703629 -0.006384016 -0.013095426 -0.019769859 0.003967161 -0.025092166
0.002275432 -0.0031272967 -0.006423733 -0.013045153 0.032924056 -0.025341751 -1.6172562e-05 0.008241086
-0.03843028 0.021027934 0.0007400662 0.01674597 0.023514418 -0.018691333 -0.030447997 -0.011005295
-0.0012584673 -0.02782543 0.008135325 -0.0034840791 0.010637584 0.0050507416 -0.022218207 0.022474943
0.03273035 0.011589884 -0.014419012 -0.017160056 -0.013908292 -0.0006538853 -0.01646422 0.027662572
-0.014401275 0.0093795825 -0.024827551 -0.008403316 -0.017193086 -0.019719781 0.010468961 0.0072464407
-0.0046342714 -0.004223164 0.033007678 -0.01111655 -0.006725689 0.032885715 -0.0033775575 0.005361037
0.0075373333 0.014801483 -0.048220623 0.015298159 0.0038135198 0.0025755134 0.00911227 -0.0012371672
0.0027988008 -0.012997762 -0.048963707 0.045313697 0.008215366 0.027002223 -0.0066049825 0.00037322185
-0.009036033 0.027357271 0.036000695 -0.005953096 0.016109029 -0.00045793306 0.011462863 0.00090483506
-0.0030904256 0.016204651 0.011206424 -0.00265283 -0.014398684 0.008754255 -0.021390868 0.033660695
-0.010765112 -0.002557658 -0.013782522 0.037414722 0.00016980118 -0.010938495 -0.017130967 0.026829757
-0.013988464 -0.010741567 1.9582938e-05 -0.012139247 -0.010417931 0.033403292 -0.018497229 0.017149625
-0.021471437 0.017217722 -0.007455108 -0.024279691 0.010884376 -0.022311844 -0.005885424 0.012517676
-0.0033921588 -0.012392888 0.010051751 0.010919669 -0.011280661 -0.009382795 0.012515346 0.006606425
0.032611504 0.03819174 0.0005719057 -0.009406284 -0.04225024 0.043262836 0.025579777 0.010636138
-0.013585826 -0.01582032 -0.00475379 0.002506559 0.004028984 0.023443483 -0.02264092 -0.008520176
-0.0378109 -0.001728293 -0.007164313 0.018729234 0.00432522 0.008991516 0.0037520728 -0.0118700275
0.022208584 -0.020484488 -0.016500376 0.021072445 0.0046332153 -0.009525671 -0.0024211127 0.013796888
-0.017944777 -0.024003688 0.0043132766 -0.007846457 0.0013240973 -0.02254159 0.007926133 -0.018225824
0.024395349 -0.009540542 0.012514541 0.0092443535 -0.013877231 -0.030577565 -0.0051137186 -0.010176394
0.026836153 -0.019071817 -0.026779963 0.0038277449 -0.023136703 -0.021539576 -0.0087951 0.036432065
0.001848113 0.0036276313 -0.039851993 -0.016199596 -0.0033613844 -0.0012593871 0.037515968 0.01640866
-0.014056968 -0.0074087274 0.02827728 -0.029761387 -0.012357445 0.009893258 -0.028984986 0.007901055
0.003976984 -0.0035651217 -0.015064832 -0.011763085 -0.025943989 0.0132548055 0.006162681 -0.013022421
-0.0018261238 0.0047085024 -0.032756567 0.021859212 0.0066091856 0.012180857 -0.023380674 0.023013327

action_model._continuous_distribution.mu.bias f4 [18]
00000000: 4064 e23b 5fa7 eabb fd04 35bb d533 a43a
00000010: 03f0 4d3b 1631 a73a ce68 eeba 9ae2 b63b
00000020: 4dc7 adb8 0e7f bc3b 5c61 e2bb 077a ddbb
00000030: 2cc9 adbb 4b66 e1bb 48c5 363b c724 ae3b
00000040: cb33 bebb ebff cfbb
0.0069089234 -0.0071610655 -0.0027621381 0.0012527654 0.0031423576 0.0012755718 -0.0018189193 0.005581212
-8.2864055e-05 0.005752451 -0.006908579 -0.0067589316 -0.0053035226 -0.0068786494 0.0027888585 0.005314443
-0.005804514 -0.0063476465

action_model._discrete_distribution.branches.0.weight f4 [2, 128]
00000000: b110 61bb aa28 47bc 04e2 c53b 66ee 753b
00000010: 037d e0bb 852a f13a 49fa 6f3c aa31 88ba
00000020: 2a59 0dbc 1332 283c 1613 143c 3b00 20bb
00000030: d21d ba3b 44e0 3439 66fe f9bb d6d6 983b
00000040: e5c3 383c d06f 1bbc a08c 413b d86f 84b9
00000050: 4c21 253b 3fcd baba cf5d 623c c8a4 583c
00000060: 8d81 10bb 83ca 433a 259f 4dbb 8367 4cbc
00000070: 60b5 43ba 1554 03bc ff9a ac3a c29e babb
00000080: cce5 493b 0ab6 b0bb a0a6 deba 5d8b cb3b
00000090: 9529 253b cc56 393c 3672 973c ea42 d13b
000000a0: a1dc bd3b 468d 3a3b e024 383c 6715 e0bb
000000b0: 7679 56bc 8158 813c 5206 29bc 1176 7639
000000c0: e054 273b dd22 9fbc 7470 743b fd4b ee3b
000000d0: 624a 5bbc 1a25 37bc fc73 50bc 9b64 603b
000000e0: 89ad 13bc e8ed adbc 1a52 4a3b 0c55 623a
000000f0: e56b 263a b781 79bc 5db3 2abc 3fb7 60ba
00000100: 2e81 fa3a 6af8 33bc 6f12 f13b 2a8c 75bc
00000110: 43cc 483b 2301 9dbb d3a2 1c39 2b94 d3b8
00000120: 2b8d 233c d68e 34bc 27b2 5abc f689 b83c
00000130: 677c e1bc 0983 19bc a177 65b9 c1c9 56bc
00000140: 89c9 aa3b 23a0 473c a93f 893b 46ee f5bb
00000150: 38e2 65ba 09a3 a7bb 3f06 873c a54f 973b
00000160: 059c 6fbc 8e0f 043c 1a39 3fbc 5d9d e6bb
00000170: cb8a 1a3c 3285 e2bb 0ead 96bc 01d9 a4bc
00000180: 1a62 173c 7765 003c dc8d 313c 65e5 debb
00000190: e50a 213c 6bed 323c 90e0 1fba cfe3 62bb
000001a0: 827b 25bc 322f 0bbc b4d2 d8bb 42d1 63bc
000001b0: fd44 fbbb b001 92bb 6d92 8abc ca54 9b3c
000001c0: d521 bcbc f73d 33bc 3a6d 2c3c e4ec fcbb
000001d0: 0b34 3b3b b3a4 5dbc 3e90 c5bb ea58 6dbc
000001e0: 961e bd3a c071 4d3c 6e7f 7bbb dc9f c93b
000001f0: 91cf 20b9 728f 00ba 0c47 aebb 7f77 dc3b
00000200: 7fda 83ba 18aa e23c b85f 203c b459 ef3a
00000210: 739c 7cbb f773 cd3b b74d 90ba 8dbd cdb9
00000220: cf35 c4bb b0f7 16bc e036 d43b 203e 6fbc
00000230: dc1d 67bb d1c1 773a 9cc6 9fbb 5a9a 26bc
00000240: 0eef 4d3c 1682 c0b9 ba09 143c 9edc f93c
00000250: f833 2abc 4867 f4ba 4a7a 47bb eee8 543c
00000260: 5efd 463c 7582 1d3c d0ae 03bb 7df9 0838
00000270: 0eb4 203a bc62 40bc bc6a 923a 6946 03bc
00000280: cf61 17bc e00d ba3a bdb7 0dbc cfd0 043c
00000290: 266b 1e3c 4057 1fbc 83b3 003b 4177 9ebb
000002a0: 74e8 02bc 676e e9bb 5ddc e9bb a0c6 8e39
000002b0: b991 2c3b c570 9abb 2bae 8f3b 8928 c43b
000002c0: 878a 023c 9662 4a3c 3da5 34bb 6dd5 6cbb
000002d0: 7259 683c 7ce4 1a3c f940 033b bd4b 4cbc
000002e0: bfd2 9b3a 22de e23b 08ed 83bc 192a 713b
000002f0: bc71 2fbc 67d8 7e3a 4b43 223c f64d 53bb
00000300: 02ff 373c 5e29 2e3b 2585 343c 2318 fe3a
00000310: 6ab6 f03b a9c5 9bbb 034f 713c 1fd7 7b3a
00000320: f63c 78bc 44ff 1c3c b230 683c 6d3e d9bb
00000330: a86f 0e3b 7675 203c 76d1 02bc c183 843c
00000340: 4da8 4a3b d3af dbbb c4e1 943b 34fd 903c
00000350: 125b b13a 44d8 11bb 8b0c 7a3c ceda 1ebc
00000360: 2a36 e03b ebbe e3ba c347 5a3c 1336 dd3c
00000370: 65f0 45bc 6a4b 88bc dcca 9c3b 38be e1b8
00000380: 1f39 c7b8 405b bebb 8d17 e4bb 8e9f 15bc
00000390: 185e 81bc def2 a1bc 6d8e 993c 9fba 103b
000003a0: b1ef 393c 35a0 15bc 9fa2 e33b 857c 1d3c
000003b0: ba6d 9fbb fddc 583b ec28 adbb ae43 743b
000003c0: 5d16 2a3c 52d9 f8b9 46c6 9a3c 136e fc3b
000003d0: 1755 f1bb 1788 d439 d212 6a3b 47f2 273a
000003e0: 6bb6 c8bb ac48 e83a 80e8 6abb 9d1c 5f3c
000003f0: 4a07 123c dafd fb3b 0e17 61bb 22c2 033b
-0.0034342224 -0.012155691 0.006038906 0.003752613 -0.00685084 0.0018399513 0.014647075 -0.0010390778
-0.008627215 0.010265845 0.009037754 -0.00244142 0.0056798244 0.00017249683 -0.0076292036 0.0046642823
0.011277174 -0.009487107 0.0029533282 -0.00025260332 0.0025196848 -0.0014251842 0.013816311 0.013222881
-0.0022049875 0.0007468836 -0.0031375375 -0.012475851 -0.00074656866 -0.008015652 0.0013168751 -0.005695195
0.0030807136 -0.0053927945 -0.0016986914 0.0062116818 0.0025201787 0.011312198 0.018487077 0.0063861506
0.0057941233 0.0028465553 0.01123926 -0.006838489 -0.013090482 0.015789272 -0.010316448 0.00023504371
0.0025532767 -0.019425804 0.0037298473 0.007272242 -0.013384433 -0.011178279 -0.012722965 0.0034239653
-0.009013542 -0.021231607 0.003087169 0.0008633889 0.0006348475 -0.01522868 -0.01041874 -0.00085722277
0.0019111985 -0.0109845195 0.007356934 -0.014987031 0.0030639328 -0.0047913953 0.00014937976 -0.000100888625
0.009982388 -0.011020383 -0.013348139 0.022526722 -0.02752514 -0.00936962 -0.00021883707 -0.013109625
0.005212013 0.012184176 0.004188497 -0.007505211 -0.0008769366 -0.005115871 0.01648247 0.0046176487
-0.0146246 0.008060349 -0.011671329 -0.007037802 0.009432505 -0.006912851 -0.018393066 -0.020123007
0.009239698 0.007836691 0.010837045 -0.0068022483 0.009829258 0.010920863 -0.0006098831 -0.0034620648
-0.010100247 -0.008495139 -0.0066169146 -0.013904871 -0.007668136 -0.0044557676 -0.016915524 0.018961329
-0.022965351 -0.010940067 0.0105240885 -0.0077186693 0.0028564956 -0.013528037 -0.006029158 -0.014486531
0.0014428671 0.012539327 -0.0038375515 0.00615309 -0.00015336114 -0.00049041875 -0.005318528 0.006728112
-0.0010059624 0.027668998 0.009788446 0.0018260987 -0.00385454 0.0062699276 -0.0011009489 -0.00039241873
-0.00598786 -0.009214327 0.006476268 -0.014602214 -0.00352656 0.0009451183 -0.004875971 -0.010168636
0.012569202 -0.00036718015 0.009035522 0.030500706 -0.010388367 -0.0018646503 -0.003043788 0.012994988
0.012145368 0.009613623 -0.002009321 3.265728e-05 0.0006130346 -0.01174229 0.0011170725 -0.008012393
-0.009239628 0.0014194809 -0.008649764 0.0081064245 0.009669101 -0.009725392 0.0019638247 -0.0048359935
-0.007989991 -0.0071237567 -0.007136865 0.00027232338 0.0026331975 -0.00471315 0.004384776 0.0059862775
0.007967598 0.012352606 -0.002756431 -0.0036137954 0.014181482 0.009453889 0.002002774 -0.012469229
0.0011888369 0.006923453 -0.016104236 0.0036798774 -0.010708269 0.00097215775 0.009903739 -0.0032242513
0.011230232 0.002657495 0.011018072 0.0019385855 0.007345964 -0.0047537875 0.0147283105 0.00096069457
-0.015151253 0.009582344 0.014171766 -0.006629756 0.0021734033 0.00979363 -0.00798451 0.016176106
0.003092307 -0.0067043095 0.004543515 0.017698862 0.0013531169 -0.0022254148 0.01526178 -0.009695722
0.0068423944 -0.0017375624 0.013322773 0.027003324 -0.01208124 -0.016637523 0.004784925 -0.00010764267
-9.499699e-05 -0.0058092177 -0.0069608153 -0.009132279 -0.015791938 -0.019769128 0.018744672 0.002208389
0.011348651 -0.009132435 0.006946876 0.009612207 -0.0048653753 0.0033090704 -0.0052844193 0.0037271786
0.010381308 -0.00047464162 0.018893372 0.0077035516 -0.00736488 0.00040537186 0.0035716784 0.00064066466
-0.0061252615 0.0017721853 -0.0035844147 0.013617662 0.008912871 0.0076901736 -0.0034346017 0.0020104726

action_model._discrete_distribution.branches.0.bias f4 [2]
00000000: 8be2 e338 7ae2 e3b8
0.000108664004 -0.00010866388

onnx::Div_105 f4 [14]
00000000: e6ed 7a3e 586d 1f3e 0ea2 6b3e dee2 1d3e
00000010: e4bc 6f3e 2f33 1c3e 0149 573e bfbb 1a3e
00000020: 03fb 553e e2b7 173e 9a9b 3d3e 594b 153e
00000030: 72ca 3e3e c26d 133e
0.24504814 0.15569055 0.23011038 0.15418574 0.234119 0.152539 0.21023943 0.15110682
0.20896535 0.1481624 0.18516389 0.14579524 0.18631914 0.14397338
